checkpoints/checkpoint_1000.pt (torch, 174016 bytes, 66 tensors)

gating.net.0.weight f4 [32, 3]
0	0xbe83a260	-0.2570982
1	0xbd9ec7bc	-0.0775294
2	0xbe41a47d	-0.18910404
3	0xbe437c35	-0.1909035
4	0xbdaf7767	-0.08567696
5	0xbeb0211d	-0.34400263
6	0xbed6c5ae	-0.41947693
7	0x3e227525	0.15865
8	0xbe97c5c2	-0.29643065
9	0x3e771fb6	0.2413319
10	0xbe8f0259	-0.2793148
11	0x3e721f2a	0.236447
12	0x3ef0fa90	0.47066164
13	0x3d11a612	0.035558768
14	0xbe97a4e7	-0.29617998
15	0x3ef689b8	0.48151946
16	0xbe5e84aa	-0.21730295
17	0x3f06072e	0.52354705
18	0x3c897635	0.016779998
19	0x3dd3e86e	0.10347067
20	0x3d63a587	0.05557778
21	0x3ea03daa	0.31297046
22	0xbeda8940	-0.42682838
23	0xbe0b2aa5	-0.13590486
24	0xbe982eb6	-0.29723138
25	0x3ed90b9d	0.42391673
26	0xbe563165	-0.2091728
27	0xbb4b0bb2	-0.0030982313
28	0x3e6884b0	0.22706866
29	0x3e6dd610	0.2322619
30	0xbefc4ec6	-0.4927885
31	0xbeb483e9	-0.3525689
32	0xbeae75c9	-0.34074238
33	0x3d2ecabe	0.04267382
34	0xbeddd802	-0.43328863
35	0xbdca7762	-0.09886052
36	0xbd834ea3	-0.06411483
37	0xbed05bb1	-0.40694955
38	0xbe407d57	-0.18797813
39	0x3e82cb3b	0.25545678
40	0x3f0275ec	0.50961185
41	0xbcd5e1ab	-0.026108583
42	0x3eea43c3	0.45754823
43	0xbe54d254	-0.20783359
44	0x3e34c6a1	0.17653896
45	0xbec74610	-0.3892064
46	0x3d522dfe	0.051313393
47	0xbdf57863	-0.119858526
48	0xbeec99c4	-0.46211064
49	0x3e9b416c	0.3032335
50	0x3e94c08f	0.2905316
51	0x3f04c938	0.51869535
52	0x3ddd3163	0.108004354
53	0x3efeba61	0.4975157
54	0x3ec85ca4	0.3913318
55	0xbe94390d	-0.28949776
56	0xbf0eb6e4	-0.5574782
57	0x3eb2e9f8	0.3494413
58	0x3e63228a	0.22181144
59	0x3e3f47e6	0.18679771
60	0x3e9531b9	0.29139498
61	0x3e5169c2	0.204505
62	0xbe2713c5	-0.16316135
63	0x3d9811f4	0.07425299
64	0xbed2017b	-0.41016755
65	0x3e92ef9e	0.28698438
66	0xbef8737d	-0.4852561
67	0x3ed501fe	0.41603082
68	0xbeaf18d7	-0.3419864
69	0x3edbe3e7	0.42947313
70	0xbf203670	-0.62583065
71	0x3e56a838	0.20962608
72	0xbeddec5d	-0.43344393
73	0x3d463215	0.048387606
74	0x3ec0fa55	0.37690988
75	0xbe726194	-0.23670036
76	0xbe5fc03e	-0.21850678
77	0xbeb3d665	-0.35124508
78	0x3edd557f	0.4322929
79	0x3e6eb0f2	0.23309687
80	0xbe641b3e	-0.22276017
81	0xbeec3a10	-0.46138048
82	0xbe3e67a1	-0.18594219
83	0xbdd1ce79	-0.1024446
84	0x3eaf56f8	0.3424604
85	0xbee742e1	-0.45168212
86	0x3f048d01	0.51777655
87	0xbeb8bce8	-0.36081624
88	0x3e5d3eae	0.21605942
89	0x3ed4c527	0.41556665
90	0x3ddc3229	0.10751755
91	0xbe8f4f73	-0.27990302
92	0xbf062c88	-0.524117
93	0xbe44b696	-0.19210276
94	0xbd3289f9	-0.043588612
95	0x3d19658d	0.037450362

gating.net.0.bias f4 [32]
0	0x3e84662a	0.25859195
1	0x3e23e79b	0.16006319
2	0xbed35bd3	-0.41280994
3	0x3e14487b	0.14480774
4	0x3d8767fb	0.066116296
5	0x3e87b17e	0.26502603
6	0xbd163529	-0.03667179
7	0xbf0161ae	-0.5053967
8	0xbec54e9b	-0.38536534
9	0xbef0332b	-0.46914038
10	0xbe80765e	-0.25090307
11	0x3e96c337	0.29445812
12	0x3ef15f0c	0.47142828
13	0x3eb99d2a	0.3625272
14	0xbe87f256	-0.26552075
15	0x3e804432	0.2505203
16	0xbdf4e00b	-0.11956795
17	0xbefaf703	-0.4901658
18	0xbea00a17	-0.31257698
19	0x3ed54546	0.41654414
20	0xbe02491a	-0.12723199
21	0xbd270444	-0.040775552
22	0x3ee1e577	0.4412038
23	0x3eec96ae	0.4620871
24	0x3e21fbe2	0.15818742
25	0xbd8c3399	-0.06845779
26	0xbeca2e4c	-0.39488447
27	0x3e70abf1	0.2350309
28	0x3ef00534	0.4687897
29	0x3e8954f6	0.26822633
30	0xbe9ef239	-0.31044176
31	0x3e9f48f4	0.31110346

gating.net.1.weight f4 [32]
0	0x3f890459	1.0704452
1	0x3f8a37cc	1.0798278
2	0x3f974587	1.1818093
3	0x3f72f6de	0.9490794
4	0x3f7bd5de	0.9837321
5	0x3f71349d	0.94220906
6	0x3f8193ea	1.0123265
7	0x3f8e0022	1.109379
8	0x3f870038	1.0546942
9	0x3f918e28	1.1371508
10	0x3f73621c	0.9507158
11	0x3f7d96ad	0.9905804
12	0x3f81f065	1.0151488
13	0x3f7e0a9e	0.9923495
14	0x3f8f73e6	1.1207244
15	0x3f8a83df	1.0821494
16	0x3f7f936c	0.9983432
17	0x3f89024d	1.0703827
18	0x3f752d05	0.9577182
19	0x3f692a71	0.91080385
20	0x3f79ea2f	0.9762296
21	0x3f781269	0.9690309
22	0x3f7fcd8f	0.9992303
23	0x3f83f9ec	1.0310645
24	0x3f85e578	1.0460653
25	0x3f81de6b	1.0146002
26	0x3f8721d7	1.0557202
27	0x3f7b04f4	0.9805443
28	0x3f83389a	1.0251648
29	0x3f730c56	0.949407
30	0x3f7e2978	0.99282026
31	0x3f820731	1.0158445

gating.net.1.bias f4 [32]
0	0x3db43ef0	0.08801067
1	0x3ceffbfc	0.02929496
2	0x3e185684	0.14876753
3	0xbd1f5ea1	-0.038908605
4	0xbd130a20	-0.035898328
5	0xbd92f87d	-0.07176302
6	0xbc001f13	-0.007819909
7	0xbd21226c	-0.039339468
8	0xbd886736	-0.06660311
9	0x3c6fd4c2	0.014638128
10	0xbc0283ed	-0.007966024
11	0x3c8df2f7	0.017327769
12	0x3cdfd5cf	0.027323632
13	0xbd48902a	-0.04896561
14	0x3d0c53b6	0.03425952
15	0x3c138c68	0.009005643
16	0xbd32bd40	-0.043637514
17	0xbc35418c	-0.011062991
18	0xbd780750	-0.06055385
19	0xbd9ebe2d	-0.07751117
20	0xbd646a85	-0.055765647
21	0xbc40cb47	-0.011767215
22	0xbc1e5780	-0.009664416
23	0xbcae5904	-0.02128268
24	0x3d9e3929	0.07725746
25	0xbc9571d4	-0.018242754
26	0x3dbbee4b	0.0917631
27	0xbcd1203a	-0.025528062
28	0xbbe4762b	-0.0069720945
29	0xbc9bbeeb	-0.019011935
30	0xbc162ad5	-0.009165485
31	0xbd065e91	-0.03280503

gating.net.4.weight f4 [32, 32]
0	0xbd673a18	-0.056451887
1	0xbe7adeaf	-0.2449901
2	0x3d7e5b7b	0.06209896
3	0x3d8108ad	0.06300483
4	0xbe38b741	-0.18038656
5	0xbcbc920b	-0.023018857
6	0xbe396e57	-0.18108498
7	0x3d5c0ec0	0.053725004
8	0xbe25b80c	-0.1618349
9	0xbd899fc3	-0.06719925
10	0xbda01c46	-0.07817893
11	0x3e031243	0.12799935
12	0xbe128e64	-0.1431213
13	0x3e02af50	0.12762189
14	0xbbcc57d0	-0.006236054
15	0xbe18308e	-0.14862272
16	0xbe0e407c	-0.13891786
17	0xbe098c10	-0.13432336
18	0x3dbe6a49	0.09297616
19	0x3d654ae0	0.05597961
20	0x3deb90cc	0.11502227
21	0xbe465226	-0.19367275
22	0xbcc61a7e	-0.024182554
23	0xbe451b9f	-0.19248818
24	0xbddba412	-0.10724653
25	0x3e01b709	0.12667479
26	0xbd9b0ac7	-0.07570415
27	0xbd96dd9e	-0.07366489
28	0x3c9a6e55	0.018851439
29	0xbda8556d	-0.08219419
30	0x3dbf9a4e	0.09355603
31	0xbe41cb35	-0.18925174
32	0xbd2c766f	-0.042105135
33	0x3dff6066	0.124695584
34	0xbdb95a4c	-0.09050426
35	0xbe11db80	-0.14243889
36	0x3cfa989a	0.030590344
37	0xbe1951db	-0.14972632
38	0x3e255459	0.16145457
39	0x3e6f5425	0.23371942
40	0xbe108c93	-0.14116125
41	0xbe4d9ff4	-0.20080549
42	0xbd747b73	-0.059688043
43	0xbdc704a1	-0.0971768
44	0x3e02cbb4	0.12773019
45	0x3e042d4b	0.12907903
46	0xbe1a374c	-0.15060157
47	0xbe76c70d	-0.2409937
48	0x3d1314e3	0.03590859
49	0xbdc1f095	-0.094697155
50	0x3e1e0665	0.15432127
51	0x3d03e8c5	0.03220441
52	0xbd438567	-0.047734644
53	0x3c0cc6a5	0.008592282
54	0x3e20da83	0.15708356
55	0xbe12f905	-0.14352806
56	0xbcea1ee6	-0.028579187
57	0x3e16569b	0.14681475
58	0xbd016b4d	-0.03159647
59	0x3dfaf2e4	0.12253359
60	0xbd4a10af	-0.049332317
61	0xbe0b61fa	-0.13611594
62	0xbd0c1ec6	-0.034209035
63	0xbdc3ec77	-0.095665865
64	0x3df517a7	0.11967402
65	0x3d209a9e	0.039209954
66	0xbcb6c3ae	-0.022310104
67	0x3e3b0853	0.18264894
68	0x3dc3527f	0.09537219
69	0xbd870ae9	-0.06593878
70	0xbd902295	-0.07037846
71	0x3e246c1a	0.16056862
72	0xbda726a0	-0.08161664
73	0x3d657ba1	0.056026105
74	0xbd10d40e	-0.03535848
75	0xbdda3243	-0.10654118
76	0xbde01742	-0.10941936
77	0xbe15819d	-0.14600225
78	0xbd939cdd	-0.07207654
79	0xbde51c45	-0.111870326
80	0xbe212de7	-0.15740167
81	0x3df21032	0.11819495
82	0x3cf03ea2	0.02932674
83	0x3de9dd70	0.11419189
84	0xbe0eeff7	-0.13958727
85	0xbdf9d51e	-0.12198852
86	0x3c982a98	0.018574998
87	0xbe15d4c1	-0.1463194
88	0x3d2a5f34	0.0415947
89	0xbe39fe4e	-0.18163416
90	0xbdde6c2b	-0.10860475
91	0x3dbe3c5f	0.092888586
92	0x3cc15076	0.023597937
93	0xbd47a84f	-0.048744496
94	0xbd76e77d	-0.06027936
95	0x3da8395d	0.08214066
96	0x3d9802b3	0.0742239
97	0xbdf42e9c	-0.119229525
98	0xbad39ec0	-0.0016145334
99	0x3dfab22e	0.12241016
100	0xbd8a5ac4	-0.067555934
101	0x3c9df975	0.01928399
102	0x3e22fe1e	0.1591725
103	0x3e87a2a9	0.26491287
104	0xbdae8be2	-0.08522774
105	0x3d6e7cf7	0.058224645
106	0x3e07df8d	0.13268872
107	0xbdd21ce6	-0.10259418
108	0x3e069251	0.13141753
109	0xbe065f27	-0.13122235
110	0x3dbda994	0.0926086
111	0xbe2a032f	-0.16602777
112	0xbe0da855	-0.13833745
113	0x3e224f56	0.15850577
114	0x3de794f8	0.113077104
115	0xbddd131d	-0.10794661
116	0xbc744715	-0.014909525
117	0xbc1405dd	-0.009034601
118	0x3df2ba8d	0.11851988
119	0xbd64c80b	-0.05585484
120	0x3e06e5a5	0.1317354
121	0x3e3f1844	0.186616
122	0x3e4a167d	0.19735141
123	0x3dfa0bd9	0.12209291
124	0xbddd5bbe	-0.10808514
125	0xbd3ea24c	-0.046541497
126	0x3d4a784c	0.04943113
127	0xbe49ebbc	-0.19718832
128	0xbda3f1c0	-0.080050945
129	0x3985919e	0.0002547623
130	0xbe6360bb	-0.22204868
131	0xbda51581	-0.08060742
132	0x3e041a19	0.1290058
133	0x3e12ffb3	0.14355354
134	0xbe06a7f5	-0.13150008
135	0x3e8dd056	0.2769801
136	0xbd5dc12f	-0.054139312
137	0xbb5c7a3c	-0.0033642193
138	0x3d7a2cbb	0.061077815
139	0xbdaa08f9	-0.08302493
140	0x3d6921e4	0.056917086
141	0x3de7b9a8	0.11314708
142	0xbdbdaee1	-0.09261871
143	0xbd4b979a	-0.049705125
144	0xbde2a7c6	-0.110671565
145	0xbe3ffe41	-0.18749334
146	0x3daac071	0.083374865
147	0xbd967c3e	-0.07347916
148	0xbd954152	-0.072878495
149	0xbc4bea86	-0.012446051
150	0x3e27539e	0.16340491
151	0x3c8c716e	0.017143931
152	0xbd274f80	-0.0408473
153	0x3e1d4f87	0.15362369
154	0xbd85591d	-0.06511138
155	0x3dc023a4	0.09381798
156	0xbda9fa2b	-0.08299669
157	0x3c87afd0	0.016563326
158	0x3dbe9202	0.093051925
159	0x3bee4480	0.0072713494
160	0x3e2f187c	0.17099184
161	0x3e17fcf2	0.14842585
162	0xbe4d6bc2	-0.20060638
163	0xbe01ce67	-0.12676392
164	0xbdc2e2b9	-0.095159
165	0xbe41e60e	-0.18935415
166	0xbe19b127	-0.15008985
167	0xbe15ca80	-0.14628029
168	0x3de1afa6	0.110198304
169	0x3e07ff63	0.13281016
170	0xbd7b0f47	-0.061293866
171	0x3dfc0822	0.12306239
172	0x3cba45af	0.022738306
173	0xbceb5b78	-0.02873014
174	0x3d7a2250	0.06106788
175	0x3d74a1cf	0.059724625
176	0x3d983074	0.07431117
177	0xbd5021ae	-0.05081337
178	0xbdf686f8	-0.12037462
179	0x3e032c08	0.12809765
180	0x3d2ca689	0.042151008
181	0x3db1499c	0.08656618
182	0x3d97c9cb	0.07411536
183	0xbd816d5c	-0.06319687
184	0x3e03f29b	0.12885515
185	0x3e0e65ed	0.13906069
186	0xbe11f6fd	-0.14254375
187	0xbd30f701	-0.04320431
188	0xbcc84807	-0.024448408
189	0x3da90582	0.08253004
190	0xbde8786f	-0.11351096
191	0x3d0a91b8	0.033830374
192	0xbe49ac02	-0.19694522
193	0xbb8df401	-0.004332066
194	0x3e9d0aff	0.30672452
195	0xbcb4e999	-0.022084044
196	0xbd28230e	-0.041049056
197	0x3c2a917d	0.010410664
198	0x3e024c76	0.1272448
199	0x3d97aab4	0.07405606
200	0x3d93b2c7	0.072118334
201	0x3e207aff	0.1567192
202	0x3da260b4	0.07928601
203	0x3dda5ef3	0.106626414
204	0xbdf7c8d7	-0.12098854
205	0xbdfae6c7	-0.122510485
206	0x3dfbf362	0.12302281
207	0xbdbd60a4	-0.09246948
208	0x3d24fe71	0.040281717
209	0x3e42c94c	0.19022101
210	0xbd8fdb4c	-0.070242494
211	0xb9c7b4d6	-0.0003809097
212	0xbdb27f0a	-0.08715637
213	0x3d9ef18d	0.07760916
214	0xbe3c31d6	-0.18378386
215	0x3e3c99bd	0.18418022
216	0xbe026334	-0.12733155
217	0xbd82b598	-0.063822925
218	0x3d47006e	0.048584394
219	0x3ddbaa12	0.10725798
220	0x3de9dc2b	0.11418947
221	0x3ceabd5d	0.028654749
222	0xbe675749	-0.2259189
223	0xbda3021f	-0.07959389
224	0x3de6c456	0.11267917
225	0xbe2ad2f6	-0.16682038
226	0xbe4e05d3	-0.2011941
227	0xbc1bf6e3	-0.009519312
228	0xbe0702d3	-0.13184671
229	0x3e14bbcc	0.14524764
230	0xbde51b7c	-0.11186883
231	0x3d9b3b02	0.07579614
232	0xbdd1252c	-0.10212168
233	0xbe6b367c	-0.22970003
234	0x3dd64dfc	0.10464093
235	0x3d544686	0.05182507
236	0xbdb31d9f	-0.08745884
237	0x3dfdf824	0.12400845
238	0xbd7938a7	-0.060845044
239	0x3e635026	0.22198543
240	0xbda07d9e	-0.078364596
241	0xbe4aef4c	-0.19817847
242	0x3c91309f	0.01772338
243	0xbe0ddbc2	-0.13853362
244	0x3d175a78	0.036951512
245	0x3dcaf36a	0.09909709
246	0xbe318eef	-0.17339681
247	0xbe38edd6	-0.18059477
248	0x3e0c571e	0.13705108
249	0xbc9f0127	-0.01940973
250	0xbe3f7714	-0.18697768
251	0x3ccfb143	0.02535308
252	0xbdc67d24	-0.096918374
253	0x3d647a9a	0.055780984
254	0xbd70164b	-0.05861501
255	0x3e06c62a	0.13161531

gating.net.4.bias f4 [32]
0	0xbe05ed2c	-0.13078755
1	0xbd8e6639	-0.06953091
2	0x3e1e6ebb	0.15471928
3	0xbdd1e981	-0.102496155
4	0xbe17f07e	-0.14837834
5	0xbd9038d2	-0.070420876
6	0xbd817f31	-0.06323088
7	0x3d0285ec	0.031866
8	0x3df5305e	0.11972116
9	0x3dd50b85	0.10402588
10	0xbd2aa4ed	-0.04166119
11	0xbdb4f0a9	-0.08834965
12	0xbd9b0b97	-0.0757057
13	0xbd06911e	-0.03285324
14	0xbd930ef6	-0.07180588
15	0xbe491a66	-0.19638976
16	0x3d110e21	0.035413865
17	0x3dc4f2b6	0.09616606
18	0xbde8fa8c	-0.11375913
19	0x3e0fa0d1	0.1402619
20	0xbe372f82	-0.17889217
21	0xbbee21f3	-0.0072672307
22	0xbe27e08f	-0.16394256
23	0xbd93828c	-0.07202634
24	0xbd32e36d	-0.04367392
25	0x3e2a5523	0.1663404
26	0xbdfde270	-0.12396705
27	0x3d205382	0.03914214
28	0x3dab1b77	0.08354848
29	0xbe3b059a	-0.18263856
30	0xbdd8b361	-0.10581089
31	0xbe14a578	-0.14516246

gating.net.5.weight f4 [32]
0	0x3f7f740a	0.99786437
1	0x3f7a55a9	0.9778696
2	0x3f784f8c	0.9699638
3	0x3f811c2a	1.008672
4	0x3f72a7d0	0.9478731
5	0x3f7ae355	0.9800313
6	0x3f831134	1.0239625
7	0x3f6b8374	0.91997457
8	0x3f7a1f64	0.9770415
9	0x3f82e3b8	1.0225744
10	0x3f7b9a4c	0.98282313
11	0x3f7a5c4e	0.97797096
12	0x3f7ac279	0.9795299
13	0x3f76306f	0.96167654
14	0x3f80b864	1.0056272
15	0x3f7d2a6b	0.9889285
16	0x3f802abc	1.0013041
17	0x3f8159ba	1.0105507
18	0x3f7bdbf8	0.9838252
19	0x3f7eac9a	0.9948212
20	0x3f75361e	0.957857
21	0x3f868d12	1.0511801
22	0x3f778694	0.96689725
23	0x3f7d537b	0.98955506
24	0x3f7ac6ea	0.9795977
25	0x3f806c83	1.0033115
26	0x3f764a3f	0.9620704
27	0x3f7c73e0	0.9861431
28	0x3f75132f	0.95732397
29	0x3f7cb0dc	0.98707366
30	0x3f7fef28	0.999743
31	0x3f774c1b	0.966005

gating.net.5.bias f4 [32]
0	0xbcfbed65	-0.030752847
1	0xbc8a17f9	-0.016857134
2	0xbcf9a782	-0.030475382
3	0x3cd60c19	0.026128815
4	0xbd3c9a54	-0.046045616
5	0xbc1b2b85	-0.009470825
6	0xbb6d0b60	-0.003617011
7	0xbd5194fd	-0.051167477
8	0xbc8c8d1f	-0.017157136
9	0x3b68456c	0.003544177
10	0x3c16e3b1	0.009209559
11	0xbc98dfaf	-0.018661348
12	0xbc6d25e8	-0.01447437
13	0xbd14fa33	-0.03637142
14	0xbbcedc0f	-0.006312854
15	0xbb6cdc8e	-0.0036142203
16	0xbd17e297	-0.037081327
17	0x3c1a2591	0.009408371
18	0xbced72c9	-0.028985398
19	0xbbc903b8	-0.0061344765
20	0xbd563563	-0.052297007
21	0xbb93b651	-0.004507818
22	0xbc27bea7	-0.010238326
23	0xbc058156	-0.008148512
24	0xbca0e898	-0.01964216
25	0x3c9f34ad	0.019434297
26	0xbc1b2876	-0.009470096
27	0x3c1eee2a	0.009700337
28	0xbd418dc6	-0.047254346
29	0xbcce7173	-0.025200581
30	0xbb58fc83	-0.0033109493
31	0x3bc11cec	0.0058933403

gating.net.7.weight f4 [4, 32]
0	0xbe127d96	-0.1430572
1	0xbe070e4d	-0.13189049
2	0x3df4bcc1	0.119500645
3	0x3ca07b1c	0.019589953
4	0x3da5f837	0.08103984
5	0x3e16c443	0.14723305
6	0x3ce18613	0.027529752
7	0xbdd349d4	-0.10316816
8	0xbd5f6d78	-0.054547757
9	0xbe2df4ba	-0.16987887
10	0x3ca21635	0.01978598
11	0x3d1b3e44	0.037901178
12	0xbe49f5e1	-0.19722702
13	0xbde1fff6	-0.11035149
14	0xbe051db3	-0.1299961
15	0xbcec810f	-0.028870134
16	0xbcd58be5	-0.026067683
17	0x3da680c5	0.081300296
18	0xbd9080e9	-0.07055838
19	0xbdeffacc	-0.117177576
20	0xbac5fbe8	-0.0015104981
21	0xbe792a37	-0.2433251
22	0x3b9098c5	0.004412743
23	0xbb35725b	-0.002768657
24	0xbdad2134	-0.084535986
25	0x3e0277fa	0.1274108
26	0xbcff25e0	-0.03114599
27	0x3d2420ba	0.040070273
28	0xbd2e4bf6	-0.04255291
29	0x3d8063ee	0.0626906
30	0x3e06a598	0.13149107
31	0x3c927f4f	0.017882971
32	0x3e096e33	0.13420944
33	0x3cac56e4	0.021037526
34	0x3dc2029a	0.094731525
35	0x3d7a403e	0.061096422
36	0x3d5e68aa	0.054299034
37	0xbe166468	-0.1468674
38	0xbdea7b34	-0.114492804
39	0xbdfba238	-0.122868
40	0xbdaca8c4	-0.08430627
41	0x3c969b20	0.018384516
42	0x3e1c0a43	0.1523829
43	0xbded55a9	-0.11588604
44	0xbccbadd7	-0.024863167
45	0xbe049806	-0.12948617
46	0xbdb22312	-0.086980954
47	0xbd0d00d9	-0.034424637
48	0x3dced846	0.10099845
49	0x3e08f49f	0.13374566
50	0x3d27ffdf	0.041015502
51	0xbd3d178c	-0.046165034
52	0x3d8a80a3	0.06762817
53	0x3d7dbda0	0.06194842
54	0xbd90c017	-0.07067888
55	0xbe142fc6	-0.14471349
56	0x3d574b45	0.052562017
57	0xbe2da1b3	-0.16956215
58	0xbd2b011d	-0.04174911
59	0x3d354c7b	0.04426239
60	0x3d910dfc	0.070827454
61	0x3bb2fbc4	0.0054621417
62	0xbdb0e646	-0.08637671
63	0xbdf5b149	-0.11996705
64	0x3c6be778	0.014398448
65	0xbdafb750	-0.08579886
66	0xbd5416c3	-0.05177952
67	0xbc0194f4	-0.007909048
68	0x3c3f1e72	0.011664974
69	0x3d552e71	0.052046243
70	0x3d98e39a	0.074652866
71	0xbdad37b3	-0.084578894
72	0xbbb9dabb	-0.0056718267
73	0xbe0f3cbf	-0.13988017
74	0x3dcc07bc	0.09962413
75	0x3cb1da1c	0.021710448
76	0xbd90d561	-0.07071949
77	0xbc467289	-0.012112268
78	0xbe2ca9ce	-0.1686165
79	0x3d16d23e	0.036821596
80	0xbbbde36f	-0.0057949345
81	0x3d4d7de5	0.05016889
82	0xbe08792f	-0.13327478
83	0x3de940c3	0.113893054
84	0xbd6bb7ef	-0.05754846
85	0xbb95076f	-0.0045480053
86	0xbd66f2de	-0.05638396
87	0x3d744ebe	0.059645407
88	0xbc4673cb	-0.012112568
89	0x3dcbf82d	0.09959445
90	0xbe001560	-0.12508154
91	0x3da5a823	0.0808871
92	0xbe088c6a	-0.13334814
93	0x3dfa49aa	0.122210816
94	0x3c930980	0.017948866
95	0x3d00a640	0.03140855
96	0xbd82a82a	-0.06379731
97	0xbde8ce3a	-0.113674596
98	0x3bc25ffb	0.005931852
99	0xbda6105e	-0.081085905
100	0x3bbb78d9	0.0057211933
101	0x3e0c0278	0.13672817
102	0x3d868e69	0.06570131
103	0x3d304f04	0.043044105
104	0x3dd15807	0.10221868
105	0x3d40abdc	0.047038898
106	0xbdd08ae7	-0.101827435
107	0xbe278370	-0.16358733
108	0x3da21d85	0.07915787
109	0xbdec0069	-0.11523516
110	0xbcc19ecc	-0.02363529
111	0xbe11b1b6	-0.14227948
112	0x3ab34df0	0.0013679843
113	0xbd455318	-0.048174948
114	0x3d0b97d4	0.03408034
115	0xbe14b500	-0.14522171
116	0xbc5ae0dc	-0.013359275
117	0x3ae79742	0.001766898
118	0x3daffe9d	0.085934855
119	0xbdad630e	-0.08466159
120	0xbd444b64	-0.04792346
121	0xbcc27b96	-0.023740571
122	0xbd8113bd	-0.06302593
123	0xbcac56b0	-0.02103743
124	0x3d5b5f8a	0.05355791
125	0xbc6ba927	-0.014383591
126	0xbcb3c7cb	-0.021945855
127	0xbdc19044	-0.094513446

gating.net.7.bias f4 [4]
0	0x3d074ed4	0.03303416
1	0x3e254ba0	0.1614213
2	0xbdc62f81	-0.096770294
3	0x3e35c185	0.17749603

experts.0.net.0.weight f4 [64, 3]
0	0x3e93778f	0.28802153
1	0x3de19982	0.110156074
2	0xbefc2715	-0.49248567
3	0x3e8a42e7	0.27004167
4	0x3df786f5	0.12086288
5	0x3f03a815	0.5142835
6	0x3e19fb1f	0.15037201
7	0x3dbba06f	0.0916146
8	0xbeca372d	-0.3949522
9	0xbec9bc3e	-0.3940143
10	0xbec8b88d	-0.392033
11	0xbf060be3	-0.5236189
12	0x3eede060	0.46460247
13	0xbecfe788	-0.40606332
14	0x3e6fd84d	0.23422356
15	0x3e88add8	0.26695132
16	0x3e18e59e	0.14931342
17	0x3e84ea22	0.2595988
18	0xbec99743	-0.39373216
19	0x3ef2e156	0.47437543
20	0xbec4c7b7	-0.3843362
21	0x3d8e3225	0.06943158
22	0xbeb9bd04	-0.3627702
23	0x3ee8f013	0.45495662
24	0x3ec6406f	0.38721034
25	0x3f160cbd	0.5861319
26	0x3eabe61e	0.33574003
27	0x3f12ed72	0.5739356
28	0xbd971ba9	-0.07378323
29	0xbe6d45ad	-0.2317111
30	0x3e267157	0.16254173
31	0xbeaf568f	-0.34245726
32	0x3e2161ce	0.15759966
33	0x3eecb45f	0.46231362
34	0xbdf9a96b	-0.12190517
35	0xbe2563d8	-0.16151369
36	0x3d22e135	0.039765555
37	0xbed6e9b1	-0.41975167
38	0xbf0cb20e	-0.5495919
39	0x3e316217	0.17322575
40	0x3eb36037	0.35034344
41	0x3ec99643	0.39372453
42	0xbece04cd	-0.40238038
43	0x3dd6deff	0.10491752
44	0x3dd86e34	0.105678946
45	0x3ea266b6	0.31718987
46	0x3ea65e34	0.32493746
47	0x3f138e31	0.5763884
48	0x3d84ea72	0.064900294
49	0xbe954fcb	-0.2916244
50	0xbe89b728	-0.2689755
51	0xbe350dbd	-0.17681022
52	0x3e5acc64	0.21367031
53	0x3dadbe7a	0.08483596
54	0xbee69a84	-0.4503976
55	0xbe3060e8	-0.17224467
56	0x3d54907e	0.05189561
57	0xbebdee8d	-0.37096062
58	0x3ec6fd59	0.38865164
59	0xbce67557	-0.028132124
60	0xbecea3ea	-0.40359432
61	0xbe6a980e	-0.22909567
62	0xbea032dd	-0.31288806
63	0x3e14187d	0.14462467
64	0xbedda030	-0.43286276
65	0x3e49b5af	0.19698213
66	0x3ed6f9de	0.4198751
67	0x3e809e2d	0.2512068
68	0xbef3d250	-0.47621393
69	0x3d0e33d0	0.03471738
70	0xbdeb3aec	-0.11485848
71	0xbe9a046c	-0.300815
72	0x3e4e2ff6	0.20135483
73	0xbedfffaa	-0.43749744
74	0xbe4af216	-0.19818911
75	0xbecac0bc	-0.3960017
76	0x3eeafb53	0.4589487
77	0x3eb87878	0.3602941
78	0xbef9f2a2	-0.48817927
79	0xbeaabc87	-0.3334696
80	0x3ec91e8a	0.39281112
81	0xbd406329	-0.046969566
82	0x3d459936	0.048241816
83	0x3ec55d9a	0.38547975
84	0x3ed64980	0.4185295
85	0x3d1b068e	0.037848048
86	0x3e64d4ec	0.22346848
87	0xbe1b2248	-0.15149796
88	0x3ea018a6	0.31268805
89	0xbde17529	-0.11008675
90	0xbe9ac0a0	-0.30225086
91	0xbf146ed0	-0.57981586
92	0xbef0dba5	-0.47042575
93	0xbef20214	-0.4726721
94	0xbecf46f7	-0.4048383
95	0x3ea1f7fb	0.31634507
96	0xbeb0faef	-0.34566447
97	0xbe4c013a	-0.19922343
98	0xbe246854	-0.16055423
99	0xbddda551	-0.10822547
100	0x3f0db372	0.55351937
101	0x3eb56a66	0.35432738
102	0x3ddd8111	0.10815633
103	0x3eab234e	0.33425373
104	0x3ecd37d2	0.4008165
105	0xbe9d0726	-0.30669516
106	0x3e912531	0.28348687
107	0xbf0b6060	-0.5444393
108	0x3df9f4b1	0.12204874
109	0x3e932274	0.28737223
110	0xbea56d42	-0.3230992
111	0x3f15373e	0.5828742
112	0xbd91f1ca	-0.07126196
113	0xbeb7e91e	-0.35920042
114	0x3e0475e1	0.12935592
115	0xbdd8cedd	-0.10586331
116	0x3f04df80	0.51903534
117	0x3f01cbe9	0.5070177
118	0x3c49101e	0.012271909
119	0x3ec76954	0.38947546
120	0x3ecc652e	0.39920944
121	0xbe68dc05	-0.22740181
122	0xbde1e0f2	-0.11029233
123	0xbebee8e2	-0.3728705
124	0x3f0278aa	0.5096537
125	0x3e9c2d2e	0.3050322
126	0xbde615d8	-0.11234635
127	0x3eedeb66	0.46468657
128	0x3e916ad7	0.28401825
129	0xbedaac1c	-0.42709434
130	0x3ef8ddbc	0.4860667
131	0xbe87d5ad	-0.2653021
132	0xbdd789f9	-0.10524363
133	0xbdb07fab	-0.08618101
134	0x3eeae287	0.45875952
135	0x3e422b1c	0.18961757
136	0xbe9bece0	-0.3045416
137	0x3e60fd5e	0.21971652
138	0x3f01a984	0.50649285
139	0x3dceb1de	0.10092519
140	0xbe95af19	-0.2923515
141	0xbf15d811	-0.58532816
142	0xbdddd930	-0.10832441
143	0xbea07000	-0.3133545
144	0xbebfe47a	-0.37479
145	0x3f001846	0.5003704
146	0xbcbbc7a3	-0.022922343
147	0x3e53b655	0.20675023
148	0x3c1a8a97	0.009432456
149	0xbeda96d9	-0.42693213
150	0x3ed38209	0.41310146
151	0x3ef4366a	0.47697765
152	0x3eac3fef	0.33642527
153	0x3e4a59bb	0.19760792
154	0x3e6a6c7d	0.22892947
155	0xbebb4896	-0.36578816
156	0x3ec5cec6	0.38634318
157	0xbf041458	-0.5159354
158	0x3e09ad5d	0.13445039
159	0xbe0c0048	-0.13671982
160	0x3e0e69d5	0.13907559
161	0x3e21d10e	0.15802404
162	0xbec6b4a7	-0.38809702
163	0xbe3be434	-0.18348771
164	0x3dbaa35b	0.09113189
165	0xbea918c1	-0.33026698
166	0x3e3b5628	0.18294585
167	0xbe5a25ad	-0.21303435
168	0xbe93dfaf	-0.28881595
169	0xbe9123e8	-0.28347707
170	0x3e82e315	0.25563875
171	0xbea945da	-0.33061105
172	0xbd3057f7	-0.04305264
173	0x3f0f30ab	0.55933636
174	0x3e727141	0.23676015
175	0x3ef78a52	0.48347718
176	0x3daba5d4	0.083812386
177	0xbed9cf7e	-0.42541116
178	0xbeb63e6a	-0.35594493
179	0x3e56086e	0.20901653
180	0x3e3044ed	0.17213793
181	0xbcefb84c	-0.029262684
182	0xbe5ccdc9	-0.21562876
183	0xbf085465	-0.53253776
184	0x3ec62c7a	0.38705808
185	0xbecd8c6b	-0.40146193
186	0xbee15791	-0.4401212
187	0x3d8baf64	0.068205625
188	0xbd121bed	-0.035671163
189	0x3e2abf3d	0.16674514
190	0x3ebf979a	0.3742035
191	0x3dae3d11	0.08507741

experts.0.net.0.bias f4 [64]
0	0x3e2cb8eb	0.16867416
1	0xbed0a98a	-0.40754348
2	0x3de6c853	0.112686776
3	0xbe034917	-0.1282085
4	0x3e8ccf33	0.2750183
5	0x3ee40b64	0.4453994
6	0x3eaf8bf6	0.3428647
7	0x3e289c3f	0.16465853
8	0xbf1137a6	-0.5672554
9	0xbd3d6ed3	-0.04624827
10	0xbf0ae59f	-0.54256624
11	0xbef8f95e	-0.48627752
12	0x3e13b526	0.14424571
13	0xbe371df0	-0.17882514
14	0xbd06dee2	-0.0329274
15	0xbeec3452	-0.46133667
16	0x3e9f7f05	0.31151596
17	0xbe5f74c5	-0.21821888
18	0x3e5fd46c	0.21858376
19	0xbed5cf34	-0.41759646
20	0x3e028a81	0.12748148
21	0x3e5a1b5d	0.21299501
22	0x3ebfb4da	0.37442666
23	0x3e392334	0.18079835
24	0x3e47e6ff	0.19521712
25	0xbe1e6daa	-0.15471521
26	0xbeddc671	-0.4331546
27	0x3e78e159	0.24304713
28	0x3ee4284a	0.44561988
29	0x3eb4d129	0.35315827
30	0xbf0eaddb	-0.5573403
31	0x3f092643	0.5357401
32	0xbdac071a	-0.08399792
33	0xbe174e34	-0.14775926
34	0x3dd9e201	0.1063881
35	0x3da1aca9	0.078942604
36	0x3eae0d1b	0.33994374
37	0xbd3834c6	-0.044972204
38	0xbee26cf4	-0.4422375
39	0x3c632ceb	0.01386569
40	0x3e702f31	0.23455502
41	0x3e6eec44	0.23332316
42	0x3f0245fd	0.50888044
43	0x3e93f8a5	0.28900638
44	0x3d7c4236	0.06158658
45	0xbecdef54	-0.40221655
46	0xbe10e5fc	-0.14150232
47	0x3f1e1245	0.6174663
48	0xbe420d79	-0.18950452
49	0xbebe2555	-0.37137857
50	0x3f018f79	0.50609547
51	0x3ee14cc8	0.44003892
52	0x3e3eb330	0.18623042
53	0xbd9ece03	-0.07754137
54	0xbeae493c	-0.34040248
55	0xbd79a94c	-0.06095247
56	0x3e11aeb3	0.14226799
57	0xbeed90b7	-0.4639947
58	0xbee53289	-0.44765118
59	0x3ed8103a	0.4219988
60	0xbe16bc65	-0.14720304
61	0x3e01e0b2	0.1268337
62	0x3ebb38d3	0.3656679
63	0xbdb930ce	-0.09042512

experts.0.net.1.weight f4 [64]
0	0x3f82b5ee	1.021177
1	0x3f859e21	1.0438882
2	0x3f720242	0.94534695
3	0x3f8f0adf	1.1175193
4	0x3f75fd0f	0.9608926
5	0x3f7e4b89	0.9933401
6	0x3f7a2d8e	0.9772576
7	0x3f75ca51	0.96011835
8	0x3f8ff5e6	1.1246917
9	0x3f90a1b1	1.1299344
10	0x3f83b345	1.0289084
11	0x3f7cb0eb	0.98707455
12	0x3f7d49c3	0.98940676
13	0x3f80928c	1.0044723
14	0x3f706b8f	0.9391412
15	0x3f8989c7	1.0745171
16	0x3f806686	1.0031288
17	0x3f800f9b	1.0004762
18	0x3f872cff	1.0560607
19	0x3f719f6d	0.9438389
20	0x3f83c36a	1.0294011
21	0x3f7c9ecf	0.9867982
22	0x3f79f19b	0.97634286
23	0x3f77fcc4	0.96870065
24	0x3f7e56e3	0.9935133
25	0x3f8c2b3c	1.0950694
26	0x3f8a21d9	1.079158
27	0x3f72390e	0.9461831
28	0x3f6f7004	0.935303
29	0x3f7af5aa	0.98031104
30	0x3f97596e	1.1824167
31	0x3f81b446	1.013314
32	0x3f77cc04	0.9679568
33	0x3f85e82b	1.0461477
34	0x3f69ed45	0.9137767
35	0x3f7dbb99	0.99114376
36	0x3f7b92f7	0.98271126
37	0x3f8f6480	1.1202545
38	0x3f8b02da	1.0860245
39	0x3f79aa61	0.975256
40	0x3f7c0ee4	0.9846022
41	0x3f868f0d	1.0512406
42	0x3f77256a	0.96541464
43	0x3f833749	1.0251247
44	0x3f7c8568	0.9864106
45	0x3f907a82	1.1287386
46	0x3f908595	1.1290766
47	0x3f872948	1.0559473
48	0x3f7bc238	0.9834323
49	0x3f7593b1	0.95928484
50	0x3f783407	0.9695439
51	0x3f806084	1.0029454
52	0x3f713a3c	0.94229484
53	0x3f821ef9	1.0165702
54	0x3f7aad22	0.9792043
55	0x3f73a7b2	0.9517776
56	0x3f74c241	0.9560891
57	0x3f87b4a6	1.0602005
58	0x3f8be843	1.0930256
59	0x3f80d0c9	1.0063716
60	0x3f7e20e7	0.99268955
61	0x3f8153c2	1.0103686
62	0x3f97393a	1.1814339
63	0x3f834a2c	1.025701

experts.0.net.1.bias f4 [64]
0	0xbb912976	-0.0044299914
1	0xbb79bb1c	-0.003810591
2	0xbcb206ac	-0.021731697
3	0x3cdd34c4	0.0270027
4	0xbd484104	-0.04889013
5	0xbc843700	-0.016139507
6	0xbbf2a060	-0.007404372
7	0xbc463c50	-0.012099341
8	0x3cbced10	0.023062259
9	0xbd4397c8	-0.04775217
10	0x3d560532	0.05225105
11	0x3d6463d0	0.05575925
12	0x3afa6880	0.001910463
13	0xbbba9342	-0.005693824
14	0x3cd31e73	0.025771355
15	0x3c05c2ee	0.008164151
16	0xbb59f4ee	-0.0033257562
17	0x3bef25b9	0.007298198
18	0x3b5ed1aa	0.0033999481
19	0x3d31f71b	0.04344855
20	0x3b975603	0.0046184077
21	0xbc2a5d56	-0.01039823
22	0xbd12968b	-0.0357881
23	0xbb291d8a	-0.002580496
24	0x3ba3836a	0.004990031
25	0x3d235080	0.039871693
26	0x3cba41e3	0.022736495
27	0xbd310dfd	-0.04322623
28	0xbd36c7e3	-0.04462422
29	0xbc4da401	-0.012551309
30	0x3d1028ed	0.03519528
31	0xbcb7d0ee	-0.022438493
32	0x3d87653c	0.06611106
33	0xbc22a5c1	-0.009927214
34	0xbd39c952	-0.04535801
35	0x3bad4718	0.005288016
36	0xbd1cc84b	-0.03827695
37	0xbd34a126	-0.044098996
38	0xbac49f8d	-0.0015001163
39	0xbcd4cfda	-0.025978018
40	0xbd3b300a	-0.04570011
41	0xbc20af0c	-0.009807359
42	0xbcfa3e4a	-0.03054728
43	0x3d2b956b	0.041890543
44	0xbca2bf8c	-0.019866727
45	0x3d202d6a	0.03910581
46	0xbb822c46	-0.003972563
47	0x3cda4be4	0.026647516
48	0x3b83a108	0.004016999
49	0xbcb3de37	-0.021956546
50	0xbccf3c33	-0.02529726
51	0xbd0227dc	-0.031776294
52	0xbd9ddf96	-0.07708661
53	0x3cf27644	0.02959741
54	0x3dcdc788	0.10047823
55	0x3d2025f8	0.03909871
56	0xbc03cb50	-0.008044079
57	0x3d625eba	0.05526612
58	0x3d6a232e	0.057162456
59	0xbbbb415b	-0.005714578
60	0x3c4c48a1	0.012468488
61	0x3bd45102	0.0064793834
62	0xbba58722	-0.0050515095
63	0xbc052251	-0.008125857

experts.0.net.3.weight f4 [64, 64]
0	0x3d97861b	0.073986255
1	0x3e07affc	0.13250726
2	0xbdd62e10	-0.104580045
3	0x3d8b0940	0.06788874
4	0xbd3580b8	-0.04431221
5	0xbdba16ad	-0.09086356
6	0x3ce45409	0.027872102
7	0x3cd6cf11	0.026221784
8	0xbd110ea0	-0.035414338
9	0xbb700336	-0.0036623008
10	0xbdc68750	-0.096937776
11	0xbdd07d1f	-0.10180115
12	0x3d6b18da	0.057396747
13	0xbc809957	-0.015698118
14	0x3d8994ea	0.06717856
15	0x3d39dba2	0.045375474
16	0x3d955ba6	0.07292871
17	0x3cce5abe	0.025189754
18	0xbd276d0c	-0.04087548
19	0xbd5ad50f	-0.053425845
20	0x3d957f69	0.07299692
21	0x3d45413e	0.048157923
22	0xbd406fda	-0.04698167
23	0x3d4e9657	0.050436344
24	0x3d70641f	0.058689233
25	0xbd220017	-0.039550867
26	0x3d5661c5	0.052339334
27	0xbca2e512	-0.01988462
28	0xbd54d79d	-0.051963437
29	0x3bba353a	0.0056826146
30	0xbd794608	-0.060857803
31	0xbdad36f0	-0.08457744
32	0x3e05be44	0.13060862
33	0x3bbbd940	0.0057326853
34	0x3dd941ce	0.106082544
35	0xbdf43522	-0.11924197
36	0x3dbedbfe	0.09319304
37	0xbdc29212	-0.09500517
38	0xbd4278e1	-0.04747856
39	0xbdfb9022	-0.122833505
40	0xbc7e3310	-0.015515104
41	0xbdea45f5	-0.114391245
42	0xbd9e20cd	-0.077211
43	0xbbed30a0	-0.0072384626
44	0x3de239b5	0.11046163
45	0xbe07b6ba	-0.13253298
46	0xbda77ab5	-0.081777014
47	0xbca5534b	-0.020181319
48	0xbdc891d7	-0.09793442
49	0x3c7a9138	0.015293412
50	0xbd0136db	-0.031546455
51	0x3ddbe64f	0.10737287
52	0xbde66314	-0.112493664
53	0xbdaeb702	-0.08531
54	0x3d4b2927	0.049599793
55	0xbe004f4f	-0.12530254
56	0x3dc1682c	0.09443697
57	0xbc9befeb	-0.0190353
58	0xbd4c23e9	-0.049838934
59	0x3dc39b8a	0.09551151
60	0x3d213a7c	0.039362416
61	0x3d1bb51a	0.03801451
62	0x3d28732e	0.04112547
63	0xbd61e031	-0.055145446
64	0x3c2e09cc	0.010622453
65	0x3d349b6b	0.04409353
66	0x3a7b2df3	0.0009581737
67	0x3d84bf94	0.06481853
68	0x3d9583d4	0.07300535
69	0x3c6dc2c4	0.014511768
70	0xbd9e30ec	-0.07724175
71	0x3cfb9370	0.030709952
72	0xbddfaed0	-0.10922015
73	0xbe0f73d8	-0.14009035
74	0x3daa1233	0.083042525
75	0xbd745ab4	-0.059656814
76	0x3d0148ff	0.031563755
77	0xbd17c7df	-0.037055846
78	0x3dfb752f	0.1227821
79	0xbe1e22ed	-0.1544301
80	0xbd31e629	-0.04343239
81	0x3dcd5352	0.10025658
82	0x3c89b8cd	0.016811753
83	0x3bf6b483	0.007528843
84	0x3d8ca201	0.06866837
85	0x3dc9ad7a	0.09847541
86	0xbd0988a6	-0.033577584
87	0xbde06942	-0.10957576
88	0x3ded2ecb	0.11581191
89	0xbd91acb4	-0.07113019
90	0xbc6ec86d	-0.014574152
91	0x3be4032b	0.0069583855
92	0xbddf7b85	-0.10912231
93	0x3e15549c	0.14583057
94	0xbd6afd96	-0.057370745
95	0x3dc1e326	0.09467153
96	0xbd1fc67e	-0.039007656
97	0x3d94a04f	0.07257139
98	0x3d90b847	0.07066398
99	0xbce12d34	-0.027487375
100	0xbccf505f	-0.025306879
101	0x3dc65c53	0.09685578
102	0xbd551a85	-0.052027244
103	0xbc8a1bd3	-0.01685897
104	0x3d3d4d84	0.046216503
105	0xbd88a42f	-0.066719405
106	0xbdf1f901	-0.11815072
107	0xbc76c4ab	-0.015061538
108	0xbd4f927d	-0.05067681
109	0xbd5bd989	-0.053674255
110	0x3d656689	0.05600599
111	0x3e0cb9b6	0.13742718
112	0xbd3b7306	-0.04576399
113	0xbdf1b701	-0.11802483
114	0x3bf61285	0.007509532
115	0x3ddf2593	0.108958386
116	0x3c1b0ae6	0.009463048
117	0x3d5d7021	0.054062013
118	0xbdbbf04b	-0.091766916
119	0xbd96ceb2	-0.07363643
120	0x3e0f5567	0.13997422
121	0x3e081f94	0.13293296
122	0xbd70884e	-0.05872374
123	0xbda1ebec	-0.07906327
124	0xbd4e0236	-0.050295077
125	0xbc457c2e	-0.0120535325
126	0x3dbfa67f	0.093579285
127	0x3db8bdad	0.09020553
128	0x3cc50fc3	0.024055367
129	0xbd9919e1	-0.07475639
130	0xbbe4ab39	-0.006978419
131	0xbcc649eb	-0.024205169
132	0xbda026a9	-0.07819874
133	0x3e04ec5b	0.12980787
134	0x3da90ec7	0.08254772
135	0x3ccea2b5	0.02522407
136	0xbcdcd280	-0.026955843
137	0xbd9d748e	-0.07688247
138	0x3d025d09	0.031827006
139	0xbdee7b56	-0.11644618
140	0xbd910b73	-0.07082262
141	0xbe00d025	-0.12579401
142	0xbd612674	-0.054968312
143	0xbe19aa7e	-0.15006444
144	0x3c97821f	0.018494664
145	0x3d3fc3dc	0.046817645
146	0x3d9fb7e4	0.07798746
147	0xbdc18250	-0.09448683
148	0xbcd1a32f	-0.025590507
149	0xbdc96e2b	-0.09835466
150	0x3dade744	0.08491376
151	0xbc996bb0	-0.018728107
152	0x3daeab37	0.085287504
153	0x3c0f15c8	0.00873322
154	0xbd8b1630	-0.06791341
155	0x3d330db3	0.043714236
156	0xbd90a251	-0.070622094
157	0x3e017ec0	0.12646008
158	0x3d973d49	0.07384736
159	0x3d83a6ea	0.06428321
160	0x3d80773a	0.06272741
161	0x3c9eb09c	0.019371323
162	0x3da9bf4a	0.082884386
163	0xbe0d49c7	-0.13797675
164	0x3df08661	0.11744381
165	0x3dc03d27	0.09386664
166	0xbdef2d69	-0.11678583
167	0x3d07c48c	0.033146426
168	0x3d98e6dd	0.07465909
169	0x3de6ab2e	0.11263119
170	0x3cafd815	0.02146534
171	0xbc37c942	-0.011217417
172	0xbda017e7	-0.07817059
173	0xbe0cafad	-0.1373889
174	0xbd9283bc	-0.071540326
175	0xbdbcc1ef	-0.092166774
176	0xbdc8dba2	-0.09807517
177	0x3d8e6f00	0.06954765
178	0x3cd399cb	0.02583017
179	0x3cdf1d69	0.027235704
180	0xbdae22a5	-0.08502702
181	0xbd7ad46a	-0.06123773
182	0x3d1dd0d6	0.03852924
183	0x3c4ee5ff	0.0126280775
184	0x3dc12e62	0.09432675
185	0x3d2bb4a6	0.041920327
186	0xbd9c0bc6	-0.07619433
187	0x3d766f70	0.06016487
188	0x3d501b2b	0.05080716
189	0x3d3eda43	0.04659487
190	0x3d91fd74	0.071284205
191	0xbdacf03c	-0.084442586
192	0x3db224d7	0.08698433
193	0xbde70593	-0.1128036
194	0xbd9e76d7	-0.07737511
195	0x3ccbe028	0.02488716
196	0xbdd22b36	-0.10262148
197	0x3d36d558	0.044637054
198	0xbd23d92c	-0.040002033
199	0x3d8a7829	0.067612
200	0x3d7cf9be	0.06176161
201	0x3d4fbaf7	0.050715413
202	0x3d0857c3	0.03328682
203	0x3d887d1b	0.06664487
204	0xbcef8d47	-0.029242171
205	0x3c91267d	0.017718548
206	0xb9bef9c6	-0.0003642572
207	0x3dc8669d	0.09785197
208	0xbdb20998	-0.08693236
209	0xbdf37525	-0.11887578
210	0x3c2fa076	0.010719409
211	0xbc2ecde6	-0.010669207
212	0x3e07312f	0.13202356
213	0x3dd723e7	0.10504895
214	0x3ca8c0df	0.02059978
215	0xbde56cf4	-0.11202422
216	0x3ddb3aa7	0.107045464
217	0xbd8fd0fa	-0.07022281
218	0x3d9f0634	0.07764855
219	0x3d43bfd0	0.04779035
220	0x3da275b5	0.07932607
221	0xbd64accd	-0.05582886
222	0xbe04fdb0	-0.12987399
223	0x3db9672d	0.09052882
224	0x3cf4752f	0.029841034
225	0x3c2997fc	0.010351177
226	0x3d9813f3	0.0742568
227	0xbdcb09be	-0.099139675
228	0x3c9ef1eb	0.019402465
229	0x3dac3d8d	0.084101774
230	0xbd026182	-0.031831272
231	0xbde6a05b	-0.11261054
232	0xbc051c9f	-0.0081245
233	0xbaf0c8bf	-0.0018370374
234	0x3dc94b27	0.09828787
235	0xbc9775af	-0.018488733
236	0xbc3d988c	-0.011572015
237	0xbdda4e3f	-0.106594555
238	0x3c091e15	0.0083689885
239	0xbb8f0472	-0.0043645436
240	0x3dd20335	0.10254518
241	0x3e048f1a	0.12945214
242	0xbe012d83	-0.12615018
243	0xbd481b37	-0.04885408
244	0x3d29bb23	0.041438233
245	0xbdef6039	-0.11688275
246	0xbd2421a2	-0.040071137
247	0xbdcd4a89	-0.10023982
248	0x3cc16370	0.023606986
249	0xbccab205	-0.02474309
250	0xbda67cb6	-0.081292555
251	0xba0f3f42	-0.0005464443
252	0x3cfeb20e	0.031090762
253	0xbdbd7be5	-0.09252147
254	0x3de966d5	0.11396567
255	0x3da5642b	0.08075746

experts.0.net.3.bias f4 [64]
0	0x3e101c53	0.14073305
1	0x3cd2c0bc	0.025726669
2	0xbd775b93	-0.060390066
3	0xba351f86	-0.00069092994
4	0x3d3ecaf4	0.04658027
5	0xbd40584c	-0.046959206
6	0x3dda065e	0.10645746
7	0x3d8917fd	0.066940285
8	0xbdd2b2ee	-0.102880344
9	0xbde7e3b0	-0.11322725
10	0x3cfb6be6	0.030691098
11	0xbdc85c33	-0.097832106
12	0xbcd9eace	-0.026601221
13	0x3d5b2e47	0.05351093
14	0x3d933431	0.07187689
15	0xbc034543	-0.008012119
16	0xbbbd69e7	-0.005780447
17	0xbc96f4b4	-0.01842723
18	0xbde65883	-0.11247351
19	0xbd8bb676	-0.06821911
20	0x3c34cf17	0.011035702
21	0xbd853dea	-0.0650595
22	0x3cf664e8	0.030077413
23	0x3de76693	0.11298861
24	0xbe0f5524	-0.13997322
25	0x3df5f028	0.12008697
26	0xbe00a8a2	-0.12564328
27	0xbcf8de37	-0.030379398
28	0x3d9f8190	0.07788384
29	0x3d387698	0.045034975
30	0xbcde79ab	-0.027157625
31	0xbd237429	-0.0399057
32	0x3de3f449	0.11130578
33	0x3d800724	0.06251362
34	0xbd45ce76	-0.0482926
35	0xbdb65842	-0.089035526
36	0xbc175015	-0.009235402
37	0x3d978710	0.07398808
38	0xbdca5e12	-0.09881224
39	0xbd8dc314	-0.06921974
40	0x3c206cf3	0.0097916005
41	0x3dfaa797	0.122389965
42	0xbb69261b	-0.003557569
43	0xbd9ee274	-0.07758036
44	0xbd4b3839	-0.049614165
45	0xbd9154bf	-0.07096242
46	0x3c1d1088	0.009586461
47	0xbcc16eaa	-0.023612339
48	0xbd2ebc3a	-0.042659976
49	0x3d855667	0.065106206
50	0x3dddd3c0	0.10831404
51	0xbd8d764b	-0.06907328
52	0x3e0531de	0.13007304
53	0x3da28cd0	0.07937014
54	0xbdd9cea6	-0.10635118
55	0xbc2872ae	-0.010281248
56	0xbaadf887	-0.001327292
57	0xbd706219	-0.058687303
58	0x3db2df79	0.0873403
59	0x3ddc981d	0.10771201
60	0xbd37ff17	-0.044921007
61	0x3dbcb256	0.092137024
62	0x3dd5ae39	0.10433621
63	0x3ccddf84	0.025130995

experts.0.net.4.weight f4 [64]
0	0x3f85faa9	1.046712
1	0x3f789ed1	0.97117335
2	0x3f7ed534	0.9954407
3	0x3f770da9	0.9650522
4	0x3f7a5bc1	0.97796255
5	0x3f78ece8	0.9723649
6	0x3f860d4a	1.0472806
7	0x3f6ffc7e	0.9374465
8	0x3f79be07	0.97555584
9	0x3f86d034	1.0532289
10	0x3f71114a	0.94167006
11	0x3f7b0ac8	0.98063326
12	0x3f7d65c2	0.98983395
13	0x3f86dcab	1.0536093
14	0x3f7eb839	0.9949985
15	0x3f86bb21	1.0525857
16	0x3f83f3ef	1.0308818
17	0x3f894fcc	1.0727477
18	0x3f79d716	0.9759382
19	0x3f775942	0.9662057
20	0x3f810b2d	1.0081536
21	0x3f7e4b87	0.99333996
22	0x3f7fb143	0.99879855
23	0x3f854ddd	1.0414387
24	0x3f792664	0.97324204
25	0x3f8f6725	1.1203352
26	0x3f81018d	1.0078598
27	0x3f808c62	1.0042841
28	0x3f863893	1.0486015
29	0x3f862eda	1.0483048
30	0x3f801183	1.0005344
31	0x3f7f535b	0.99736565
32	0x3f8bfc7c	1.0936427
33	0x3f809589	1.0045635
34	0x3f799f2b	0.97508496
35	0x3f7c6830	0.9859648
36	0x3f7daa24	0.9908774
37	0x3f6c721f	0.92361635
38	0x3f6883e5	0.90826255
39	0x3f7e1bfa	0.9926144
40	0x3f833a51	1.0252172
41	0x3f83ffc6	1.0312431
42	0x3f80b1c5	1.0054251
43	0x3f86b4b3	1.0523895
44	0x3f7e22e3	0.9927198
45	0x3f8506f2	1.0392745
46	0x3f871dc2	1.0555956
47	0x3f87ca2f	1.0608577
48	0x3f8359bc	1.026176
49	0x3f86d6cc	1.0534301
50	0x3f83fc33	1.031134
51	0x3f832c68	1.0247927
52	0x3f7f2280	0.9966202
53	0x3f854455	1.0411478
54	0x3f871320	1.0552711
55	0x3f78786d	0.97058755
56	0x3f880397	1.0626096
57	0x3f88f5e2	1.0700037
58	0x3f85596a	1.0417912
59	0x3f814123	1.0098003
60	0x3f6eabd8	0.9323096
61	0x3f86ff02	1.0546572
62	0x3f7b4605	0.98153716
63	0x3f82cec1	1.0219346

experts.0.net.4.bias f4 [64]
0	0xbc693fa5	-0.014236365
1	0xbc5a7c41	-0.0133352885
2	0x3c3288fc	0.010896917
3	0xbca63823	-0.02029044
4	0xbcbce68b	-0.02305915
5	0xbcc15362	-0.02359933
6	0xbc919247	-0.017769946
7	0xbb929551	-0.0044733663
8	0xbcc59f55	-0.024123827
9	0xbc8629b4	-0.016377307
10	0xbcf8adca	-0.030356307
11	0xbb472a16	-0.0030390075
12	0xbc20a34a	-0.009804556
13	0x3bbf0244	0.0058291275
14	0xbc885fc1	-0.016647222
15	0xbb25af77	-0.0025281587
16	0xbc870b41	-0.016484858
17	0xbbea3ab0	-0.0071481094
18	0xbc8d62c0	-0.017259002
19	0xbb3c28b7	-0.0028710791
20	0xb74778ac	-1.188942e-05
21	0xbc8df7b8	-0.017330036
22	0xbc7d461e	-0.015458612
23	0xbbf9fd11	-0.007629045
24	0xbc0fce71	-0.008777247
25	0x3b37fb46	0.0028073355
26	0xbc5a8a27	-0.013338602
27	0xbc1bbdd0	-0.009505704
28	0xbc816618	-0.015795752
29	0x3ae39cb9	0.0017365433
30	0xbc4aaf8d	-0.012370956
31	0xbccd0097	-0.025024695
32	0xbc44f96d	-0.012022358
33	0xbbf0e6e9	-0.0073517454
34	0xbc63ce15	-0.013904114
35	0xbc819fa8	-0.0158232
36	0xbcfa2a42	-0.030537728
37	0xbd17c377	-0.037051644
38	0xbcc8f5d4	-0.024531282
39	0xbd062740	-0.032752275
40	0xbc362cee	-0.0111191105
41	0xbceae8dd	-0.028675491
42	0x3bf1d82b	0.0073805056
43	0xbc494672	-0.012284862
44	0xbc982af8	-0.018575177
45	0x3cb8e23c	0.022568814
46	0xbcf6ec04	-0.030141838
47	0xbce642b0	-0.028107971
48	0xba84db94	-0.001013624
49	0xbc12a703	-0.0089509515
50	0xbd3c2eeb	-0.045943182
51	0xbc0fe3bf	-0.008782326
52	0xbc18b5ee	-0.009320719
53	0xbc0dc335	-0.008652498
54	0xbc3ae372	-0.011406766
55	0xbc5fd1fb	-0.013660903
56	0xbc8e34a7	-0.017359091
57	0xbc3ad2cc	-0.011402797
58	0x3bde18d2	0.006777861
59	0xbd0db77f	-0.034598824
60	0xb8667868	-5.494841e-05
61	0xbbc39a50	-0.005969323
62	0xbc534e81	-0.012897135
63	0xbcb2df5e	-0.021835025

experts.0.net.6.weight f4 [64, 64]
0	0xbdcb3975	-0.099230684
1	0xbd7607d7	-0.06006607
2	0x3d5cddfd	0.053922642
3	0xbdca6211	-0.09881986
4	0xbda5a104	-0.08087352
5	0xbb313844	-0.0027041594
6	0xbd97b13b	-0.07406851
7	0xbd676ec8	-0.056502134
8	0x3c83a616	0.016070407
9	0xbd60f2dd	-0.054919112
10	0x3be714e1	0.0070520495
11	0x3cbd6c2f	0.023122875
12	0xbd6c40c8	-0.057678968
13	0xbd02421d	-0.03180133
14	0xbda48a10	-0.08034146
15	0xbd36d8fc	-0.044640526
16	0x3d6f2ccf	0.058392342
17	0xbdbf80e9	-0.093507595
18	0x3bee49c1	0.0072719757
19	0x3de79c8e	0.11309157
20	0xbcd5a942	-0.026081685
21	0xbd4bbc05	-0.049739856
22	0x3d966734	0.07343903
23	0xbca67837	-0.020320995
24	0x3d905607	0.070476584
25	0xbd3a29d3	-0.045450043
26	0x3dd765ab	0.105174385
27	0x3dedf4f0	0.11618984
28	0x3e10c48d	0.14137478
29	0x3dc13206	0.09433369
30	0xbdc53f13	-0.09631171
31	0x3d8b1525	0.067911424
32	0x3c64c1e5	0.013962244
33	0x3e05abd4	0.13053828
34	0x3d2a1cb8	0.041531295
35	0xbd6a122b	-0.057146233
36	0x3d8d3ec2	0.06896736
37	0xbde72d63	-0.11287954
38	0x3d36c781	0.044623856
39	0x3cd1bc27	0.025602413
40	0xbdba9523	-0.09110477
41	0x3db99f27	0.09063559
42	0x3d8599ad	0.06523452
43	0x3c16610d	0.009178412
44	0xba6ba310	-0.0008988837
45	0xbc10a90e	-0.008829368
46	0x3d461633	0.048361015
47	0xbd299045	-0.04139735
48	0x3d26e310	0.040743887
49	0xbc832ac4	-0.016011603
50	0x3d126f76	0.03575083
51	0x3d7389f3	0.05945773
52	0x3d2ce198	0.04220733
53	0x3dc1d3ea	0.094642475
54	0xbda9ccb2	-0.08290996
55	0x3d3b36dd	0.04570662
56	0x3dbfe19c	0.093692034
57	0xbce3b5a4	-0.027796574
58	0x3d8b5cec	0.06804833
59	0xbcdf958e	-0.027292993
60	0xbd8411b8	-0.06448692
61	0xbd033efe	-0.032042496
62	0x3d85119e	0.06497501
63	0xbdf8cc3b	-0.12148329
64	0x3cb68445	0.022279868
65	0x3de2ab05	0.11067776
66	0xbcafeebd	-0.021476144
67	0xbd05e5b7	-0.032689776
68	0xbdb94189	-0.09045703
69	0xbc83fe73	-0.016112542
70	0x3ded9fa2	0.11602713
71	0x3d533d46	0.051572107
72	0xbd95e7c1	-0.07319594
73	0xbe0c1e7d	-0.13683505
74	0x3d800a12	0.06251921
75	0xbe172589	-0.14760412
76	0xbdaac70e	-0.08338748
77	0xbdbb6a2d	-0.09151111
78	0xbddfc58e	-0.109263524
79	0x3dcc5b8a	0.09978397
80	0xbd9cd1a2	-0.07657172
81	0x3d153cd8	0.03643498
82	0xbd7ed5b7	-0.062215533
83	0xbd056a7b	-0.03257225
84	0xbd39b6b3	-0.04534025
85	0xbdc46f50	-0.09591544
86	0xbde366ee	-0.11103617
87	0xbde2839e	-0.1106026
88	0xbdf23095	-0.118256725
89	0x3db9f934	0.09080735
90	0x3db08dea	0.08620818
91	0xbdda2a42	-0.10652591
92	0x3dbe525d	0.09293053
93	0xbdc642b4	-0.09680691
94	0x3dabe4b5	0.08393232
95	0xbd18dbdb	-0.037319046
96	0xbdeaac3d	-0.11458633
97	0xbe142e3d	-0.14470764
98	0x3e27a87d	0.16372867
99	0x3de7451d	0.11292479
100	0xbd2473c2	-0.040149458
101	0x3dccbc92	0.099969044
102	0xbdd33ec4	-0.10314706
103	0x3dcd4367	0.100226216
104	0x3da4172c	0.08012232
105	0x3e0e25e1	0.13881637
106	0x3c352908	0.011057146
107	0x3ce06581	0.02739215
108	0xbaf4a7e2	-0.0018665756
109	0xbdba196c	-0.0908688
110	0xbdb8a5b3	-0.090159796
111	0x3da00eec	0.07815346
112	0xbda162ed	-0.07880197
113	0xbde93a72	-0.11388101
114	0xbd75c7c6	-0.060004972
115	0x3d87a9c8	0.0662418
116	0x3d6ee243	0.05832125
117	0x3d7288cb	0.059212487
118	0x3d2aa8b5	0.041664798
119	0xbdb67da7	-0.08910685
120	0xbdf7aab4	-0.12093106
121	0x3d4173a4	0.047229424
122	0x3dbaf553	0.09128823
123	0x3da5396c	0.08067593
124	0xbdcd6d4a	-0.10030611
125	0x3e567690	0.20943666
126	0x3dc3b5c0	0.095561504
127	0x3dd61cf7	0.10454743
128	0x3e0c3c46	0.13694867
129	0x3daacf9a	0.08340378
130	0xbd9b8f37	-0.075956754
131	0xbc0ece10	-0.008716121
132	0x3d920a74	0.071309
133	0x3d28669b	0.041113477
134	0x3e1de6fc	0.15420145
135	0x3d333e4b	0.04376058
136	0xbd35706a	-0.04429666
137	0xbe020e67	-0.12700807
138	0x3b99dd18	0.004695546
139	0xbb9e3be9	-0.004828919
140	0x3c7f45bd	0.015580592
141	0xbdb2ecdd	-0.08736584
142	0xbd321b6b	-0.04348318
143	0xbde44668	-0.111462414
144	0xbc1c7e9d	-0.009551671
145	0xbd7128c2	-0.05887676
146	0x3ca3f72f	0.020015327
147	0xbd2792e2	-0.040911563
148	0xbcd339f8	-0.025784478
149	0xbc90ca5d	-0.01767462
150	0x3c5a93c8	0.013340898
151	0xbdcc2447	-0.09967857
152	0xbddd23a5	-0.10797814
153	0x3e137cab	0.14403026
154	0xbdbe190c	-0.09282121
155	0xbd0044c4	-0.03131558
156	0xbcecfe08	-0.028929725
157	0x3dd56213	0.10419097
158	0xbd68bd1a	-0.056820966
159	0xbd880f1c	-0.06643507
160	0x3c1f51c7	0.009724087
161	0x3de46b0b	0.11153229
162	0xbd52e892	-0.051491328
163	0xbd89d017	-0.06729143
164	0xbbd35a1e	-0.006449952
165	0xbd6b2c79	-0.05741546
166	0xbb4e1093	-0.0031442984
167	0x3ce17fe9	0.027526813
168	0xbd33964f	-0.043844517
169	0x3c1e9b7b	0.009680624
170	0xbd61f39b	-0.05516396
171	0xbdbddaff	-0.09270286
172	0x3e0a2213	0.13489561
173	0x3d0af613	0.03392608
174	0xbdbd4d4d	-0.092432596
175	0x3d7dd3c0	0.06196952
176	0xbcd256a8	-0.025676087
177	0xbd6cee86	-0.05784466
178	0x3d02f7ff	0.03197479
179	0x3d794ec1	0.06086612
180	0x3df479e3	0.119373105
181	0x3d490144	0.049073473
182	0xbad20d2a	-0.0016025652
183	0x3d359a41	0.04433656
184	0xbcc0b36b	-0.023523053
185	0x3dd626b7	0.10456603
186	0xbdb1dd44	-0.08684781
187	0xb9862b8c	-0.00025590917
188	0x3b8233b5	0.003973449
189	0x3d3aaee4	0.045576945
190	0x3db08675	0.08619396
191	0x3bddb648	0.0067661144
192	0xbdb38b77	-0.08766835
193	0x3c81f89e	0.01586562
194	0x3cf64c97	0.030065818
195	0xbd4f92c8	-0.05067709
196	0xbe026f0c	-0.12737674
197	0x3d5cde75	0.05392309
198	0x3cd1e4af	0.02562174
199	0xbe123843	-0.14279275
200	0xbcf1a246	-0.029496323
201	0x3db0a5a2	0.08625342
202	0x3dbc8945	0.092058696
203	0x3b3d4f08	0.0028886218
204	0x3c80488c	0.015659593
205	0x3d8c38a7	0.06846743
206	0x3d77e07a	0.060516812
207	0xbde65945	-0.112474956
208	0xbd25503c	-0.04035972
209	0xbd169e05	-0.036771793
210	0x3dac505b	0.08413764
211	0xbdaf2072	-0.0855111
212	0x3d888b3d	0.066671826
213	0x3d9aa612	0.07551207
214	0x3dc51c2a	0.096245125
215	0xbca9175b	-0.02064102
216	0xbdb845ac	-0.08997664
217	0xbde5b2d8	-0.11215752
218	0x3d8259f1	0.06364811
219	0x3d56d171	0.052445833
220	0xbd8385da	-0.064220145
221	0xbd7efdb4	-0.06225367
222	0x3c909f11	0.017653974
223	0x3bea4703	0.0071495785
224	0x3d2ba445	0.041904707
225	0x3e2c1511	0.16804911
226	0x3d832a1a	0.064045146
227	0x3c189378	0.009312503
228	0x3db088e6	0.08619861
229	0xbd2cf671	-0.042227212
230	0x3d5efeb8	0.054442137
231	0x3c62edab	0.01385061
232	0xbdf8129d	-0.12112925
233	0xbe2db840	-0.16964817
234	0xbd688da4	-0.056775704
235	0xbd29db39	-0.041468833
236	0xbdf99158	-0.12185925
237	0x3dbf5cfb	0.093439065
238	0x3db5635c	0.08856842
239	0xbdf6830c	-0.12036714
240	0xbb6c3e76	-0.0036047972
241	0xbda8c3d4	-0.08240476
242	0x3e3bcfa5	0.18340929
243	0x3e0d57ea	0.13803068
244	0x3d4abf40	0.049498796
245	0xbd00d02a	-0.03144852
246	0x3dad5a70	0.08464515
247	0x3cfd14c6	0.030893695
248	0x3e25cee2	0.16192201
249	0x3b90ebdf	0.0044226493
250	0xbd6a8fe2	-0.057266124
251	0xbdc37342	-0.09543468
252	0xbbeda2af	-0.0072520594
253	0xbd095b0a	-0.033534087
254	0x3cae93dd	0.021310741
255	0xbd0aabe5	-0.033855338

experts.0.net.6.bias f4 [64]
0	0x3d507639	0.050893996
1	0xbd987a1d	-0.07445166
2	0x3ce4d4e8	0.027933553
3	0x3d3bd79c	0.045859918
4	0xbc35a7bc	-0.011087354
5	0xbc91146d	-0.017709935
6	0xbd9c5eb1	-0.076352485
7	0xbd8a9415	-0.06766526
8	0xbbbbafb8	-0.0057277344
9	0x3c8aa2e8	0.016923383
10	0xbd6cb43f	-0.057789084
11	0xbdf224af	-0.11823403
12	0x3c8a2386	0.016862642
13	0x3d7ecdad	0.062207866
14	0x3d3cbdaf	0.046079334
15	0xbd840300	-0.06445885
16	0xbbd1c9f2	-0.0064022476
17	0x3c8da2e8	0.017289594
18	0x3cf3903c	0.029731862
19	0x3dd3563a	0.10319181
20	0xbd5589bc	-0.052133307
21	0xbcfcce0e	-0.030859973
22	0x3d285fe0	0.04110706
23	0xbdb1c5c0	-0.08680296
24	0xbd2f3e15	-0.042783815
25	0xbda7f409	-0.08200843
26	0xbc6cda0d	-0.014456284
27	0xbc7cb134	-0.015423108
28	0xbdbbbd84	-0.091670066
29	0xbcca6c62	-0.024709884
30	0xbcd1023b	-0.025513759
31	0xbdb7c2b2	-0.08972682
32	0xbda9365f	-0.082623236
33	0x3d04018a	0.03222803
34	0x3d40bb86	0.047053836
35	0xbc90e4d5	-0.01768724
36	0x3d59c3d1	0.05316526
37	0xbd79647a	-0.060886838
38	0xbda6b8ca	-0.081407145
39	0x3d912662	0.07087399
40	0x3d818560	0.063242674
41	0xbdd65026	-0.10464506
42	0x3d54b66a	0.051931776
43	0xbd9fa1cd	-0.07794533
44	0xbd58367c	-0.052786335
45	0xbe020d41	-0.12700368
46	0xbd46011b	-0.048340898
47	0xbd9ad0a3	-0.075593255
48	0x3ba20f9b	0.004945708
49	0x3d88cacc	0.066793054
50	0xbd78f197	-0.060777273
51	0x3d9a62a0	0.075383425
52	0x3d87fbd1	0.06639827
53	0xbcc96436	-0.024583917
54	0x3d928cdd	0.07155774
55	0xbda1e088	-0.07904154
56	0xbde49a87	-0.11162286
57	0xbde17907	-0.11009412
58	0xbc64c48a	-0.013962874
59	0xbdd810b7	-0.10550063
60	0xbc9a86ee	-0.018863168
61	0xbcd281a4	-0.025696583
62	0xbd9b725a	-0.0759017
63	0x3d06a2bb	0.032870036

experts.0.net.7.weight f4 [64]
0	0x3f7d35a5	0.9890998
1	0x3fa078e8	1.2536898
2	0x3f87b85e	1.0603139
3	0x3f766fda	0.9626442
4	0x3f8013d0	1.0006046
5	0x3f81ee3a	1.0150826
6	0x3f7d30f0	0.989028
7	0x3f81fee2	1.0155909
8	0x3f76c8ac	0.9639995
9	0x3f8af36d	1.0855538
10	0x3f80c905	1.0061346
11	0x3f87f991	1.0623037
12	0x3f82c4a2	1.0216258
13	0x3f7ed05a	0.9953667
14	0x3f86ebac	1.0540671
15	0x3f832fc2	1.024895
16	0x3f94c871	1.162367
17	0x3f84eaa8	1.0384111
18	0x3f7b5f06	0.9819187
19	0x3f86424d	1.0488983
20	0x3f81e5c6	1.0148246
21	0x3f74532b	0.95439404
22	0x3f7e8d3a	0.99434245
23	0x3f8769aa	1.0579121
24	0x3f8007e7	1.0002412
25	0x3f810e07	1.0082406
26	0x3f73a89c	0.9517915
27	0x3f794efb	0.9738614
28	0x3f832875	1.0246722
29	0x3f8cc13d	1.0996472
30	0x3f85a2fb	1.0440363
31	0x3f7f4581	0.9971543
32	0x3f7b3de9	0.9814134
33	0x3f7f1d19	0.99653774
34	0x3f8a02de	1.0782125
35	0x3f7f7237	0.99783653
36	0x3f7a5479	0.97785145
37	0x3f7a86ae	0.97861755
38	0x3f865d8a	1.0497296
39	0x3f7ec8c3	0.9952509
40	0x3f817294	1.0113091
41	0x3f88c18b	1.0684065
42	0x3f7d6510	0.98982334
43	0x3f753831	0.95788866
44	0x3f8bc75a	1.0920212
45	0x3f8ce911	1.1008626
46	0x3f8009a9	1.0002948
47	0x3f782191	0.9692622
48	0x3f842dfe	1.0326536
49	0x3f7ba135	0.9829286
50	0x3f810299	1.0078918
51	0x3f797c89	0.9745565
52	0x3f7de7ca	0.9918181
53	0x3f89e288	1.0772257
54	0x3f7c3d54	0.9853108
55	0x3f784d4a	0.96992934
56	0x3f7b65c3	0.9820215
57	0x3f7ceb13	0.98796195
58	0x3f8284c7	1.019677
59	0x3f79fa98	0.97648
60	0x3f847627	1.0348557
61	0x3f8a419e	1.0801275
62	0x3f6dd292	0.9289943
63	0x3f99a7b6	1.2004306
