checkpoints/checkpoint_9000.pt (torch, 38432 bytes, 8 tensors)

net.0.weight f4 [64, 3]
-0.037816808 0.013136447 0.009679969 0.76876205 -0.13494556 0.045953486 -0.03738143 -0.004756238
0.0028276443 0.015006445 -0.019011525 0.014245873 0.0092133125 0.19889948 0.10432079 -0.48185533
-1.4343427 0.52832305 -0.1520723 0.016676448 0.009082902 1.3834227 -1.116423 -0.6184441
0.047445223 0.015854932 0.002234249 0.056935653 0.013610035 0.009602552 0.030350944 0.0054531405
0.0050380444 0.68724436 -0.06467628 -0.000531849 0.67358994 -0.02898342 0.11517847 0.96727383
-0.046992846 0.28136915 -0.8486005 0.9751925 0.046105858 0.84380805 0.07991969 0.7146276
-0.44786474 0.036699653 0.0025107774 0.41993305 0.974929 0.9855859 -0.8226437 0.31647956
1.2722751 -0.060397394 -0.041626472 -0.02276507 -1.4878827 0.18298663 1.2377698 0.08655788
-0.013283572 -0.012100076 -0.17422682 0.8248876 -0.11266191 0.0074039935 0.010361565 -0.011629935
0.15359865 -0.013424485 -0.010889877 -0.9533927 0.87111336 -0.87442905 0.033745624 0.008954505
0.00036709424 0.69195914 -0.011934684 -0.0075065205 -1.0053235 -1.6179227 1.1477454 -1.1519185
0.065021396 -0.021063155 0.64052075 -0.6475509 0.27967092 -1.0494348 0.8563104 -0.73279065
0.10491743 0.005259179 -0.017302074 0.021511782 -0.010428957 -0.05229519 1.1723299 -0.53577703
-0.5223176 0.75475127 0.033811204 -0.0997647 -0.13444906 -0.13930596 -0.012400538 1.4699695
-0.11911304 -0.69576854 0.714005 0.35317522 0.22342901 -0.42311212 -0.60452485 -1.0422608
0.009628825 -0.004447329 -0.0126511045 -0.016779087 0.0012464015 -0.0009514512 0.037921146 -0.006689571
0.0072839614 -0.8781719 -0.0020510259 -0.017006202 -0.04830436 -0.016810758 0.009991619 0.15661663
-0.50222784 -0.7825986 0.5424743 0.012050549 0.014655697 -1.3905884 0.8328634 1.8057058
0.27769095 -0.0280957 0.012678776 0.68661946 -0.24988085 -0.021435326 -0.3558259 0.32678497
-1.2242457 0.4438436 -0.41902316 0.25179714 -0.0068954322 -0.0031014117 -0.029272206 -0.04710355
-0.021023126 0.013324512 0.052627563 0.18840618 -1.2741718 1.1886283 -0.1690863 1.065953
-1.0281357 0.067601524 -0.035558164 0.5876798 -0.0407861 -0.0030126253 -0.67067075 0.73472345
-0.10002167 0.6523616 -0.6763745 0.4701663 0.6755759 -0.032903083 -0.05540084 -0.26081428
-2.7318454 0.18608817 1.0141369 0.30884042 1.1872679 0.19198437 -0.45430526 -0.60190374
00000000: cce5 1abd 413a 573c bc98 1e3c 97cd 443f
00000010: 2b2f 0abe b939 3c3d 451d 19bd 37da 9bbb
00000020: 0050 393b 98dd 753c 0fbe 9bbc 8667 693c
00000030: 6ff3 163c 4eac 4b3e 23a6 d53d beb5 f6be
00000040: 8b98 b7bf 2e40 073f d7b8 1bbe 0c9d 883c
00000050: 74d0 143c ff13 b13f f3e6 8ebf 5a52 1ebf
00000060: ec55 423d 34e2 813c 7a6c 123b 5c35 693d
00000070: a0fc 5e3c 0654 1d3c 8ba2 f83c 42b0 b23b
00000080: 2e16 a53b 3fef 2f3f ff74 84bd c86b 0bba
00000090: 6470 2c3f a36e edbc b1e2 eb3d 429f 773f
000000a0: 927b 40bd 9e0f 903e e23d 59bf 37a6 793f
000000b0: 7fd9 3c3d ce03 583f efac a33d d6f1 363f
000000c0: 874e e5be 6052 163d db8b 243b 7701 d73e
000000d0: f294 793f 5c4f 7c3f c798 52bf 9c09 a23e
000000e0: e9d9 a23f 4263 77bd 8580 2abd d07d babc
000000f0: f172 bebf d960 3b3e 3e6f 9e3f 4245 b13d
00000100: 57a3 59bc 663f 46bc 8468 32be d52b 533f
00000110: 4abb e6bd 339d f23b 8ec3 293c 7c8b 3ebc
00000120: f748 1d3e 5ff2 5bbc 746b 32bc 8b11 74bf
00000130: 4901 5f3f 95da 5fbf da38 0a3d ebb5 123c
00000140: 8e76 c039 3c24 313f b189 43bc 42f9 f5bb
00000150: 71ae 80bf 1718 cfbf 52e9 923f 1172 93bf
00000160: f029 853d a38c acbc 2bf9 233f e5c5 25bf
00000170: 0731 8f3e e153 86bf 2937 5b3f 2b98 3bbf
00000180: f3de d63d 3155 ac3b 14bd 8dbc 7a39 b03c
00000190: 37de 2abc 7b33 56bd e80e 963f af28 09bf
000001a0: 9bb6 05bf 6137 413f 9e7d 0a3d 6f51 ccbd
000001b0: 04ad 09be 39a6 0ebe a02b 4bbc f627 bc3f
000001c0: 8af1 f3bd e31d 32bf 08c9 363f 62d3 b43e
000001d0: 93ca 643e 27a2 d8be 24c2 1abf cd68 85bf
000001e0: 38c2 1d3c e6ba 91bb 9446 4fbc 4c74 89bc
000001f0: 4b5e a33a cf6a 79ba 3453 1b3d 3034 dbbb
00000200: 4cae ee3b e0cf 60bf 816a 06bb 9750 8bbc
00000210: cbda 45bd b7b6 89bc e3b3 233c 1c60 203e
00000220: 0192 00bf 6258 48bf 99df 0a3f aa6f 453c
00000230: 731e 703c cdfe b1bf 8936 553f 5e21 e73f
00000240: 822d 8e3e f428 e6bc a4ba 4f3c 4bc6 2f3f
00000250: c4e0 7fbe 2399 afbc d02e b6be 5c50 a73e
00000260: 15b4 9cbf 783f e33e 348a d6be 8eeb 803e
00000270: 14f3 e1bb 0e41 4bbb 44cc efbc a7ef 40bd
00000280: b138 acbc 0e4f 5a3c 0090 573d 8ded 403e
00000290: 1018 a3bf f924 983f f624 2dbe 2671 883f
000002a0: f399 83bf ab72 8a3d 70a5 11bd 2f72 163f
000002b0: 530f 27bd 776f 45bb 14b1 2bbf d616 3c3f
000002c0: 29d8 ccbd 2b01 273f e126 2dbf a3b9 f03e
000002d0: 8bf2 2c3f 62c5 06bd feeb 62bd 7389 85be
000002e0: 8ed6 2ec0 e68d 3e3e 3dcf 813f 5520 9e3e
000002f0: 65f8 973f 8d97 443e b39a e8be 5d16 1abf

net.0.bias f4 [64]
-0.031504758 -0.6140265 -0.03745414 0.0011343521 -0.24285014 -0.21509577 0.1215254 -0.76627743
0.050825536 0.057133574 0.044971272 -0.6144897 -0.62317926 -0.91637546 -0.51618356 -0.8113314
0.3800691 -0.917164 0.009488043 -0.060271986 0.7037995 -0.067862645 -0.8176568 -0.012138847
-0.14479236 -0.1584853 0.038870137 -0.6456665 0.05543656 0.967628 0.017087273 0.95174146
-0.082670085 0.0112389 -0.8026746 -0.689461 0.109297 -0.95467204 -0.991394 0.34474194
-0.0059725083 0.02678231 -0.07630397 0.7549564 -0.01408292 -0.07810022 -0.52477485 -0.105498016
-0.22235861 -0.47011462 -0.32193246 -0.08664612 -0.00936975 -0.05735832 -0.507822 -0.8075822
0.85906726 -0.5406711 -0.2583507 0.020538613 -0.61121315 -0.7471216 -0.98985016 0.22361732
00000000: 220b 01bd d730 1dbf 8369 19bd 8aae 943a
00000010: b5ad 78be 1142 5cbe 4fe2 f83d c22a 44bf
00000020: 702e 503d e504 6a3d cc33 383d 324f 1dbf
00000030: ad88 1fbf 9597 6abf 9b24 04bf 6ab3 4fbf
00000040: 6b98 c23e 43cb 6abf bd73 1b3c c2df 76bd
00000050: 342c 343f 92fb 8abd f551 51bf 04e2 46bc
00000060: 7344 14be f849 22be 4b36 1f3d 664a 25bf
00000070: 7211 633d 78b6 773f 9cfa 8b3c 54a5 733f
00000080: ef4e a9bd 5d23 383c 157c 4dbf 8480 30bf
00000090: 1bd7 df3d 6365 74bf ffcb 7dbf 0482 b03e
000000a0: 08b5 c3bb 9366 db3c 4145 9cbd d344 413f
000000b0: 0cbc 66bc 02f3 9fbd a557 06bf 580f d8bd
000000c0: fab1 63be ddb2 f0be 55d4 a4be 8573 b1bd
000000d0: 9483 19bc 8ff0 6abd 9f00 02bf b5bd 4ebf
000000e0: d5eb 5b3f 6c69 0abf 8b46 84be 9840 a83c
000000f0: 7778 1cbf 5c43 3fbf d266 7dbf f0fb 643e

net.2.weight f4 [64, 64]
-0.07075036 -0.114383414 0.053964853 -0.14164655 0.084460825 0.10598246 0.019178843 -0.021532986
0.108537495 0.023541914 -0.10532649 -0.029072655 0.026428454 0.007652549 0.06689588 -0.10596562
-0.026023988 0.055941492 -0.038102992 0.086407095 -0.09813477 0.021947104 0.15597188 -0.12903304
-0.026457159 0.0781368 -0.0061336886 0.08039041 -0.067376204 -0.03577819 -0.11947031 -0.12468549
0.1659279 -0.040654615 0.017112466 0.08349695 -0.117425665 -0.021360211 -0.017943539 0.010994399
-0.17097479 0.07164645 0.0046303486 -0.04042042 -0.020459317 0.0263341 0.06284308 -0.023766324
0.078912914 -0.016653014 -0.0883361 0.0502474 -0.17518598 0.09285191 -0.13216253 0.08148633
0.03237142 0.22456829 -0.023224503 0.060162544 0.056647874 -0.10602263 -0.09688618 0.038686164
0.009786487 -0.74084586 0.07358632 -0.04148858 0.6905139 0.23795736 -0.072400175 -0.51373816
-0.034321643 -0.08591448 -0.10233323 0.07217651 0.12797607 0.04475901 2.3106768 -0.17334996
-0.2118112 0.76861227 0.4971144 0.121443845 -0.017006617 0.08641797 1.9501084 -0.00436881
0.03390263 1.4599117 -0.07387141 0.24359262 -0.090383545 -0.282218 -2.079174 0.36401898
0.023011427 0.0038025875 -0.26845482 0.26982722 0.096069686 -0.36778677 0.86453277 0.040637046
-0.013292715 0.003228274 0.06803457 -0.3139072 0.07853146 -0.040568493 0.376341 1.369175
-0.117140226 -1.1115271 0.78654593 -1.4756489 -0.017356208 0.085403115 0.8457771 -1.2803943
-0.1222393 0.099443436 1.8035504 -2.2205682 0.1634659 0.27325705 0.1254891 -0.9943442
0.1825899 -0.06648739 -0.16452046 0.058604784 -0.067599036 -0.06906497 0.06419783 0.06509274
0.10473181 -0.059748147 -0.110850476 -0.095076 0.04093995 -0.020799143 -0.11244774 0.058556125
0.077422574 -0.018980112 0.050788317 -0.058370117 0.01903106 -0.0065521435 0.10492214 0.09698913
-0.16640867 -0.03607364 -0.015649984 -0.07009469 -0.007055539 0.06154712 0.010578097 0.10744437
-0.14602634 -0.13946563 -0.12653786 -0.08725077 0.036166057 -0.04420389 0.032596778 0.062235728
-0.014392742 -0.04028348 0.097743884 -0.040609762 -0.184221 -0.003938634 -0.09233134 -0.08655048
0.020923382 0.045862984 -0.045841116 0.09473453 -0.15150343 0.11752783 -0.05351972 0.011948011
-0.09930472 -0.008071706 -0.02880768 -0.06407615 -0.03890513 -0.010433838 -0.038760517 -0.13137957
0.051401287 -0.020798096 0.18493369 -0.18560964 -0.11568722 0.050769012 0.011192721 -0.0693018
-0.061529145 -0.06408501 -0.027392335 0.11609461 0.009794284 -0.026148695 -0.093540885 0.009271394
-0.053747766 0.03696293 -0.008485273 0.047789875 -0.10005531 -0.0131444065 0.03562608 0.00652372
-0.0014298918 -0.01431132 0.04025634 -0.10002811 -0.22262913 -0.028634114 -0.050809246 0.015895203
0.039323322 -0.07766878 0.03527662 -0.05457054 -0.10630447 -0.17666222 -0.18850085 -0.10041755
0.064655334 0.071718924 0.07365735 0.075846195 -0.027274927 -0.105956934 -0.07187302 0.14139529
-0.048247725 -0.08704893 0.042376228 -0.13829526 0.021306623 0.22201549 -0.014646358 -0.04466327
0.05482516 -0.1034838 -0.074071504 0.0437842 0.016707892 0.04297453 -0.005650581 -0.019719563
00000000: 91e5 90bd da41 eabd 400a 5d3d cb0b 11be
00000010: ccf9 ac3d 550d d93d f31c 9d3c f265 b0bc
00000020: e848 de3d f9da c03c 6ab5 d7bd c729 eebc
00000030: 7c80 d83c 3cc2 fa3b b500 893d 8104 d9bd
00000040: 4230 d5bc e822 653d e211 1cbd 34f6 b03d
00000050: e2fa c8bd 6aca b33c 18b7 1f3e 3d21 04be
00000060: afbc d8bc 3006 a03d 1cfd c8bb baa3 a43d
00000070: 89fc 89bd 278c 12bd daac f4bd 1b5b ffbd
00000080: 01e9 293e 7485 26bd 712f 8c3c 7300 ab3d
00000090: de7c f0bd 9cfb aebc 54fe 92bc da21 343c
000000a0: 0414 2fbe 60bb 923d 2eba 973b e28f 25bd
000000b0: 4c9a a7bc 9cba d73c dfb3 803d 98b1 c2bc
000000c0: 189d a13d e76b 88bc 8fe9 b4bd 38d0 4d3d
000000d0: f463 33be 2429 be3d 9d55 07be 4ee2 a63d
000000e0: e597 043d 3bf5 653e 5041 bebc 006d 763d
000000f0: 9a07 683d 6522 d9bd 436c c6bd 6275 1e3d
00000100: 8057 203c 13a8 3dbf 6db4 963d eeef 29bd
00000110: 85c5 303f 18ab 733e 8b46 94bd 5884 03bf
00000120: da94 0cbd eef3 afbd 1694 d1bd 47d1 933d
00000130: 290c 033e 3955 373d 21e2 1340 a782 31be
00000140: 09e5 58be c6c3 443f c785 fe3e 8db7 f83d
00000150: 7651 8bbc e8fb b03d 279d f93f 3c28 8fbb
00000160: 7cdd 0a3d 63de ba3f e549 97bd 5870 793e
00000170: 021b b9bd e17e 90be 3011 05c0 b260 ba3e
00000180: 7682 bc3c d534 793b e972 89be cb26 8a3e
00000190: 2fc0 c43d 8c4e bcbe 0552 5d3f 0873 263d
000001a0: b0c9 59bc 7391 533b b555 8b3d 72b8 a0be
000001b0: 1ad5 a03d 262b 26bd c4af c03e 2041 af3f
000001c0: 37e7 efbd 8546 8ebf 135b 493f 10e2 bcbf
000001d0: 9b2e 8ebc d4e7 ae3d d984 583f f6e3 a3bf
000001e0: 9958 fabd 00a9 cb3d bdda e63f ca1d 0ec0
000001f0: 9b63 273e 59e8 8b3e 3780 003e 578d 7ebf
00000200: d9f8 3a3e 8a2a 88bd 0d78 28be 920b 703d
00000210: 5d71 8abd ef71 8dbd 277a 833d 584f 853d
00000220: a27d d63d 79ba 74bd 9305 e3bd 35b7 c2bd
00000230: a6b0 273d f762 aabc 004b e6bd 8cd8 6f3d
00000240: ba8f 9e3d 2e7c 9bbc 6907 503d 8115 6fbd
00000250: 07e7 9b3c 5db3 d6bb 6be1 d63d 3da2 c63d
00000260: 0967 2abe f4c1 13bd 6534 80bc ce8d 8fbd
00000270: 2732 e7bb d518 7c3d c14f 2d3c cb0b dc3d
00000280: ee87 15be 14d0 0ebe 2493 01be 88b0 b2bd
00000290: dc22 143d 230f 35bd 3384 053d e4ea 7e3d
000002a0: 89cf 6bbc 4a00 25bd f22d c83d 6c56 26bd
000002b0: 6ea4 3cbe a80f 81bb 3718 bdbd 6141 b1bd
000002c0: 8367 ab3c d3da 3b3d e5c3 3bbd 2d04 c23d
000002d0: b723 1bbe 6eb2 f03d 7e37 5bbd 97c1 433c
000002e0: 4660 cbbd 303f 04bc 15fe ebbc 5b3a 83bd
000002f0: fc5a 1fbd b0f2 2abc 59c3 1ebd 5e88 06be
00000300: 288a 523d c560 aabc 425f 3d3e 7410 3ebe
00000310: 6ced ecbd 2bf3 4f3d ad61 373c 1aee 8dbd
00000320: fc05 7cbd 003f 83bd e465 e0bc 03c3 ed3d
00000330: 3478 203c ca35 d6bc 5d92 bfbd 0ce7 173c
00000340: 9e26 5cbd 7166 173d d105 0bbc 51bf 433d
00000350: cce9 ccbd a35b 57bc a7ec 113d eec4 d53b
00000360: 356b bbba 077a 6abc d5e3 243d 8adb ccbd
00000370: e4f8 63be 1792 eabc 5b1d 50bd a836 823c
00000380: 7e11 213d cf10 9fbd 387e 103d 5c85 5fbd
00000390: 28b6 d9bd f1e6 34be 5e06 41be b7a7 cdbd
000003a0: 046a 843d 5fe1 923d aad9 963d 4055 9b3d
000003b0: ab6f dfbc f3ff d8bd 2932 93bd edc9 103e
000003c0: 689f 45bd b646 b2bd b292 2d3d 469d 0dbe
000003d0: 3a8b ae3c 0758 633e 47f7 6fbc d5f0 36bd
000003e0: 5990 603d 51ef d3bd cdb2 97bd 1057 333d
000003f0: fdde 883c 1006 303d 8228 b9bb ec8a a1bc

net.2.bias f4 [64]
-0.14607882 -0.6447504 -0.06904772 -0.049753178 -0.14387637 -0.7319559 -0.12958795 -0.6518535
0.46933618 0.10316211 -0.1049243 -1.2138871 -0.79713273 -1.1697688 -0.07484496 -1.2076002
-0.18644927 -0.035274103 0.47702047 -0.12145727 -0.14990167 -0.9525505 0.19821379 -0.24449106
-0.08511935 -0.08418773 -0.056130026 -0.08522176 -0.5315405 0.09964856 -0.78606915 -0.42469424
-0.004061966 0.2889684 -0.7752626 -0.12825663 -0.062492102 0.1536531 -0.0796861 -1.2141126
-0.12493156 -0.0068927575 -0.094234824 -0.11136567 0.037774295 -0.128496 -0.11855479 0.04584435
0.014457129 0.04693089 -0.19756877 -0.06461713 -0.03460035 -0.22016539 -0.43989196 0.044524893
0.0352012 0.06907123 -0.56421226 -0.4878501 -0.050332755 -1.1325072 -0.42418048 -0.20604987
00000000: b095 15be 5d0e 25bf e468 8dbd fdc9 4bbd
00000010: 5454 13be 7661 3bbf b4b2 04be dfdf 26bf
00000020: d54c f03e a846 d33d 8de2 d6bd a760 9bbf
00000030: e410 4cbf fcba 95bf 5048 99bd a592 9abf
00000040: 8fec 3ebe 947b 10bd 073c f43e 97be f8bd
00000050: d37f 19be 59da 73bf 8ef8 4a3e dd5b 7abe
00000060: 0e53 aebd 9e6a acbd 99e8 65bd bf88 aebd
00000070: 0a13 08bf 8b14 cc3d d43b 49bf 8671 d9be
00000080: 3e1a 85bb abf3 933e 9c77 46bf b555 03be
00000090: b8f7 7fbd 3d57 1d3e 7732 a3bd 0b68 9bbf
000000a0: 1edc ffbd a4dc e1bb 30fe c0bd af13 e4bd
000000b0: 38b9 1a3d 7594 03be dbcc f2bd 49c7 3b3d
000000c0: 98dd 6c3c 9b3a 403d 784f 4abe fc55 84bd
000000d0: 19b9 0dbd 0973 61be 8539 e1be bc5f 363d
000000e0: 222f 103d 3875 8d3d 3770 10bf 7dc7 f9be
000000f0: b829 4ebd fff5 90bf 2f2e d9be bdfe 52be

net.4.weight f4 [64, 64]
-0.0012335135 -0.047535658 -0.003157653 0.02302906 -0.06379738 -0.6193632 -0.030632488 -1.4926013
-0.3577056 -0.035285104 -0.029212227 0.8246836 0.061785076 0.11517835 -0.01808546 0.6546189
-0.025237013 -0.00488403 -1.2026674 0.0050972574 0.0012241134 0.47281453 -0.05176521 0.013995089
0.032710146 -0.08429767 -0.006837633 -0.012760771 -0.36137125 0.043201115 0.73502785 0.23738454
-0.02010333 -0.5540486 -0.035875797 -0.030040758 -0.037420195 0.0074055335 -0.026527774 0.62703323
-1.0727563 -0.020601336 -0.017214907 0.0061886087 -0.046082173 -0.054375257 -0.016601792 -0.025704533
0.0040599145 0.001136471 -3.815714 0.057330843 -0.04401379 -0.37746835 0.0023207976 -0.057648953
-0.0049980353 -0.019107215 0.6387503 -0.41729274 -0.03096945 1.10916 -0.026016522 -0.08762754
-0.07821643 0.036731806 -0.07455719 0.008591789 -0.005881284 -0.20714557 0.08534406 0.040042512
-0.13129786 0.024565475 -0.119195536 -0.012759616 -0.1530125 0.084864296 0.1940472 -0.016896123
-0.1152874 0.06816499 -0.028806264 -0.12281261 -0.22963722 0.043501366 0.103888005 0.106130995
-0.06834633 -0.050505646 -0.16306016 -0.017980717 -0.09867465 -0.09162681 -0.09807893 -0.032242548
-0.05992676 0.023608701 -0.26364854 -0.06664929 -0.030759372 0.13395827 0.11399541 0.17927666
0.021674689 0.076303914 0.20047446 -0.027859485 -0.0444651 0.034562014 -0.06384082 0.1353095
-0.1926004 -0.14166199 0.0036375674 -0.13334952 0.0317057 0.013755589 -0.14290991 0.05142585
-0.014784699 -0.017501514 0.099107176 -0.0065086395 -0.12117636 0.19570282 -0.17148006 -0.13378018
0.043706477 -0.07890553 -0.1516064 -0.09676928 -0.20151697 -0.037253957 0.24960369 0.03663493
0.07538069 -0.17326608 -0.15731144 -0.0025034202 0.06652877 -0.29493412 -0.012500636 0.033886373
-0.020182278 0.062543005 -0.13494703 -0.09380361 -0.15716411 0.016544418 -0.13868786 0.13909116
0.022949547 0.24561016 0.070160516 0.10617093 0.0822292 -0.10773191 -0.0034691656 0.11253778
-0.119168416 -0.0810763 -0.10845818 0.16006483 0.0014196032 0.117847666 0.0660747 0.17249747
0.036210082 -0.039638992 -0.047645535 -0.011259558 -0.1340294 -0.19101852 0.033763643 0.18293166
-0.2714242 -0.055193096 -0.09292378 0.028817499 -0.15107575 0.0851169 -0.20786324 0.021000035
-0.09216778 0.09665445 0.13652125 -0.2058914 -0.19146708 0.022200556 -0.021847514 0.053756386
-0.002004385 -0.1774541 -0.085124016 0.092195556 0.15115914 -0.08590403 -0.02556384 -0.04234747
-0.057701085 0.025586192 0.16534194 -0.039836872 -0.08516256 -0.011784216 0.03676996 0.16918139
0.01381978 0.14263228 -0.119825915 0.10792209 0.11115585 -0.0445662 0.064296156 -0.15565889
-0.105067104 0.06737748 -0.09106474 -0.13785915 0.007071752 0.113850154 -0.105637915 0.17234315
0.08583284 -0.24427019 -0.14440712 -0.038974278 0.18666463 -0.13256186 -0.2752705 0.14243786
0.07433169 0.105402395 0.09405572 0.0060222996 0.017190045 0.13079493 0.108969785 -0.08121137
-0.07971932 -0.004409536 -0.110219896 -0.0902312 0.20341508 -0.02870568 0.20903826 0.08710616
0.01775081 0.044090435 0.08702319 -0.11729797 0.20631576 0.008698628 0.0637087 0.055560384
00000000: d8ad a1ba c0b4 42bd a0f0 4ebb 70a7 bc3c
00000010: 33a8 82bd 968e 1ebf fcf0 fabc 8f0d bfbf
00000020: 3025 b7be 1d87 10bd 7b4e efbc 771e 533f
00000030: 5912 7d3d a0e2 eb3d f527 94bc 1b95 273f
00000040: dabd cebc 370a a0bb 01f1 99bf e506 a73b
00000050: 6e72 a03a bf14 f23e c207 54bd a84b 653c
00000060: 13fb 053d 42a4 acbd 390e e0bb 8e12 51bc
00000070: a705 b9be a7f3 303d c92a 3c3f ef14 733e
00000080: bdaf a4bc 21d6 0dbf 80f2 12bd 0918 f6bc
00000090: eb45 19bd 1eaa f23b c650 d9bc 4085 203f
000000a0: 1450 89bf 22c4 a8bc 4706 8dbc d0c9 ca3b
000000b0: a9c0 3cbd 97b8 5ebd 7b00 88bc 5092 d2bc
000000c0: 0809 853b a4f5 943a a834 74c0 bfd3 6a3d
000000d0: ce47 34bd 8843 c1be 8618 183b 4f21 6cbd
000000e0: 8fc6 a3bb bc86 9cbc 2485 233f 65a7 d5be
000000f0: a5b3 fdbc f4f8 8d3f 9a20 d5bc 1176 b3bd
00000100: f02f a0bd 1774 163d 71b1 98bd 93c4 0c3c
00000110: c9b7 c0bb f81d 54be dec8 ae3d 9e03 243d
00000120: f272 06be 893d c93c ca1c f4bd b50d 51bc
00000130: 4faf 1cbe 55cd ad3d 4fb4 463e bd69 8abc
00000140: cd1b ecbd 169a 8b3d 1dfb ebbc 2d85 fbbd
00000150: 0526 6bbe 7d2e 323d 3cc3 d43d 355b d93d
00000160: 29f9 8bbd 02df 4ebd 3ef9 26be 4c4c 93bc
00000170: ef15 cabd d6a6 bbbd 9bdd c8bd c310 04bd
00000180: c375 75bd 0967 c13c f1fc 86be 6c7f 88bd
00000190: 14fb fbbc 5b2c 093e 6d76 e93d 4d94 373e
000001a0: 1e8f b13c 3a45 9c3d 2d49 4d3e 9339 e4bc
000001b0: 0921 36bd e690 0d3d fabe 82bd 938e 0a3e
000001c0: 0a39 45be d70f 11be 4164 6e3b c78c 08be
000001d0: d6dd 013d 1f5f 613c fa56 12be e9a3 523d
000001e0: 863b 72bc 565f 8fbc b4f8 ca3d 6d46 d5bb
000001f0: 502b f8bd 5266 483e 7898 2fbe acfd 08be
00000200: 9005 333d 3999 a1bd b53e 1bbe f92e c6bd
00000210: 775a 4ebe 9b97 18bd 1c98 7f3e 820e 163d
00000220: 3161 9a3d aa6c 31be 4016 21be 6c10 24bb
00000230: 3c40 883d 9b01 97be 78cf 4cbc 70cc 0a3d
00000240: 4e55 a5bc 8c16 803d 8e2f 0abe 1b1c c0bd
00000250: a1ef 20be 2988 873c 3104 0ebe ea6d 0e3e
00000260: b000 bc3c 3b81 7b3e 51b0 8f3d 2570 d93d
00000270: c867 a83d 8ca2 dcbd f15a 63bb 357a e63d
00000280: 920e f4bd 550b a6bd 531f debd 09e8 233e
00000290: fb11 ba3a 1e5a f13d 2c52 873d 2da3 303e
000002a0: 0651 143d 7f5c 22bd f727 43bd 027a 38bc
000002b0: 013f 09be 5c9a 43be bf4b 0a3d 7052 3b3e
000002c0: 1df8 8abe 2812 62bd d34e bebd ad12 ec3c
000002d0: 9ab3 1abe c551 ae3d 1ada 54be 4408 ac3c
000002e0: 76c2 bcbd c5f2 c53d 3acc 0b3e 32d5 52be
000002f0: f20f 44be f1dd b53c 8ff9 b2bc a82f 5c3d
00000300: 005c 03bb 87b6 35be 8055 aebd 06d1 bc3d
00000310: 76c9 1a3e 74ee afbd 426b d1bc 8a74 2dbd
00000320: f957 6cbd 229a d13c 664f 293e fd2b 23bd
00000330: b569 aebd 9612 41bc 199c 163d e33d 2d3e
00000340: 5c6c 623c 320e 123e 4a67 f5bd 4206 dd3d
00000350: aea5 e33d 0c8b 36bd b4ad 833d 0b65 1fbe
00000360: 6c2d d7bd 34fd 893d 2780 babd f32a 0dbe
00000370: 28ba e73b 452a e93d b158 d8bd b97a 303e
00000380: 21c9 af3d f721 7abe 76df 13be 7ea3 1fbd
00000390: 0325 3f3e 4cbe 07be 41f0 8cbe 3bdb 113e
000003a0: 373b 983d 36dd d73d 49a0 c03d b656 c53b
000003b0: 23d2 8c3c 1bef 053e 8d2b df3d 2652 a6bd
000003c0: e243 a3bd de7d 90bb f8ba e1bd 23cb b8bd
000003d0: 0b4c 503e 2d28 ebbc 200e 563e b764 b23d
000003e0: 266a 913c 2c98 343d 3739 b23d eb39 f0bd
000003f0: 7044 533e b184 0e3c b579 823d 4993 633d

net.4.bias f4 [64]
-0.88620925 -0.11664614 -0.27694964 -0.3218002 -0.5916519 -0.24332601 -1.0873227 -0.33697543
-0.20610306 -0.94170433 -0.0737144 -0.22676699 0.09355177 -0.2417273 -0.11899404 -0.086868905
-0.18390566 -0.15779792 -0.27502835 -0.097318426 -0.07724924 -0.4986768 -0.23202424 -0.18330331
-0.14152458 -0.2734811 -0.21406128 -0.2530246 -0.6790134 -0.61958957 -0.34533948 -0.054011635
-0.000876453 -0.18462785 -0.40516284 -0.11929286 -0.910098 -1.0495307 -0.3997144 -0.24165682
-0.45059875 -0.14769079 -1.145113 -0.26406673 -0.07567406 -0.8213729 -0.118914224 -0.34061015
-0.19133762 -0.72787195 -0.3114428 -0.12777694 -0.20159867 -0.15668994 -0.5387365 -0.15388997
-0.09443421 -1.1202356 -0.6528613 -0.1839054 -0.40632653 -0.3711207 -0.15586613 -0.22357114
00000000: 9cde 62bf 2ce4 eebd 58cc 8dbe ffc2 a4be
00000010: 8076 17bf 742a 79be 642d 8bbf 0b88 acbe
00000020: ae0c 53be 8913 71bf 93f7 96bd 9b35 68be
00000030: 1298 bf3d 5d87 77be 26b3 f3bd 53e8 b1bd
00000040: c451 3cbe c795 21be 84d0 8cbe e24e c7bd
00000050: d934 9ebd 9152 ffbe c397 6dbe ddb3 3bbe
00000060: d2eb 10be b705 8cbe e132 5bbe 718c 81be
00000070: d2d3 2dbf 6c9d 1ebf 56d0 b0be 4e3b 5dbd
00000080: c4c1 65ba 150f 3dbe 8171 cfbe d14f f4bd
00000090: 2ffc 68bf 0657 86bf 5ea7 ccbe e374 77be
000000a0: e1b4 e6be 413c 17be 1093 92bf c133 87be
000000b0: 00fb 9abd 7f45 52bf 4d89 f3bd 7464 aebe
000000c0: 02ee 43be d155 3abf 6e75 9fbe f5d7 02be
000000d0: e26f 4ebe 5473 20be a3ea 09bf 5595 1dbe
000000e0: b966 c1bd e163 8fbf eb21 27bf b251 3cbe
000000f0: 080a d0be 8803 bebe 5f9b 1fbe d5ef 64be

net.6.weight f4 [2, 64]
-0.25229993 0.00752717 0.005913742 0.0026721496 0.08232641 0.00370037 -0.326077 -0.0050026868
0.018443147 -0.09402242 0.0009848481 -0.005521051 0.00606687 0.0021921068 -0.0067959856 -0.002990038
-0.006435563 0.0034194903 0.007384378 0.0016508577 0.0048342003 0.122573845 0.011076599 0.010111452
0.029886099 -0.004181306 0.0014427968 -0.00048117133 -0.052535426 0.11606652 0.065541215 -0.0039880252
0.012571686 0.006403862 -0.061363805 0.001047797 0.03218826 0.00805494 0.14061168 -0.0030115081
-0.10948982 0.0085625155 -0.2897783 -0.0002900524 0.0010260169 0.11356968 -0.0028605985 0.003726402
0.0053361435 -0.049066253 -0.003182862 0.00498896 -0.0023372173 -7.228104e-05 -0.18765049 0.013132729
-0.00792066 0.27283552 -0.04210943 -0.0017001071 -0.01088605 -0.0032441576 0.009356371 -0.004697319
0.005209066 0.0038543656 -0.0061764624 -0.0048660752 0.040185276 0.016288701 -0.114304274 0.009109903
0.0074224225 -0.19342798 -0.012347687 0.0040005622 0.1330177 0.0010228482 0.011053918 -0.00049742183
-0.014293967 -0.003447338 -0.0009271235 0.0018006328 -0.011539791 0.008580273 -0.0035948162 -0.007894364
0.013878023 -0.00019663048 -0.0048560854 0.013171965 -0.17640062 -0.11956388 0.14367618 0.002002265
0.0033550253 0.015696555 0.22133166 -0.0139893005 -0.071512185 -0.0828005 -0.08072626 -0.0082458835
0.052742295 -0.004307932 -0.06607858 -0.009689669 0.0012915989 -0.08763441 -0.00092096266 -0.0015537828
0.0015011202 0.06163378 0.0060776337 -0.0116489185 -0.012772213 0.011815889 0.06791353 -0.01270312
-0.0073730284 -0.024066966 0.047456913 -0.006330901 -0.0070398855 -0.019308692 -0.01413708 0.0051939185
00000000: 752d 81be 7aa6 f63b 10c8 c13b 3b1f 2f3b
00000010: c09a a83d e881 723b 91f3 a6be 94ed a3bb
00000020: 1516 973c d48e c0bd 0516 813a efe9 b4bb
00000030: 98cc c63b 73a9 0f3b dcb0 debb 83f4 43bb
00000040: 6ae1 d2bb 8719 603b a7f8 f13b 9861 d83a
00000050: 3668 9e3b ff07 fb3d a07a 353c 81aa 253c
00000060: b1d3 f43c 5603 89bb 3a1c bd3a b945 fcb9
00000070: 632f 57bd 49b4 ed3d 793a 863d fbad 82bb
00000080: 79f9 4d3c 7dd7 d13b 9d58 7bbd 3c56 893a
00000090: d6d7 033d def8 033c 82fc 0f3e b95c 45bb
000000a0: 333c e0bd cb49 0c3c d25d 94be 2d12 98b9
000000b0: 6a7b 863a 3897 e83d e178 3bbb a736 743b
000000c0: d1da ae3b b2f9 48bd 9097 50bb 6e7a a33b
000000d0: 002c 19bb 9695 97b8 7327 40be a82a 573c
000000e0: a8c5 01bc 19b1 8b3e f07a 2cbd 21d6 deba
000000f0: 675b 32bc ef9b 54bb 774b 193c f8eb 99bb
00000100: d0b0 aa3b 8699 7c3b ec63 cabb 9973 9fbb
00000110: 5199 243d e26f 853c 5c18 eabd b441 153c
00000120: cb37 f33b fc11 46be f44d 4abc 2617 833b
00000130: cb35 083e 1711 863a 7e1b 353c 6a65 02ba
00000140: 3e31 6abc bcec 61bb 340a 73ba 3603 ec3a
00000150: 6411 3dbc 4694 0c3c 0297 6bbb 5d57 01bc
00000160: a660 633c 982e 4eb9 cc1f 9fbb 3acf 573c
00000170: 5da2 34be e8dd f4bd d91f 133e 6f38 033b
00000180: fcdf 5b3b 1096 803c c4a4 623e 6133 65bc
00000190: fb74 92bd 4f93 a9bd cf53 a5bd be19 07bc
000001a0: 4e08 583d 8e29 8dbb 3554 87bd 6bc1 1ebc
000001b0: de4a a93a ab79 b3bd c26c 71ba 4da8 cbba
000001c0: 3cc1 c43a b473 7c3d e326 c73b 1bdb 3ebc
000001d0: 8b42 51bc 6e97 413c 4016 8b3d bf20 50bc
000001e0: 7299 f1bb 1628 c5bc 2e62 423d 7273 cfbb
000001f0: d7ae e6bb 432d 9ebc 369f 67bc bf31 aa3b

net.6.bias f4 [2]
-0.14477162 0.025870707
00000000: 033f 14be ceee d33c
