checkpoints/checkpoint_8000.pt (torch, 38432 bytes, 8 tensors)

net.0.weight f4 [64, 3]
000000 8e 86 e1 3c 92 33 09 3c e8 7d 7d bc 6a 59 4c 3f
       0.027529981 0.008374112 -0.015471913 0.79823935
000010 6e 5b 29 be d6 c1 89 3d 00 37 b7 bd 30 41 7d bd
       -0.16538784 0.067264244 -0.08946037 -0.061829746
000020 3a 2d d9 bc 4b 59 c7 3d 36 7b a2 bc d6 24 43 3c
       -0.026510824 0.09733828 -0.019834142 0.011910638
000030 ae b4 88 bd 7d 8b a3 3e f4 71 10 3e b6 7e ff be
       -0.06675087 0.3194236 0.1410597 -0.4990136
000040 ad 3d ba bf 1d 1b 0a 3f ff da 76 be 7e 40 2c 3c
       -1.4550072 0.5394762 -0.24106978 0.010513423
000050 b9 72 99 bc f0 cd ad 3f c1 10 87 bf a2 cb 13 bf
       -0.018731462 1.3578472 -1.0551988 -0.57732594
000060 12 9e b0 bb f6 73 1d 3b 74 e8 be 3c ad ab c4 3b
       -0.005389937 0.0024025417 0.023304202 0.0060019107
000070 ec 26 ec 3b 48 40 aa 3c 0c 1f e8 3c 86 52 73 3c
       0.0072067883 0.020782605 0.028335117 0.014851218
000080 b4 e0 06 bc 93 d8 40 3f b3 f1 1f bd 08 4b 84 3c
       -0.008232284 0.75330466 -0.03904886 0.016149059
000090 c2 e0 30 3f 02 54 f8 3b 18 54 22 3e 57 f5 74 3f
       0.69092953 0.007578374 0.15852392 0.9568686
0000a0 ba 94 73 bc 43 a5 8b 3e ce e3 51 bf 17 68 77 3f
       -0.014867002 0.27274522 -0.8198823 0.96643203
0000b0 64 31 2e 3d 75 90 4d 3f 6d 0a e6 3d 2a ec 3c 3f
       0.04252757 0.8029855 0.11232457 0.7379786
0000c0 dc 50 01 bf e7 9c 12 3c 4d 79 fe bc dd 4b cd 3e
       -0.50514007 0.008948541 -0.0310637 0.40096942
0000d0 88 b5 73 3f 0b a1 78 3f fa 69 51 bf 35 d8 a3 3e
       0.9519887 0.9712073 -0.8180233 0.3200089
0000e0 48 5d a1 3f 46 cd 1a bc 11 dc 3e bc db e6 93 3c
       1.2606592 -0.009448355 -0.011649148 0.018054416
0000f0 de 6c ba bf ae 3a 37 3e f6 d1 9c 3f dc 64 b5 3d
       -1.4564474 0.17893478 1.2251575 0.08857128
000100 b8 b8 fe 3c f2 d7 f4 3a c1 9d 30 be 25 45 54 3f
       0.03109394 0.0018680079 -0.17247678 0.82918006
000110 45 00 db bd 3e 0e ef bc 94 f2 0b bd 00 ec 77 b7
       -0.10693411 -0.029181596 -0.034166887 -1.4777295e-05
000120 bd 8b 8a 3e 64 15 1c bc 56 2f 3f bc 80 65 70 bf
       0.27059737 -0.009526584 -0.011669001 -0.93904877
000130 5b ce 5b 3f 2d 81 50 bf b5 ef 29 3c b0 97 f7 3c
       0.8586175 -0.81447107 0.010372092 0.030223697
000140 04 e2 cf 3c 8c e4 39 3f 39 d8 20 3d 90 e2 42 3c
       0.025376327 0.7261436 0.039268706 0.011894837
000150 63 df 7f bf 0a a5 ce bf 5d e8 92 3f 24 e3 90 bf
       -0.99950236 -1.6144116 1.1477162 -1.1319318
000160 ec 31 88 3d aa 19 aa bc d8 7f 27 3f ba 3b 2f bf
       0.06650147 -0.02076419 0.6542945 -0.6845051
000170 7b ce ab 3e 9a 00 85 bf a1 36 45 3f 5a 32 37 bf
       0.3355597 -1.0390809 0.7703648 -0.71561205
000180 7d 54 3c 3e 51 ac 12 3b cd 60 e7 bc e2 7c c8 bc
       0.18391605 0.002238054 -0.0282444 -0.024473611
000190 f4 35 39 bb d2 5f b2 3c 49 ac 95 3f 67 2b 07 bf
       -0.0028260918 0.021774206 1.1693202 -0.528006
0001a0 4f 8a 09 bf 91 15 48 3f 06 2c 9a 3d 85 de db bd
       -0.5372667 0.7815791 0.07527928 -0.107358016
0001b0 75 df 1c be 6f 69 72 be 13 ad 47 bd db 64 ba 3f
       -0.15319617 -0.23673032 -0.04874904 1.4562029
0001c0 b3 d2 e9 bd 0f bd 35 bf a6 0b 31 3f eb 66 c7 3e
       -0.11417141 -0.70991606 0.691584 0.38945708
0001d0 05 88 80 3e 56 b1 dc be f4 e9 11 bf 99 93 89 bf
       0.25103775 -0.43104047 -0.5699761 -1.0748168
0001e0 74 f8 e9 bc 91 13 4b bd 9c 98 a3 bc 9b d7 8e bd
       -0.028560854 -0.049579207 -0.01997023 -0.06974717
0001f0 18 7d 49 3b a7 90 58 3c a0 b2 47 3e 60 63 b2 bc
       0.0030744728 0.013218082 0.19501734 -0.021775901
000200 e8 51 e4 bb fd 69 62 bf ce 59 b4 bc 06 6a d2 bc
       -0.006967772 -0.88442975 -0.022015478 -0.025685322
000210 0d db 72 bd 48 a2 96 3c 80 21 84 3b d0 4d 19 3e
       -0.059290934 0.018387929 0.004032314 0.1497109
000220 eb 92 fd be 37 f9 6c bf 50 18 0c 3f 4d a1 9c 3d
       -0.49526152 -0.9256777 0.547246 0.07647953
000230 74 d9 b4 3c f9 41 ad bf e3 bb 4b 3f b0 74 dc 3f
       0.022076346 -1.3535758 0.7958357 1.722311
000240 bc db ac 3e 6d 65 72 bd da 76 32 3d 1c 72 38 3f
       0.33761394 -0.05917876 0.043570377 0.7204912
000250 0e f6 9c be ce 18 85 3c 16 73 c6 be 20 06 b0 3e
       -0.30656475 0.01624718 -0.3875968 0.34379673
000260 64 9e 93 bf 52 9f f0 3e 7f 8b f3 be 00 8d ad 3e
       -1.1532712 0.46996552 -0.47567365 0.33896637
000270 da 0a 9a bd 3a 3b 9c 3c 25 f2 24 3c aa 47 f0 3c
       -0.07521601 0.01907121 0.010067497 0.029331047
000280 52 3a 0e bc 30 98 c8 ba 3d 76 4c 3b 06 b6 51 3e
       -0.008680897 -0.0015304144 0.0031198405 0.20479593
000290 49 2d 9b bf c7 c6 91 3f b4 aa 43 be 77 94 85 3f
       -1.2123195 1.1388787 -0.19108087 1.0435933
0002a0 d4 9a 80 bf e3 ee 89 3d c3 5f 2c bd 6f cd 22 3f
       -1.004725 0.06735017 -0.042083513 0.63594717
0002b0 b6 33 a1 bc 4a b5 91 3c 95 ae 29 bf 92 46 3e 3f
       -0.019677978 0.01778664 -0.66282016 0.7432643
0002c0 da 28 ac bd 43 fb 25 3f 29 b6 36 bf 1a 42 03 3f
       -0.08406229 0.6483652 -0.71371704 0.5127274
0002d0 24 31 3d 3f 43 48 f2 ba e5 ab 90 bd bc 1f 7f be
       0.7390311 -0.001848467 -0.07064036 -0.2491445
0002e0 93 3b 28 c0 89 c1 53 3e 24 a0 76 3f af a5 a2 3e
       -2.6286361 0.20679297 0.96338105 0.31767032
0002f0 b7 d3 91 3f e2 b5 7d 3e ee d3 f9 be 0e 93 21 bf
       1.1392735 0.24776414 -0.48794502 -0.6311501

net.0.bias f4 [64]
000000 f4 99 b8 3b 23 9f 16 bf 92 d3 2b bd 5d 82 8f bd
       0.005633587 -0.58836573 -0.041949816 -0.07007287
000010 3d d8 8a be 5d 8e 5f be 47 91 2f 3e 62 37 3d bf
       -0.27118102 -0.21831651 0.17145263 -0.7391263
000020 ec 42 d5 bc 2a 84 9e bc e1 75 31 3c 95 57 1a bf
       -0.026032887 -0.01935013 0.010831327 -0.6028989
000030 69 07 20 bf e0 f4 62 bf 0c ca f0 be ad fa 46 bf
       -0.62511307 -0.886549 -0.4702915 -0.7772625
000040 f0 5c cf 3e fa 95 61 bf ce 42 a0 3b 23 99 91 bc
       0.40500593 -0.8811947 0.0048907762 -0.017773217
000050 16 a4 2a 3f 40 90 bd bd 0b f3 42 bf f9 aa 30 bd
       0.66656625 -0.09256029 -0.76152104 -0.043131802
000060 a8 ea 3c be 87 66 0f be 36 e5 52 bb 86 85 21 bf
       -0.1844889 -0.14003955 -0.0032180077 -0.63094366
000070 83 0e 3a 3d 40 a3 69 3f 1e 4d cc 3c c2 10 68 3f
       0.045423996 0.91264725 0.024939116 0.9065057
000080 ea 03 f3 bd 17 7b c9 bc c2 a6 43 bf af 53 2c bf
       -0.11865981 -0.024594827 -0.7642633 -0.6731519
000090 17 1c fa 3d 9f df 66 bf f3 c2 75 bf 92 b3 ac 3e
       0.12212389 -0.9018497 -0.96000594 0.3373075
0000a0 4b 37 43 bd fe bb 49 3d a6 9c 16 be 90 89 39 3f
       -0.047660153 0.04925155 -0.14708194 0.7247553
0000b0 14 d3 5c 3d b7 7d 8f bd f9 81 07 bf f0 ee a7 bd
       0.053912237 -0.070064 -0.529327 -0.081998706
0000c0 60 5b 81 be 1c 99 e3 be 13 9f 9f be e6 3a 9b bd
       -0.25265026 -0.4445275 -0.31176051 -0.07579593
0000d0 13 28 94 3d 42 03 e7 bc 7c 89 ff be be 1e 41 bf
       0.07234206 -0.028199796 -0.4990958 -0.75437534
0000e0 d4 86 4f 3f 16 a0 06 bf 25 c0 76 be ad ab d1 3c
       0.81065106 -0.5258802 -0.24096735 0.025594557
0000f0 a7 5b 19 bf e3 04 33 bf 60 3f 74 bf 0d f3 81 3e
       -0.59905475 -0.6992933 -0.954092 0.25380746

net.2.weight f4 [64, 64]
000000 0c ce c0 3d af 95 01 be 66 e6 a8 3d af 2d fd bd
       0.094143 -0.12654756 0.0824707 -0.12362229
000010 7c f6 86 3d 49 e4 ef 3d 5a 1e 11 3d 78 4f 08 be
       0.06589982 0.11713464 0.035429336 -0.13311565
000020 50 a9 8c bd 67 9f 5e be 3a 0a 21 be fc 37 8b bd
       -0.06868231 -0.21740495 -0.15726557 -0.067977875
000030 2d 3a 9c 3c de e5 7d 3c 35 87 4d 3c 34 fd 9c bd
       0.01907071 0.015496699 0.012544443 -0.07665482
000040 9c d0 bf ba 99 fa 94 3d 86 a3 9b bc 20 c7 c8 3d
       -0.0014634314 0.0727436 -0.018998872 0.09803605
000050 fd 71 82 bd bc 7e b6 ba 51 fd e5 3d b2 a1 5c bd
       -0.06369398 -0.0013923268 0.11229957 -0.053865142
000060 2a e4 96 3d 74 63 90 3d ac 3a 84 be 42 91 8a 3d
       0.073677376 0.07050219 -0.25826013 0.06765987
000070 5d d6 bb bc a6 59 ba bc b9 c8 c0 bd 4b cd e7 bd
       -0.022929365 -0.022747826 -0.09413285 -0.113184534
000080 13 7a 58 3e 55 4c a4 bc a4 18 33 bd e2 cf 64 3d
       0.21140318 -0.02005593 -0.04372467 0.055862315
000090 32 cb b3 bd fc 16 38 bd 11 09 e5 bc 7a b7 a0 3c
       -0.08778991 -0.044943795 -0.027958425 0.019618738
0000a0 d7 72 51 be 32 6a 2c bd d9 fd ea 3a e2 d2 94 bc
       -0.20453964 -0.042093463 0.0017928436 -0.018166963
0000b0 6c ef 2e be d7 49 28 3c c6 16 33 3d cf 5c 48 bd
       -0.1708352 0.010271511 0.04372289 -0.048916634
0000c0 8e 4a b0 3d d6 78 dd bc c1 28 94 bd 58 38 9b 3d
       0.0860797 -0.027035158 -0.07234336 0.07579106
0000d0 51 ed 99 bd e9 7e c8 bc 98 d8 f1 bd 7b 71 fa 3d
       -0.07515968 -0.024474578 -0.1180889 0.12228676
0000e0 98 ea 15 3d c4 a3 80 3e 55 9d 82 bd 4a b2 ca 3d
       0.03660068 0.25124943 -0.06377665 0.09897287
0000f0 f2 16 18 3d ed 80 d8 bd 7d ef 70 bd 29 f4 48 3d
       0.037131257 -0.10571466 -0.058822144 0.049060974
000100 ce e7 ac bd 8b 67 67 bf bf c5 4b 3d 65 83 91 3d
       -0.08442651 -0.9039237 0.049749132 0.0710514
000110 ee 4b 53 3f 94 5d 63 3e 41 78 02 bd 40 8d 01 bf
       0.82537735 0.22203666 -0.031852964 -0.50606155
000120 9e 98 83 3e 93 14 80 3d 6c 84 db bb 47 99 bf bc
       0.25702375 0.06253924 -0.0066991355 -0.023388518
000130 b3 69 26 3d b0 5f 36 bd 84 91 11 40 48 a2 5e be
       0.040628146 -0.04452485 2.2745066 -0.21741593
000140 75 29 d5 bd 61 1e 3d 3f ea 0e dc 3e 18 2a 10 3e
       -0.10408298 0.7387448 0.4298013 0.14078557
000150 b8 1e 38 bd 9b ff 2d 3e 7b 8d f6 3f 2b 8d 98 3e
       -0.04495117 0.16992037 1.9261926 0.29795203
000160 4d 33 e7 bc f5 ad af 3f 83 80 2f 3e d1 99 52 3e
       -0.028222704 1.3724962 0.17138867 0.20566489
000170 84 6f d6 bd 9a 02 46 be 0d 99 07 c0 61 1b bb 3e
       -0.10470489 -0.1933693 -2.1187165 0.36544326
000180 3e 85 ac 3d 13 97 e7 3d 9c 1b 8e be 96 60 96 3e
       0.084238514 0.11308112 -0.2775544 0.29370564
000190 e9 c5 84 3d d3 0f bd be 3a 6a 55 3f e6 fb a9 3c
       0.06483061 -0.36926135 0.83365214 0.020749997
0001a0 43 12 1d 3e 9b 8f 4a 3b 51 9e 0a 3d a4 a3 88 be
       0.15338998 0.003090835 0.03384239 -0.26687348
0001b0 ec e0 a9 bd 37 d7 9d bd 6c 40 b8 3e 00 4b a8 3f
       -0.082948536 -0.077070646 0.3598665 1.3147888
0001c0 db 7d 9f be f3 ae 9d bf ad f5 33 3f 4e 6a c8 bf
       -0.31150708 -1.2319015 0.70296746 -1.5657442
0001d0 e5 61 89 bd 2b d0 d9 3d 25 8c 41 3f ed e6 a5 bf
       -0.06708125 0.10635408 0.7560447 -1.2961098
0001e0 60 d0 84 bc e4 75 a2 39 6b 8c e8 3f 71 3c 10 c0
       -0.016212642 0.00030986883 1.8167852 -2.253689
0001f0 aa cd 13 3e e7 2e 7c 3e 75 b0 e7 3d 30 8d 86 bf
       0.14433923 0.24627267 0.113129534 -1.0511837
000200 85 b8 0d bc 3f 98 21 bd 2f 35 3f 3d cc 07 1d 3e
       -0.00864995 -0.039451834 0.04668158 0.15335006
000210 b4 28 4c bd a9 4a 3d bd 36 66 c5 3c 2a 76 f0 3d
       -0.049843505 -0.04621378 0.02409659 0.11741288
000220 10 01 be 3d 4f a4 07 bd d2 fc 69 bd 0c ff a1 bd
       0.092775464 -0.03311568 -0.057125874 -0.079099745
000230 01 3e 86 3d 37 b9 2b 3c 14 83 21 bd f0 f8 e2 3d
       0.06554795 0.01048117 -0.039431646 0.11082637
000240 b6 b8 ac 3c 30 6a a1 3d 9f 4a ee 3d 17 b3 28 3d
       0.02108417 0.07881582 0.116353266 0.04118642
000250 67 e1 14 3d fa f2 2c 3d ef db 35 3e 76 d1 5c 3e
       0.036347773 0.042223908 0.1775968 0.21564278
000260 e9 08 0f be 18 a4 e2 39 0a 4a 8f 3d 41 57 91 bc
       -0.13968243 0.00043228338 0.06996544 -0.017741801
000270 88 b2 a4 39 d6 35 b7 3c b5 d9 8b bc a3 cf da 3d
       0.00031413534 0.022364538 -0.017071584 0.10684135
000280 9b a0 84 bd c2 34 80 3d e1 96 93 bd 36 27 df bc
       -0.064759456 0.06260063 -0.07206512 -0.027240377
000290 fb 39 2a 3d 64 73 a3 bc 91 5f b3 3d 51 bc a3 3d
       0.0415592 -0.019952483 0.08758462 0.07994903
0002a0 19 19 c6 bb 8c 27 9d bd d0 1c fe 3c 85 bd a9 bd
       -0.0060454723 -0.076735586 0.031019598 -0.08288101
0002b0 df 3d 19 bb c9 39 c2 3c 1d da 5c bd b0 99 83 3c
       -0.0023382825 0.023709195 -0.053918947 0.016064495
0002c0 4b 69 a4 3d bc 21 a5 3d c0 a3 f3 bc d9 d3 ad 3d
       0.080278955 0.08063075 -0.029741168 0.08487672
0002d0 3e 84 a8 3b 4f 56 8f 3d 42 ce 15 bd ec 8f 09 3d
       0.0051427176 0.06998884 -0.036573656 0.03358452
0002e0 b0 e8 0f be 23 ef cf 3d af 34 03 3d 0f a4 c1 bd
       -0.14053607 0.101530336 0.032032665 -0.0945512
0002f0 7b cd a6 3c 52 f8 5e 3d d9 1b e6 3c 75 87 07 be
       0.020361653 0.054436035 0.02808945 -0.13235267
000300 79 8e 8a be 5c d2 80 3d 4f d4 05 be 5b 5b 12 3d
       -0.27061823 0.06290123 -0.1306927 0.035731655
000310 1a 3c 9f bd 2c 2c 03 3e a4 ca 08 bd cc f9 0e 3d
       -0.07775135 0.12809819 -0.03339638 0.034906194
000320 5c 3d 39 3c b1 ca 2e 3e 41 d8 0c be 42 39 52 3e
       0.011306133 0.17069508 -0.1375437 0.20529655
000330 ea cb 93 3d d8 11 1a 3d fe 8d 80 b9 18 8f 01 bd
       0.07216628 0.037614673 -0.00024519855 -0.031630605
000340 cd 37 da bd 52 cc 29 bc d5 98 17 bd b6 61 37 3d
       -0.106551744 -0.010363655 -0.037010986 0.04477092
000350 44 0a 0c be 76 56 ae 3b b4 c1 12 3e 1a 18 21 be
       -0.13675791 0.0053203655 0.14331704 -0.1573185
000360 fa 26 3b 3c 92 35 16 bc d3 85 2e 3e 02 c5 e3 bc
       0.011422867 -0.009168046 0.17043237 -0.027803902
000370 be 6f 15 be 4a 99 b4 bd 51 6d 80 bd 17 a6 9e bd
       -0.14593408 -0.088183 -0.062708504 -0.07746523
000380 94 ce a7 bb 82 68 4e 3e 06 8c 01 3e b4 55 44 3c
       -0.0051210616 0.20157054 0.12651071 0.011983324
000390 65 7e 06 be a5 f1 e9 bd 0d 1b 01 be 88 0b e7 bd
       -0.13134153 -0.11423043 -0.12607975 -0.11281496
0003a0 8f 88 65 be 67 11 83 3d 86 ac d9 3d 82 ea fe 3c
       -0.22415374 0.063998036 0.10628609 0.031117681
0003b0 d8 ba 17 3d 47 ea c4 bd 48 64 93 bc 5c a1 07 3e
       0.037043422 -0.09614997 -0.017992154 0.13245147
0003c0 34 15 5f 3d d1 38 c8 bc 7a ed 79 3c 0e 26 04 be
       0.05446358 -0.024441155 0.015254373 -0.12905142
0003d0 c6 62 00 bc 1a 06 71 3d 24 37 06 bd ff 69 ce bd
       -0.007836049 0.05884371 -0.03276743 -0.10078811
0003e0 31 47 23 3b 03 d9 8f bc 0a 9e 0a bc 8d 92 e2 3c
       0.002491426 -0.017559534 -0.008460531 0.027657771
0003f0 2a 02 b6 3d e9 86 8d 3d e7 82 c3 bd a8 f9 40 bd
       0.088871315 0.06910498 -0.09546452 -0.04711309

net.2.bias f4 [64]
000000 2d c3 e1 bd 84 2d 1d bf e5 cd d0 bd 7d 4b 14 be
       -0.11023555 -0.61397576 -0.10195521 -0.14481921
000010 c8 64 1c be 3b 7d 2d bf 75 6b 77 bd 16 2c 25 bf
       -0.1527282 -0.6776921 -0.060405213 -0.64520395
000020 66 bf f4 3e 01 f4 81 3d 0c b6 14 be 20 91 91 bf
       0.47802275 0.06345368 -0.1452257 -1.1372414
000030 a2 8f 44 bf 14 5e 86 bf 33 1d a5 bd 0e 3a 92 bf
       -0.76781666 -1.049746 -0.0806221 -1.1423967
000040 ed 10 4a be c5 e6 7e bc c1 60 ef 3e 52 74 2e be
       -0.19733019 -0.015557949 0.46753505 -0.1703656
000050 70 88 27 be f3 a2 60 bf ab df 1a 3e d1 c5 10 be
       -0.1636064 -0.8774864 0.15124385 -0.14137961
000060 5b 09 90 bd 3c e4 77 bd 35 64 84 bd c2 92 b0 bc
       -0.070330344 -0.060520396 -0.064644255 -0.021554355
000070 b4 e4 eb be 51 98 3a 3d a3 4a 27 bf 4d b8 c0 be
       -0.46072924 0.045555416 -0.6534826 -0.3764061
000080 92 8b ba bc d4 80 68 3e 30 d9 39 bf 0f d5 ed bd
       -0.02277163 0.22705394 -0.72597027 -0.11612903
000090 85 59 15 bd bf 02 12 3e f5 fe 83 bd a5 ad 8a bf
       -0.036462326 0.1425886 -0.064451136 -1.0834242
0000a0 5f d6 00 be a9 b0 0d bb 68 13 ec bd 09 4e d3 bd
       -0.12581776 -0.002162019 -0.11527139 -0.103176184
0000b0 3c d5 5e 3c 07 bd 22 be e4 fd df bd c2 e4 4c 3d
       0.013600644 -0.1589242 -0.10937098 0.050022848
0000c0 f1 07 82 3d e1 28 3e 3d 52 bb 0c be be a2 18 bd
       0.06349171 0.046425704 -0.13743332 -0.037264578
0000d0 7a 8f 72 bd 67 a4 4d be b5 49 04 bf 1a 84 23 3d
       -0.05921886 -0.20082246 -0.5167497 0.039920904
0000e0 df 25 8c 3c dc c7 64 3d 08 b0 13 bf 5a 35 dd be
       0.017107902 0.055854663 -0.5769048 -0.43204767
0000f0 7b 6f a1 bd c6 db 77 bf ec 89 c6 be 00 48 34 be
       -0.07882591 -0.9681972 -0.387771 -0.17605591

net.4.weight f4 [64, 64]
000000 9f 82 25 3d 52 02 3f 3d 09 af 15 bc 10 19 57 bd
       0.040407773 0.046633072 -0.00913597 -0.052514136
000010 99 83 4c bd 16 67 1f bf 63 ca 9b bd ec d0 c2 bf
       -0.04993019 -0.6226667 -0.076069616 -1.5220008
000020 5f c2 91 be c0 cb 0c bc a9 63 e7 bc f7 6b 45 3f
       -0.28468606 -0.0085935 -0.028245764 0.77117866
000030 55 f5 b4 3d 3d 83 35 3e af b5 d8 3b 3a 17 33 3f
       0.08835856 0.17725845 0.0066134552 0.69957316
000040 ba 49 11 bc 8f 20 09 3c d8 6f a4 bf 41 2e 9d bd
       -0.008867675 0.008369579 -1.2846632 -0.07674838
000050 7a b2 d3 3c 8b 94 bc 3e 4b 66 c1 bc fe 0b 00 bc
       0.02584194 0.3683208 -0.023608347 -0.007815359
000060 ca be a1 3c cc 04 04 3d 88 0a 4e bd 1d fe 2c bd
       0.019744296 0.032231137 -0.050303012 -0.04223453
000070 5e 96 9a be fd b6 81 bc d4 2a 40 3f c3 b3 a0 3e
       -0.30192846 -0.015834326 0.7506535 0.31387147
000080 a2 52 25 3d 20 1d f8 be c2 85 cb 3c 3a ad c7 3b
       0.040362008 -0.4845972 0.024844054 0.0060936483
000090 6f ff fc bc d2 c2 e7 bb 8d a7 de bd 1f da 29 3f
       -0.030883519 -0.007072785 -0.108718015 0.6634845
0000a0 b3 7c 87 bf a8 22 18 3d d3 ae 27 bd 27 a0 51 bd
       -1.058493 0.037142426 -0.04093821 -0.051178124
0000b0 35 06 14 3d d7 0a 95 3b ef 73 de 39 02 3e 81 bd
       0.036138732 0.0045484114 0.00042429517 -0.06310655
0000c0 40 e3 24 bd c5 de 85 3c aa 25 68 c0 fd 0e a7 3c
       -0.040255785 0.016341576 -3.6272988 0.02039289
0000d0 50 c6 5d bd af 05 a7 be 86 99 c5 3d 12 63 13 3d
       -0.054144204 -0.32621524 0.09648423 0.035983153
0000e0 39 48 33 3d 15 82 04 3c f5 ba 27 3f 53 fa 8f be
       0.04377005 0.008087655 0.6551965 -0.2812067
0000f0 2f 4d 8a 3b 9a fd 90 3f 23 42 f9 3c e0 ee 74 bd
       0.004220627 1.1327393 0.030427044 -0.05979812
000100 d4 dd 7c bd 27 06 f3 3c b2 d0 21 3e fd 44 6b 3e
       -0.06173499 0.02966602 0.15802267 0.22975536
000110 02 0b 4e 3e 73 f6 b0 be 0d 98 87 bd 52 68 c6 bd
       0.20121387 -0.34563026 -0.06620798 -0.09687866
000120 c6 84 f1 bd 1b d2 33 3e 84 8e 3e 3d 8e 40 47 bc
       -0.11792903 0.17560618 0.046522632 -0.012161387
000130 88 d5 8b bd 43 d7 c2 3d 52 fc 2c 3e 99 34 b5 bc
       -0.06827837 0.09513714 0.16893128 -0.022119807
000140 a4 b4 e8 bd 6a 3d 07 bc 4e 8c f6 bd 03 a4 10 3a
       -0.113625795 -0.008254388 -0.1203848 0.0005517604
000150 fd 0b c2 3c d0 fa b9 bd 1b 2d aa 3e c5 cc 82 be
       0.023687357 -0.09081042 0.33237538 -0.25546852
000160 1b 5b 88 bd e4 a3 f2 3d dd 7d ef 3c d3 97 c2 bd
       -0.06658002 0.11847666 0.029234821 -0.095016144
000170 2e 42 06 bd 29 f2 53 3e 5e 30 c8 3c 9c 9f c2 bd
       -0.032777958 0.20697846 0.024437126 -0.09503099
000180 18 3c 05 be c4 63 9d bd b1 37 8b be b7 26 ae 3c
       -0.13011205 -0.076850444 -0.27190927 0.021258695
000190 0f f4 a5 bd 5e c7 1c 3e 49 37 fd bd 83 23 34 3e
       -0.08103191 0.15310428 -0.123640604 0.17591672
0001a0 4b d1 41 3d f8 a9 f9 bd 5e 2c ed 3d ef 85 61 3d
       0.047318738 -0.12190622 0.11580728 0.05505937
0001b0 a4 58 74 3d 64 09 b1 3d 0d c3 e2 3d 1d 15 10 3e
       0.059654847 0.08644369 0.11072359 0.14070554
0001c0 b6 b1 70 be 3f 1e ea 3d 66 51 df bd 1f c5 0d be
       -0.23505291 0.1143155 -0.109041974 -0.13844727
0001d0 12 f4 00 3e 6d b1 e4 bc a4 16 a5 3d f4 69 bf 3d
       0.12593105 -0.027916634 0.08060959 0.09346381
0001e0 95 35 38 3e 20 d2 86 bd 5d d5 d7 3d cf 8e 11 be
       0.1798919 -0.06583047 0.10538743 -0.14214633
0001f0 a5 31 33 bd 3a 23 48 3e 8f ef 33 3c 51 ed 0b bc
       -0.043748517 0.19544688 0.010982408 -0.008540467
000200 89 a4 1e bc cd 0e 9f bd 2d c9 b8 bd b7 91 ce 3d
       -0.009682783 -0.07766495 -0.09022746 0.10086387
000210 29 25 88 bb 67 33 66 3d 26 eb be bd 51 98 10 be
       -0.0041548205 0.056201365 -0.09322195 -0.14120604
000220 1a 7c 96 3d 08 4f 6a bd b1 86 0a bd fd 70 bb bc
       0.07347889 -0.057204276 -0.033819858 -0.022881025
000230 b9 d0 a3 bc 92 8e 86 be ff fd 62 be 1a 7f bd 3d
       -0.019996988 -0.26280648 -0.22167204 0.09252758
000240 53 de 2a 3e a4 2b df bd 3b f3 d8 bd be 8f b0 bd
       0.16686372 -0.10896996 -0.105932675 -0.08621167
000250 e4 e0 4b bd ff 7d 81 3d 82 67 a8 bd 2b ec bb 3c
       -0.04977502 0.0632286 -0.082228675 0.022939762
000260 fd 8d b7 bd 08 7c 75 3d 79 cf 39 bc 28 aa 0c bd
       -0.08962629 0.05993274 -0.011340969 -0.03434196
000270 1e 52 9f bd 82 01 0c be 90 08 e3 bc 95 56 52 3e
       -0.077793345 -0.1367245 -0.027714044 0.20540841
000280 0c 62 9f bb 74 5d 9d bc 3e 78 1d be 49 d8 78 3d
       -0.004863983 -0.019209601 -0.153779 0.06075314
000290 35 74 46 be a9 2e 3c 3c 3b ff 1b be 82 d5 18 3e
       -0.19380267 0.011485734 -0.15234081 0.14925197
0002a0 5c 17 f8 bd 9d 52 8a 3d 86 5d 01 3e 09 b6 6d bb
       -0.121138304 0.067540385 0.12633333 -0.0036271831
0002b0 b0 b1 30 be 94 cf 1c bd 7f 54 10 3e 94 89 94 3c
       -0.17255282 -0.0382839 0.14094733 0.018132009
0002c0 0e 24 01 bd 77 d6 84 bb 60 9f 99 bd 6c 26 1a 3d
       -0.031528525 -0.0040538865 -0.075011015 0.0376343
0002d0 a1 59 ed 3b 14 55 e6 3c 8c 6a 9f bd 58 8e c8 3d
       0.0072433506 0.02811674 -0.07783994 0.09792775
0002e0 fc 05 56 3c a8 1a b7 bc b9 c0 04 3e ef bd 42 be
       0.01306295 -0.022351578 0.12964143 -0.19017766
0002f0 47 0a 0f 3e 3d af a5 3c db af 2a 3e 2d ca 74 bd
       0.13968764 0.020225162 0.16668646 -0.059763122
000300 ae 50 c6 3d a1 00 64 be a6 87 9c bd 25 c6 0c 3c
       0.09683357 -0.22265865 -0.076430604 0.008592163
000310 16 24 97 3d ce fe dd 3c b7 db 6c be 33 7d 41 bd
       0.0737993 0.02709904 -0.2313069 -0.04723854
000320 4f c3 ce bc f7 69 63 3e d9 8c 1a bd a2 50 90 3d
       -0.025239615 0.22208391 -0.03773198 0.070466295
000330 f9 0c f6 bd 35 ae ea bd f5 9b 22 bb 46 9b 0c 3e
       -0.12014193 -0.114590086 -0.0024812196 0.13731107
000340 83 e8 0a bc ac 4b 7f 3c 21 37 97 bd cc 66 bf bd
       -0.008478287 0.015582006 -0.07383562 -0.09345779
000350 5c fc 15 bd 70 7c 86 be a1 a4 05 3e a2 34 62 bd
       -0.03661762 -0.26266813 0.13051082 -0.055225976
000360 ff 1c a2 3d 82 82 1d be 8c 58 7c bd f4 75 1e be
       0.07915687 -0.15381816 -0.061607882 -0.15474683
000370 c8 a3 a2 bb 1d f4 7f bc 88 1c 17 be bc 0e 14 3e
       -0.004963372 -0.015622166 -0.14756978 0.14458746
000380 17 7f 17 3d 86 d7 2e be bd 06 6b bd bc 73 35 be
       0.036986437 -0.17074403 -0.057379473 -0.1771993
000390 77 6f fe bc 87 f4 36 bc 1d 48 f7 bd eb a2 7e 3d
       -0.03105901 -0.011166698 -0.120743014 0.06216709
0003a0 f2 21 4a be 54 c8 b1 3d 51 29 90 bd 9d 60 3c be
       -0.19739512 0.08680788 -0.070391305 -0.1839623
0003b0 dc a5 ca 3b 92 13 e2 bb fa 25 98 bc 8f 4c 0f be
       0.0061843228 -0.0068993056 -0.018572796 -0.13994049
0003c0 4a 29 30 bd 81 71 1b 3d 01 65 06 bd 85 20 32 be
       -0.043008126 0.037950043 -0.03281117 -0.17395218
0003d0 9c db 46 bd 85 29 be bd 99 ac f0 3d c4 6c 84 3c
       -0.04854928 -0.09285263 0.117516704 0.016165145
0003e0 67 75 26 3d ca f4 b3 bb 14 8e 7a 3e 78 35 06 be
       0.040639307 -0.0054918276 0.24468261 -0.13106334
0003f0 45 17 84 3d 90 de 1c bd bf 72 d1 bb bf 8a 43 be
       0.06449751 -0.03829819 -0.0063918526 -0.19095896

net.4.bias f4 [64]
000000 49 3a 66 bf 05 09 ef bd 46 f8 8c be e5 19 8e be
       -0.89932686 -0.11671642 -0.27533168 -0.2775413
000010 1f 79 09 bf 57 aa 7d be bf 11 7f bf 3e 5c 93 be
       -0.5370044 -0.2477201 -0.99636453 -0.28781313
000020 f9 9b 3e be 1c b3 66 bf 68 e1 e3 bb ab 3f 61 be
       -0.18614186 -0.9011705 -0.0069543608 -0.21996944
000030 b5 17 e4 3d 5a 8c 99 be 97 64 6c bd d6 aa d1 bc
       0.11137334 -0.29989892 -0.057713117 -0.025594156
000040 be a4 40 be 1a 48 21 be c4 cb 82 be c0 88 8f bd
       -0.18812844 -0.15750161 -0.25546086 -0.07008505
000050 44 6b 73 bb 6a f9 01 bf cc 68 1f be c2 64 61 be
       -0.0037142793 -0.507712 -0.1556732 -0.22011092
000060 81 ef b2 bd 27 ee 63 be 40 c7 5e be 8a 83 8a be
       -0.08737088 -0.22258817 -0.21755695 -0.2705348
000070 aa 6f 2b bf dc 9d 0e bf ab f8 9e be 62 13 75 bd
       -0.6696726 -0.55709624 -0.31049094 -0.059832938
000080 b9 0e 5f 3d 85 3b 20 be 0f a2 c4 be e2 c5 0b be
       0.0544574 -0.15647705 -0.3840489 -0.13649705
000090 e6 41 41 bf be 5e 69 bf c7 3a c0 be bc 5b 22 be
       -0.7549118 -0.9116019 -0.37544844 -0.15855306
0000a0 7e 82 ed be 5a 69 45 be 35 93 86 bf 98 05 59 be
       -0.4638862 -0.1927847 -1.0513674 -0.2119354
0000b0 43 b6 96 bd 8f 4d 3c bf c2 14 90 bd 6c b5 01 bf
       -0.073589824 -0.73555845 -0.07035209 -0.5066745
0000c0 ba 31 f4 bd 19 2c 20 bf 0f ad 98 be c1 c8 7c bc
       -0.11923547 -0.6256729 -0.29819533 -0.015428723
0000d0 7e 53 3b be 93 a0 04 be 7b fd 04 bf 14 9b da bb
       -0.18293568 -0.12951879 -0.5194928 -0.006671319
0000e0 fa bb bb bd ba 13 8e bf 6c 90 26 bf 3e 1f 2d be
       -0.09166713 -1.109977 -0.6506412 -0.16906449
0000f0 3f 12 b6 be 83 b3 17 be df c4 37 be 36 2c 9f be
       -0.35560796 -0.14814572 -0.17946194 -0.31088418

net.6.weight f4 [2, 64]
000000 73 45 83 be d2 3a cc 3b ac 49 0d bc 08 2f ec 3b
       -0.25638923 0.006232598 -0.008623522 0.007207755
000010 fe d7 ce 3d 19 ea b2 3c a9 54 a6 be 9e b7 70 bc
       0.10099791 0.021840142 -0.32486466 -0.014692215
000020 56 b6 b2 3b fa af a9 bd 51 f9 78 bc 2a 79 df ba
       0.005453865 -0.08285518 -0.01519616 -0.001704966
000030 e1 7f 9f 3c 8b bd 26 3b 6c 1b 21 3c 90 5d bb ba
       0.019470157 0.0025442566 0.009833198 -0.0014294852
000040 8a e9 2f 3b a0 7d 56 bc f3 66 01 3c 65 c5 fd 3b
       0.002684208 -0.013091475 0.00789808 0.0077444785
000050 c5 18 d9 ba 45 f9 fa 3d f0 3a bc b8 ea 51 cb 3b
       -0.0016563168 0.12254576 -8.9755165e-05 0.0062048333
000060 a0 ac 21 3a 5c 10 da 3b f2 ac 0e bc ca 23 f6 3a
       0.0006167386 0.006654782 -0.008708226 0.0018778977
000070 04 c6 6d bd 07 b8 ff 3d 50 50 c1 3d af 6a a0 ba
       -0.05805017 0.12486272 0.094391465 -0.0012238825
000080 dc 8d 25 3c b4 e3 ce 3b 00 5b 42 bd 2a e7 50 ba
       0.010104623 0.0063137654 -0.047450066 -0.00079690164
000090 3e 06 ac 3c 69 bc 38 bc ab 25 03 3e 1d 51 ba 3a
       0.02099907 -0.011275389 0.12807338 0.0014214847
0000a0 7c dc e0 bd 06 84 5d 3b 7d d9 99 be 77 7e 42 bc
       -0.10979554 0.0033800616 -0.30048743 -0.011870972
0000b0 6e 18 2c 3b 19 9d fd 3d b3 24 4e bc 22 80 3b 3c
       0.0026259678 0.123834796 -0.012581992 0.011444123
0000c0 e8 29 82 3b c5 fd 7b bd 79 be 7b bb 14 1c 50 bc
       0.003972281 -0.06152131 -0.003841309 -0.012702007
0000d0 3d 91 f8 bc 7b a4 19 bc 5c 13 52 be 96 74 95 bc
       -0.030342693 -0.009377594 -0.20515198 -0.01824407
0000e0 95 dc 76 3a 42 33 90 3e cd 65 29 bd 59 db d4 bb
       0.00094170246 0.28164107 -0.04135685 -0.006495875
0000f0 98 fd dc bb fe 9c 5d ba 00 6d fe 3a a4 8c 1a 3b
       -0.006744098 -0.00084538746 0.0019411147 0.0023582364
000100 b6 28 ab 3c b7 af 09 3c 33 e8 35 bc bc 70 b5 3a
       0.020893436 0.00840371 -0.011102724 0.0013842802
000110 91 51 1a 3d 32 e5 60 3c 7f 83 ec bd b4 27 85 3c
       0.037675444 0.013726519 -0.115485184 0.016254283
000120 d1 74 6d 39 04 3a 5c be 96 dd 09 3c b4 06 73 bb
       0.00022645599 -0.21506506 0.008414647 -0.0037082853
000130 78 71 03 3e 40 92 b3 3b c3 7a 02 3c af 2a 7e 3c
       0.12836254 0.005480081 0.007963839 0.015513106
000140 ba 24 6d bb 82 dd d5 bb 6e b1 5a 3c 2c c6 63 3b
       -0.003618522 -0.00652665 0.013347967 0.003475557
000150 f8 b7 c3 3a 51 e7 d3 3c 7d dd d3 3b 46 6b fc 3a
       0.0014932146 0.025867136 0.0064656124 0.0019258044
000160 54 da 98 bb 2b c6 65 3b e7 cc 2a bc b5 0a 02 bc
       -0.0046646986 0.0035060744 -0.010424829 -0.007937123
000170 c3 f8 1d be 3f ea f8 bd 7a be 11 3e 6a 01 89 3a
       -0.15426926 -0.12154054 0.14232817 0.0010452692
000180 c2 9a 8c bb fd a9 69 bc 8f 34 70 3e 6b ed 86 3a
       -0.0042909095 -0.01426172 0.2345755 0.0010294145
000190 8d 26 2d bd cb 23 9d bd 71 05 c5 bd f6 27 33 bb
       -0.042273093 -0.076728426 -0.096201785 -0.002733705
0001a0 60 ac 61 3d b3 73 03 bb 67 66 bc bd 48 03 a4 3b
       0.05509603 -0.0020057976 -0.09199219 0.005005274
0001b0 ec ce 90 bb 23 a0 8f bd dd 86 04 3c 03 1e a3 bb
       -0.0044191983 -0.070129655 0.008088795 -0.004977943
0001c0 1d ef 15 bc 68 37 78 3d 36 d8 58 3b 60 49 1b 3c
       -0.009151247 0.060599715 0.0033087856 0.009477943
0001d0 06 5d ab 3c 14 38 04 3c ad 2e 80 3d 11 a0 21 3c
       0.02091838 0.008070011 0.06258903 0.009864823
0001e0 ce 07 9f 3a b9 da 74 bb d0 41 e8 ba 91 f1 79 ba
       0.0012133063 -0.0037361814 -0.0017719809 -0.00095345924
0001f0 94 95 95 bb 0c 25 d4 3b f9 a5 8a b9 8b 34 b6 bb
       -0.0045649502 0.006474143 -0.0002644507 -0.005560463

net.6.bias f4 [2]
000000 5a 24 1d be 22 78 bf 3b
       -0.15345898 0.0058431784
