checkpoints/checkpoint_4000.pt (torch, 174016 bytes, 66 tensors)

gating.net.0.weight f4 [32, 3]
0	0xbe9cabfe	-0.3059997
1	0xbd3ca72a	-0.046057858
2	0xbd8acd78	-0.06777471
3	0xbe583849	-0.21115221
4	0xbd1dffeb	-0.03857414
5	0xbea71fce	-0.32641453
6	0xbec48359	-0.3838146
7	0x3e41f449	0.18940844
8	0xbe7736f7	-0.24142061
9	0x3e93ed56	0.2889201
10	0xbe9aba78	-0.3022039
11	0x3e650207	0.22364055
12	0x3eeb59ff	0.459671
13	0xbd806ab1	-0.0627035
14	0xbeb17b83	-0.34664544
15	0x3ef64566	0.48099822
16	0xbe776635	-0.24160083
17	0x3f039dab	0.5141246
18	0x3d58aa34	0.052896693
19	0x3dac7f02	0.08422662
20	0x3d12ccda	0.035839893
21	0x3ea4e718	0.3220756
22	0xbee1c35e	-0.44094366
23	0xbe24a6fd	-0.16079326
24	0xbe8ce462	-0.27517992
25	0x3ed87477	0.42276356
26	0xbe1964cb	-0.14979856
27	0xbc8a49e5	-0.016880939
28	0x3e866d99	0.2625549
29	0x3e1154ca	0.141925
30	0xbeae5311	-0.3404775
31	0xbe9faef2	-0.3118816
32	0xbe834c16	-0.25643986
33	0x3c6ab50b	0.014325391
34	0xbedd03d6	-0.4316699
35	0xbd86b2b5	-0.065770544
36	0xbdb2c52b	-0.08729013
37	0xbeac8013	-0.33691463
38	0xbd9c4e9b	-0.0763218
39	0x3e36320d	0.1779253
40	0x3f12e828	0.5738549
41	0x3caa6265	0.020798871
42	0x3ee1e706	0.4412157
43	0xbe760bda	-0.24027959
44	0x3db07885	0.08616737
45	0xbed68ab8	-0.4190271
46	0x3dc3c1c6	0.09558444
47	0xbdf4b47f	-0.119484894
48	0xbee67d5a	-0.4501751
49	0x3ea2b952	0.31782013
50	0x3e4fda18	0.2029804
51	0x3f01f89b	0.50769967
52	0x3e3fa4e1	0.1871524
53	0x3ec801f7	0.39064
54	0x3efd6076	0.49487656
55	0xbea915a1	-0.33024314
56	0xbef53a73	-0.47896156
57	0x3e873c86	0.26413363
58	0x3e4144ee	0.18873951
59	0x3e44304d	0.1915905
60	0x3eb34755	0.3501536
61	0x3e3f0c27	0.1865698
62	0xbe28aa00	-0.164711
63	0x3e0484c0	0.12941265
64	0xbeda7be7	-0.42672655
65	0x3e699c4d	0.2281353
66	0xbee5fbdd	-0.4491872
67	0x3ec2f295	0.380757
68	0xbeb03725	-0.34417072
69	0x3eda7b90	0.42672396
70	0xbf2e01aa	-0.6797129
71	0x3e84d32e	0.25942367
72	0xbed7391f	-0.42035767
73	0xbd0194f5	-0.031636197
74	0x3ec4004f	0.38281485
75	0xbcc040a7	-0.023468329
76	0xbe3bb528	-0.18330824
77	0xbe994f52	-0.2994333
78	0x3ed4f3fd	0.41592398
79	0x3e724fb5	0.23663218
80	0xbe4417d2	-0.19149712
81	0xbed9b7a4	-0.4252292
82	0xbe73dabf	-0.23813914
83	0xbd96c7a2	-0.07362296
84	0x3e959363	0.2921401
85	0xbf0d2664	-0.55136704
86	0x3f0245b3	0.508876
87	0xbeba454c	-0.36380994
88	0x3e273202	0.1632767
89	0x3ec66db6	0.38755578
90	0x3e956b3b	0.29183373
91	0xbe57ecc6	-0.21086416
92	0xbee75c8b	-0.45187792
93	0xbe66d9d6	-0.22544035
94	0xbce020c8	-0.027359381
95	0x3d2caed6	0.042158924

gating.net.0.bias f4 [32]
0	0x3e9ebdb1	0.31004098
1	0x3e44a58b	0.19203775
2	0xbeead6bb	-0.4586695
3	0x3e061c3d	0.1309671
4	0xbc449cd5	-0.012000282
5	0x3e87b879	0.2650793
6	0xbce60d71	-0.028082581
7	0xbf00b001	-0.5026856
8	0xbece72b3	-0.40321884
9	0xbf02b6f8	-0.5106044
10	0xbe22257d	-0.15834613
11	0x3ea103f3	0.31448326
12	0x3f056263	0.5210325
13	0x3ea1d09d	0.31604472
14	0xbe96f917	-0.29486915
15	0x3e72635d	0.23670717
16	0xbe16a8f3	-0.14712887
17	0xbf072083	-0.52783984
18	0xbe82f604	-0.2557832
19	0x3ebe4f7b	0.37170014
20	0xbdf569ad	-0.11983047
21	0xbc8e1031	-0.017341705
22	0x3f020ebd	0.5080374
23	0x3edea627	0.4348614
24	0x3e84095d	0.25788394
25	0x3d147f31	0.03625411
26	0xbec9cc40	-0.39413643
27	0x3e9e4842	0.30914503
28	0x3ee25b12	0.44210106
29	0x3eafe469	0.3435395
30	0xbe9e76a4	-0.3094989
31	0x3ea7b9be	0.32758898

gating.net.1.weight f4 [32]
0	0x3f9c51da	1.2212479
1	0x3f8f1d4c	1.1180816
2	0x3fb0aa83	1.3802036
3	0x3f729f2f	0.94774145
4	0x3f743020	0.9538593
5	0x3f66c35d	0.9014185
6	0x3f73c777	0.95226234
7	0x3fa9310a	1.321809
8	0x3f891e12	1.0712302
9	0x3fa79a70	1.3094006
10	0x3f727c25	0.9472068
11	0x3f7d3cfe	0.9892119
12	0x3f7e9055	0.99438983
13	0x3f7b996a	0.98280966
14	0x3f8ef1b7	1.1167516
15	0x3f955fee	1.16699
16	0x3f813b89	1.0096294
17	0x3f877f32	1.0585692
18	0x3f81eac9	1.0149776
19	0x3f4f5372	0.809867
20	0x3f7c9fe3	0.9868147
21	0x3f7bd6c8	0.98374605
22	0x3f79d6a1	0.9759312
23	0x3f844f44	1.033669
24	0x3f8d18a8	1.102315
25	0x3f723e97	0.94626755
26	0x3f7e65c5	0.9937404
27	0x3f936cff	1.1517638
28	0x3f7cc8c4	0.98743844
29	0x3f6f3fdb	0.9345681
30	0x3f7e74af	0.99396795
31	0x3f85d9ae	1.0457056

gating.net.1.bias f4 [32]
0	0x3dd10177	0.102053575
1	0x3cb1e9e9	0.021717982
2	0x3e20dcec	0.15709275
3	0xbdb6b3f3	-0.08921041
4	0xbe085b19	-0.13316001
5	0xbdf9b5f2	-0.121929064
6	0xbcacd659	-0.021098303
7	0xbd14d459	-0.036335323
8	0xbd9dca5e	-0.07704614
9	0x3c230193	0.009949106
10	0xbc8e1171	-0.017342301
11	0xbc56476b	-0.013078551
12	0x3c670ae5	0.014101719
13	0xbe2702c6	-0.16309652
14	0x3c2a6798	0.010400675
15	0xbc5be019	-0.013420128
16	0xbdae233f	-0.085028164
17	0xbdb69812	-0.08915724
18	0xbd3ba8b9	-0.045815203
19	0xbe48e87a	-0.19619933
20	0xbd8393d4	-0.0642468
21	0xbd3b5e92	-0.045744486
22	0xbc395c4d	-0.01131351
23	0xbda47db6	-0.0803179
24	0x3de0a627	0.10969191
25	0xbd0b0651	-0.03394157
26	0x3dbca73b	0.09211584
27	0x3bd4ee94	0.0064981673
28	0xbde128ff	-0.109941475
29	0xbbc14983	-0.005898656
30	0xbd0d9c6f	-0.034573015
31	0xbd9052c7	-0.070470385

gating.net.4.weight f4 [32, 32]
0	0xbe1c5135	-0.15265353
1	0xbe987c8a	-0.29782516
2	0x3d52699b	0.051370244
3	0x3c00f96d	0.007871968
4	0xbe4629ca	-0.19351879
5	0xbcc44e41	-0.023963096
6	0xbe1f57a6	-0.15560779
7	0x3e0e065d	0.13869615
8	0xbe8ee641	-0.27910045
9	0xbe2f3edb	-0.17113821
10	0xbda6eb6d	-0.08150373
11	0x3e2c955a	0.16853848
12	0xbe3c96a3	-0.18416838
13	0x3e0f3470	0.13984847
14	0xbcd32b07	-0.025777353
15	0xbe6c7ab1	-0.23093678
16	0xbe418c95	-0.18901284
17	0xbc9af46d	-0.01891538
18	0x3dad1414	0.08451095
19	0x3d73296a	0.059365667
20	0x3daf960b	0.0857354
21	0xbe3e604e	-0.18591425
22	0xbc661311	-0.014042632
23	0xbe5ec115	-0.21753342
24	0xbd50843d	-0.050907362
25	0x3db54f87	0.08853059
26	0xbda88afe	-0.08229636
27	0xbe2e95c6	-0.17049322
28	0x3b05d65c	0.0020421958
29	0xbd02cf76	-0.03193613
30	0x3d9fdebb	0.07806154
31	0xbe385b21	-0.18003513
32	0xbd0fa10d	-0.0350657
33	0x3e132bb9	0.14372148
34	0xbe52e2e7	-0.20594369
35	0xbe44c9fa	-0.19217673
36	0x3cd23393	0.025659358
37	0xbe13a0ce	-0.14416811
38	0x3e54c6ec	0.20779008
39	0x3e93b480	0.28848648
40	0xbe29c047	-0.16577254
41	0xbe96f329	-0.2948239
42	0xbdb4eb38	-0.08833927
43	0xbdd1b473	-0.10239496
44	0x3de8a9e2	0.113605276
45	0x3e09f1e4	0.1347118
46	0xbe362913	-0.17789106
47	0xbe87a8f5	-0.2649609
48	0x3c06eed9	0.008235657
49	0xbc335569	-0.010945656
50	0x3e19e981	0.15030481
51	0x3d2b2ce5	0.04179086
52	0xbda62f1b	-0.081144534
53	0xbd1e938b	-0.038714927
54	0x3e32c3a9	0.17457451
55	0xbe1d63a9	-0.15370049
56	0x3d35dab6	0.044398032
57	0x3e0b6f9b	0.13616793
58	0xbd1fb442	-0.038990267
59	0x3d6cb7a1	0.05779231
60	0xbd8335c3	-0.064067386
61	0xbde88500	-0.11353493
62	0xbcceb967	-0.025234891
63	0xbd8c58aa	-0.06852849
64	0x3dff45cf	0.12464487
65	0x3db9e5e9	0.09077055
66	0xbc707452	-0.01467617
67	0x3e4ff8b3	0.20309715
68	0x3df298d0	0.11845553
69	0xbd43c28a	-0.04779295
70	0xbdc09b04	-0.09404567
71	0x3e3ed156	0.18634543
72	0xbd31e26b	-0.04342882
73	0xbd4cd587	-0.050008323
74	0xbd5338af	-0.05156773
75	0xbe0baa62	-0.13639215
76	0xbdcd872e	-0.10035549
77	0xbe0411a8	-0.1289736
78	0xbd832c67	-0.064049534
79	0xbd40367d	-0.046926964
80	0xbe192610	-0.14955926
81	0x3e0835e4	0.13301808
82	0xbd634583	-0.055486213
83	0x3e016022	0.12634328
84	0xbdf217c7	-0.118209414
85	0xbe2d08ba	-0.1689786
86	0x3d0527cf	0.032508668
87	0xbdedd5ac	-0.1161302
88	0x3ad3c2ba	0.0016156055
89	0xbe471096	-0.19439921
90	0xbdfaa0f8	-0.122377336
91	0x3ddbdaf1	0.10735119
92	0x3d41da1d	0.04732715
93	0xbd6a9115	-0.057267267
94	0xbdcabf6e	-0.098997936
95	0x3d8a8736	0.06764071
96	0x3de81ad4	0.11333242
97	0xbdb6374b	-0.08897265
98	0x3cc4e51e	0.024035033
99	0x3e19c2f3	0.15015773
100	0xbdfeb52b	-0.12436899
101	0x3cfffeec	0.031249486
102	0x3e418594	0.18898612
103	0x3ed511ad	0.41615048
104	0xbd074937	-0.033028807
105	0x3c55ad27	0.013041771
106	0x3da5106f	0.08059775
107	0xbdf792cb	-0.120885454
108	0x3dccd25d	0.10001061
109	0xbde1100e	-0.1098939
110	0x3de3fbf2	0.11132039
111	0xbe59bdca	-0.21263805
112	0xbe495951	-0.19662978
113	0x3e406ecb	0.18792264
114	0x3ddea00c	0.1087037
115	0xbdfdea2e	-0.12398182
116	0x3d9e69ee	0.07735048
117	0x3d333154	0.043748215
118	0x3e055dad	0.13024016
119	0xbcfeb2a5	-0.031091044
120	0x3e1527b7	0.14565931
121	0x3e114c3a	0.14189234
122	0x3e7a1e07	0.24425517
123	0x3dcaf8ca	0.09910734
124	0xbca6e060	-0.020370662
125	0xbcad1137	-0.021126373
126	0x3d272d96	0.04081496
127	0xbe4dc941	-0.20096304
128	0xbdd82f27	-0.105558686
129	0x3d4a656d	0.049413133
130	0xbeb9b315	-0.3626944
131	0xbd274b7c	-0.040843472
132	0x3e16ee6e	0.14739391
133	0x3e1047b1	0.14089848
134	0xbde7642a	-0.11298402
135	0x3eccf9cf	0.4003434
136	0xbd877509	-0.066141196
137	0xbcde3e65	-0.027129361
138	0x3d8abe86	0.06774621
139	0xbde5249d	-0.11188624
140	0x3d16de23	0.03683294
141	0x3e02c5d1	0.12770773
142	0xbdb847ce	-0.08998071
143	0xbb09efa6	-0.0021047383
144	0xbdafa858	-0.08577031
145	0xbe4791ed	-0.1948926
146	0xbbce1e19	-0.006290209
147	0xbd717891	-0.05895287
148	0xbbdfacc1	-0.006826014
149	0xbe16fc21	-0.14744617
150	0x3e3344f6	0.17506775
151	0x3b52bc46	0.0032155677
152	0xbde107ad	-0.10987792
153	0x3e110a9e	0.14164206
154	0xbd89654a	-0.067087725
155	0x3e0e17a0	0.138762
156	0xbd1a10bd	-0.03761362
157	0x3d12a991	0.035806242
158	0x3ce5321f	0.027978001
159	0xbc16fb37	-0.009215168
160	0x3e1c32dc	0.15253776
161	0x3e0548bb	0.13016026
162	0xbedf6075	-0.43628278
163	0xbde72d9c	-0.11287996
164	0xbdddb846	-0.10826163
165	0xbe71e6e0	-0.23623228
166	0xbe0f6c02	-0.14006045
167	0xbe43e1bc	-0.1912908
168	0x3e20554f	0.15657543
169	0x3e293502	0.16524127
170	0xbca09def	-0.019606559
171	0x3dffca90	0.124898076
172	0x3c751a17	0.014959834
173	0xbc8c7e51	-0.017150076
174	0x3dc7122e	0.097202644
175	0x3d7ee5e8	0.062230974
176	0x3d9176a1	0.07102705
177	0xbd761be2	-0.060085185
178	0xbe1c7a4d	-0.15281029
179	0x3ddded5d	0.10836289
180	0x3d2ec1a9	0.042665157
181	0x3d8f8eec	0.07009682
182	0x3da99450	0.082802415
183	0xbd8a24bb	-0.06745287
184	0x3dd72261	0.10504604
185	0x3e08598a	0.13315406
186	0xbdfd2de5	-0.12362269
187	0xbcac1b54	-0.021009125
188	0xbd1e0234	-0.03857632
189	0x3db77f79	0.0895986
190	0xbdfb5158	-0.122713745
191	0x3ceef329	0.029168682
192	0xbe3e4c19	-0.18583716
193	0xbcaec453	-0.021333849
194	0x3eebac7a	0.46030027
195	0xbd536fec	-0.05162041
196	0xbdb93a3b	-0.0904431
197	0x3c6f2c63	0.014597985
198	0x3df74a77	0.1207475
199	0xbba29522	-0.0049616257
200	0x3cffabc3	0.031209832
201	0x3e010a41	0.12601568
202	0x3e0c7b6a	0.13718954
203	0x3e2260a1	0.15857174
204	0xbd97bf9a	-0.07409592
205	0xbe742920	-0.23843813
206	0x3dc17ab2	0.094472304
207	0xbe381272	-0.17975786
208	0x3cc49ce0	0.024000585
209	0x3e25bbb7	0.16184889
210	0x3ba08330	0.0048984513
211	0xbd26f4b9	-0.04076073
212	0xbe855a33	-0.2604538
213	0x3e2387ca	0.15969768
214	0xbe5a2cad	-0.21306105
215	0x3e34e589	0.17665686
216	0xbe014d36	-0.1262711
217	0xbc8565e4	-0.016283937
218	0xbca1a121	-0.019730153
219	0x3c975062	0.018470947
220	0x3dc25fbb	0.094909154
221	0x3c33563a	0.010945851
222	0xbe5fe6ea	-0.2186543
223	0xbdc9af26	-0.0984786
224	0x3e595bf2	0.2122648
225	0xbe1983e0	-0.14991713
226	0xbe798351	-0.243665
227	0x3d00d691	0.031454626
228	0xbdc066e0	-0.09394622
229	0x3e17c700	0.14822006
230	0xbdfaba8c	-0.12242612
231	0x3dbe3d7e	0.092890725
232	0xbcf3f80d	-0.029781366
233	0xbed52c63	-0.41635427
234	0x3dd047b5	0.10169927
235	0x3d750b55	0.05982526
236	0xbc884bac	-0.016637646
237	0x3e02506f	0.12725995
238	0xbdc06edf	-0.09396147
239	0x3e949f64	0.29027855
240	0xbcaf2f4a	-0.021384854
241	0xbe460ebb	-0.19341557
242	0x3d8c5ea6	0.0685399
243	0xbdd3e502	-0.10346414
244	0x3dc07378	0.09397024
245	0x3d920363	0.07129552
246	0xbe132f4b	-0.1437351
247	0xbe255314	-0.16144973
248	0x3e42a759	0.1900915
249	0xbc690cae	-0.0142242145
250	0xbdf38e71	-0.11892403
251	0x3de70fef	0.11282336
252	0xbd965743	-0.073408626
253	0x3d94105e	0.07229684
254	0xbd1d2c1d	-0.038372148
255	0x3e49a525	0.19691904

gating.net.4.bias f4 [32]
0	0xbe02fcc1	-0.1279173
1	0xbd62cbd0	-0.055370152
2	0x3e27d46b	0.16389625
3	0xbde9cc5f	-0.11415934
4	0xbe0ce9c5	-0.13761051
5	0xbdab3462	-0.083596006
6	0xbd9cc01d	-0.0765383
7	0x3d9da966	0.07698326
8	0x3e01117c	0.12604326
9	0x3e0aed00	0.13566971
10	0xbd4a1876	-0.049339734
11	0xbdfe68a5	-0.12422303
12	0xbd9a9028	-0.07547027
13	0xbc824d38	-0.015905961
14	0xbd0c591c	-0.03426467
15	0xbea8cdf3	-0.32969627
16	0x3c3b8ebf	0.011447608
17	0x3ddd6226	0.10809736
18	0xbdecc1d6	-0.11560409
19	0x3de75ce7	0.112970166
20	0xbe4ff94a	-0.2030994
21	0x3bffa6af	0.0078018527
22	0xbe1e292f	-0.15445398
23	0xbdac30f6	-0.08407776
24	0xbcfa3a5f	-0.030545412
25	0x3e32d8d7	0.1746553
26	0xbddc6172	-0.10760774
27	0x3d4c5bb5	0.049892146
28	0x3dd27728	0.102766335
29	0xbe60c545	-0.21950252
30	0xbdfe2b34	-0.12410584
31	0xbe30e86a	-0.17276159

gating.net.5.weight f4 [32]
0	0x3f8008b1	1.0002652
1	0x3f779c52	0.967229
2	0x3f6959b7	0.9115252
3	0x3f697027	0.91186756
4	0x3f5ccb3f	0.8624763
5	0x3f71507b	0.9426343
6	0x3f8401ca	1.0313046
7	0x3f55f77f	0.83580774
8	0x3f695357	0.9114279
9	0x3f7d4139	0.98927647
10	0x3f6c00ea	0.92188895
11	0x3f71b84b	0.94421834
12	0x3f82484e	1.0178316
13	0x3f6fe144	0.93703103
14	0x3f741b4a	0.9535414
15	0x3f7c4815	0.9854749
16	0x3f8defd0	1.108881
17	0x3f6ae0c7	0.91749233
18	0x3f7000a3	0.9375097
19	0x3f776614	0.96640134
20	0x3f5ff011	0.8747569
21	0x3f8b4b10	1.0882282
22	0x3f585d16	0.8451704
23	0x3f6ff224	0.9372885
24	0x3f70bd0e	0.94038475
25	0x3f7b22c3	0.9809992
26	0x3f6ad09d	0.9172457
27	0x3f6abb4b	0.91692036
28	0x3f6ba2a0	0.9204502
29	0x3f815679	1.0104514
30	0x3f6cc2ff	0.9248504
31	0x3f70d0f0	0.94068813

gating.net.5.bias f4 [32]
0	0xbd34a8ca	-0.044106282
1	0xbd0ae35a	-0.033908226
2	0xbd809add	-0.06279538
3	0xbc9d0e58	-0.019171879
4	0xbe0eef20	-0.13958406
5	0xbd0bab80	-0.034099102
6	0xbcfd52d2	-0.03092328
7	0xbd9b2589	-0.07575519
8	0xbd11404a	-0.0354617
9	0xbc4d195e	-0.012518255
10	0xbc676c19	-0.014124894
11	0xbd169c9c	-0.036770448
12	0xbd2792ca	-0.040911473
13	0xbd3e4866	-0.046455763
14	0xbcae5a4c	-0.021283291
15	0xbc43bd07	-0.011946923
16	0xbdd137ca	-0.10215719
17	0xbcb751f3	-0.022377944
18	0xbd753518	-0.059865087
19	0xbd218219	-0.03943071
20	0xbdbdbc09	-0.092643805
21	0xbc5a712e	-0.013332648
22	0xbd182460	-0.037144065
23	0xbd3faaa1	-0.046793584
24	0xbd52475c	-0.051337585
25	0x3bf09688	0.0073421635
26	0xbd790565	-0.06079616
27	0xbd3d585f	-0.046226855
28	0xbda0a7ab	-0.0784448
29	0xbdad1e95	-0.08453099
30	0xbd6bf853	-0.057609867
31	0xbc9b8add	-0.018987114

gating.net.7.weight f4 [4, 32]
0	0xbe03b30b	-0.12861268
1	0xbe2a36c7	-0.16622458
2	0x3dd2c982	0.10292341
3	0x3cb13754	0.021632828
4	0x3d9473d1	0.07248653
5	0x3e06a179	0.13147534
6	0xbca4323f	-0.02004349
7	0xbdd86b1b	-0.10567304
8	0xbc8d098b	-0.017216465
9	0xbe272422	-0.16322377
10	0x3d356ea5	0.044294972
11	0x3d8b8442	0.068123356
12	0xbe75e4ab	-0.24013011
13	0xbe06b3ea	-0.1315457
14	0xbe0c7149	-0.1371509
15	0xbd457932	-0.048211284
16	0xbd23b131	-0.039963905
17	0x3d8e2942	0.06941463
18	0xbda6ecf6	-0.081506655
19	0xbdf495c3	-0.11942627
20	0x3b7477bb	0.003730281
21	0xbe8f9056	-0.28039807
22	0xbd3cdad5	-0.046107132
23	0xbcea5ed8	-0.028609678
24	0xbd90171d	-0.070356585
25	0x3e02337f	0.12714957
26	0xbccf6714	-0.025317706
27	0x3d82ed06	0.06392865
28	0xbdee56cd	-0.1163765
29	0x3ca53186	0.020165216
30	0x3d95c908	0.07313734
31	0x3d2567fb	0.040382367
32	0x3e1bfcec	0.15233201
33	0x3c8b68b4	0.0170177
34	0x3d9589ca	0.07301672
35	0x3cc4832a	0.023988325
36	0x3d316d0e	0.043316893
37	0xbde30412	-0.11084761
38	0xbdfdde15	-0.123958744
39	0xbdd3d989	-0.10344226
40	0xbd3de219	-0.0463582
41	0xbbc8651c	-0.006115569
42	0x3ddc0992	0.10744013
43	0xbda061ac	-0.078311294
44	0xbc362ba9	-0.011118808
45	0xbdd2928c	-0.10281858
46	0xbdc51ed2	-0.09625019
47	0xbce0ca59	-0.027440237
48	0x3e5b79af	0.21433137
49	0x3dd30bde	0.10304998
50	0x3d15e59c	0.036595926
51	0xbd160282	-0.036623485
52	0x3d0412ed	0.03224461
53	0x3df44133	0.11926498
54	0xbbc8bdca	-0.0061261402
55	0xbde843e6	-0.113410756
56	0x3d1d97b6	0.03847476
57	0xbe23bf48	-0.15990937
58	0xbd215a4d	-0.03939276
59	0x3d140bb0	0.03614396
60	0x3d0d493f	0.03449368
61	0x3c6aa046	0.014320439
62	0xbd774ab4	-0.060373977
63	0xbdec3657	-0.11533802
64	0xbae0053c	-0.0017091404
65	0xbd89baf8	-0.067251146
66	0xbd06b6f3	-0.032889318
67	0xbc2564a7	-0.010094798
68	0x3d1b1727	0.037863877
69	0x3c9c0cd0	0.019049078
70	0x3dccb3cf	0.09995233
71	0xbd8f8907	-0.07008558
72	0xbd504aec	-0.0508527
73	0xbe002fd4	-0.12518245
74	0x3db1c2bd	0.086797215
75	0xbc57557d	-0.013142941
76	0xbdb6e24c	-0.089298815
77	0xb9a0e4c8	-0.00030688033
78	0xbe17960b	-0.1480333
79	0x3d2a77f2	0.041618295
80	0xbd96e824	-0.07368496
81	0x3d5b7f06	0.053587936
82	0xbddd7391	-0.10813058
83	0x3dc36e72	0.0954255
84	0x3cb326a8	0.021869019
85	0xbcb4fd10	-0.022093326
86	0xbd36b1c6	-0.04460313
87	0x3d3bef79	0.045882676
88	0xbc72ff0f	-0.0148313185
89	0x3dc33e39	0.095333524
90	0xbdf4a9b6	-0.11946432
91	0x3d7b0472	0.061283536
92	0xbd89bf47	-0.067259364
93	0x3e2e9098	0.17047346
94	0x3d1e44b7	0.03863975
95	0x3c811630	0.01575765
96	0xbdacce0e	-0.08437739
97	0xbdace6a8	-0.08442432
98	0x3d17611e	0.036957853
99	0xbd525e8f	-0.05135971
100	0x3b583f3e	0.003299668
101	0x3e1e5e92	0.15465763
102	0x3da56e70	0.08077705
103	0x3bceb3a9	0.0063080383
104	0x3d627693	0.055288862
105	0x3d5c5ba3	0.05379833
106	0xbd6ca9fa	-0.05777929
107	0xbe282748	-0.16421235
108	0x3de563f8	0.11200708
109	0xbe1a396e	-0.1506097
110	0xbce9a0bc	-0.028519027
111	0xbe0df622	-0.13863423
112	0xbd64bb8d	-0.055842925
113	0x3be4b415	0.0069794753
114	0x3cc77545	0.02434791
115	0xbe04db9d	-0.12974401
116	0xbd05cf66	-0.032668494
117	0xbc44f890	-0.012022153
118	0x3cd68791	0.02618769
119	0xbd984065	-0.07434157
120	0xbd341955	-0.04396947
121	0xbcf36ab0	-0.029713959
122	0xbd9df4d7	-0.07712715
123	0xbc831662	-0.016001884
124	0x3d970a2e	0.073749885
125	0xbd84a5cd	-0.064769365
126	0xbc7f4cd2	-0.01558228
127	0xbdc89766	-0.09794502

gating.net.7.bias f4 [4]
0	0x3ce68d2e	0.028143492
1	0x3e1ff0fe	0.15619275
2	0xbdbe67c1	-0.09297133
3	0x3e3d197d	0.18466754

experts.0.net.0.weight f4 [64, 3]
0	0x3e9792a6	0.2960407
1	0x3d6e752c	0.058217213
2	0xbef86c08	-0.4851992
3	0x3e92b36a	0.28652507
4	0x3e423cbe	0.18968484
5	0x3ef7df37	0.48412487
6	0x3e3fe48e	0.1873953
7	0x3b22e5ab	0.002485613
8	0xbea90c62	-0.3301726
9	0xbebd3faf	-0.3696265
10	0xbee3fe07	-0.44529745
11	0xbf1d4816	-0.6143812
12	0x3ed6c90c	0.41950262
13	0xbedf40a9	-0.4360402
14	0x3e3aaac5	0.18229206
15	0x3e3c84a6	0.18409976
16	0x3dd9894e	0.10621892
17	0x3e521678	0.20516384
18	0xbeef3283	-0.46718225
19	0x3ef23841	0.47308543
20	0xbed307fa	-0.41217023
21	0x3d7908d7	0.060799446
22	0xbea53c8e	-0.32272762
23	0x3ecf6790	0.405087
24	0x3ec74aa6	0.3892414
25	0x3f21bb33	0.6317627
26	0x3eab2d6e	0.33433098
27	0x3f12bb8d	0.5731743
28	0xbe00339e	-0.1251969
29	0xbe8864e8	-0.26639485
30	0x3e780bab	0.24223201
31	0xbeb95fda	-0.3620594
32	0x3e684a8e	0.2268469
33	0x3f1316ea	0.5745684
34	0xbdecb591	-0.115580685
35	0xbdede156	-0.11615245
36	0x3df690df	0.12039351
37	0xbeaf671e	-0.3425836
38	0xbefeda1a	-0.49775773
39	0x3e0bdfa3	0.1365953
40	0x3ebc0bdb	0.36727795
41	0x3ec55b39	0.3854616
42	0xbe7d6b40	-0.24747944
43	0x3de06b1a	0.10957928
44	0x3e1197e7	0.14218102
45	0x3ea8c2cf	0.32961127
46	0x3ec4f04e	0.38464588
47	0x3f158b23	0.5841543
48	0x3da7f695	0.08201329
49	0xbe9b0cbb	-0.3028315
50	0xbe94cb2e	-0.29061264
51	0xbdc0aa75	-0.09407512
52	0x3e78ce15	0.24297364
53	0x3e1601b4	0.14649087
54	0xbedb4c0d	-0.4283146
55	0xbe15f2c7	-0.14643393
56	0x3d752e7d	0.059858788
57	0xbe36054c	-0.17775458
58	0x3ec95b8f	0.39327666
59	0x3dbf9cbe	0.09356068
60	0xbecc91cd	-0.39954987
61	0xbe77143c	-0.24128813
62	0xbe9a020b	-0.30079684
63	0x3e19e623	0.15029196
64	0xbee18938	-0.44050002
65	0x3e30a77d	0.17251392
66	0x3ec46747	0.38360044
67	0x3e3d1130	0.18463588
68	0xbf02a1b1	-0.5102797
69	0x3d8409e8	0.06447202
70	0xbded3791	-0.11582864
71	0xbe8a372d	-0.2699522
72	0x3e751c61	0.23936607
73	0xbedff793	-0.43743572
74	0xbe4a802b	-0.19775455
75	0xbec8458e	-0.39115566
76	0x3f03a92d	0.51430017
77	0x3ebe3b32	0.37154537
78	0xbebff5be	-0.37492174
79	0xbeadacf6	-0.3392102
80	0x3edfb1c9	0.43690327
81	0xbe025b17	-0.1273006
82	0x3cc221cf	0.023697762
83	0x3ea974b2	0.33096844
84	0x3e5f2d85	0.21794708
85	0xbd93b356	-0.0721194
86	0x3d8b6677	0.06806653
87	0xbe48639a	-0.19569245
88	0x3e81918e	0.25306362
89	0xbdd8b071	-0.105805285
90	0xbe3d4cc3	-0.18486314
91	0xbf1f9839	-0.6234165
92	0xbef1a8c4	-0.4719907
93	0xbef92b1d	-0.48665705
94	0xbecf5f2f	-0.40502307
95	0x3eaa4728	0.33257413
96	0xbe2e11b9	-0.16998948
97	0xbe015ee7	-0.12633859
98	0xbde95623	-0.113933824
99	0xbde49faa	-0.11163266
100	0x3f1bd976	0.60878694
101	0x3ebb10c9	0.36536244
102	0x3c18f9bb	0.009336884
103	0x3e8afeaa	0.27147418
104	0x3ec2759d	0.37980357
105	0xbe8c66d5	-0.27422205
106	0x3e9a3c48	0.30124116
107	0xbf1226da	-0.5709053
108	0x3dd22b74	0.10262194
109	0x3e5db20d	0.21649952
110	0xbeaac868	-0.33356023
111	0x3f18d302	0.5969697
112	0xbddd52b5	-0.10806791
113	0xbec1d0db	-0.37854657
114	0x3ddbd93b	0.10734793
115	0xbdf20c83	-0.11818793
116	0x3f04918d	0.5178459
117	0x3eda14eb	0.42594084
118	0xbd3a8c7c	-0.045544133
119	0x3e9d93bf	0.30776784
120	0x3ec10861	0.37701705
121	0xbe905227	-0.28187677
122	0xbe30a54f	-0.1725056
123	0xbedc0ffd	-0.42980948
124	0x3f0ab9b0	0.54189587
125	0x3ea601e7	0.32423326
126	0xbe5c9c37	-0.21543966
127	0x3ecd86aa	0.40141803
128	0x3e7e4c78	0.24833858
129	0xbef8122c	-0.48451364
130	0x3effc72c	0.49956644
131	0xbe8f06e3	-0.27934942
132	0xbe15d49e	-0.14631888
133	0xbdae50bf	-0.08511495
134	0x3ee8135a	0.45327264
135	0x3e3fcc47	0.1873027
136	0xbea5c618	-0.32377696
137	0x3e78c7f8	0.24295032
138	0x3f067d5d	0.5253504
139	0x3d7f4f62	0.062331565
140	0xbe96776d	-0.2938799
141	0xbf1dfdf5	-0.6171563
142	0xbd938f47	-0.07205062
143	0xbe91c6f0	-0.2847209
144	0xbea3d8d5	-0.32001367
145	0x3f0df85c	0.5545709
146	0x3c299412	0.010350244
147	0x3e89da4f	0.2692437
148	0xb8940c74	-7.0595095e-05
149	0xbebf20d3	-0.3732973
150	0x3e972f85	0.29528442
151	0x3eba09bb	0.3633555
152	0x3e963a37	0.2934129
153	0x3e31c8c1	0.17361738
154	0x3e32827b	0.17432587
155	0xbec7d2f7	-0.3902814
156	0x3ed28ec9	0.4112456
157	0xbf02a495	-0.5103238
158	0x3db22e0d	0.0870019
159	0xbde730b8	-0.11288589
160	0x3e2cf6f6	0.16891083
161	0x3e351fca	0.17687908
162	0xbe37cc1a	-0.17948952
163	0xbe46993a	-0.19394389
164	0x3e079c8f	0.13243316
165	0xbe80a3a2	-0.25124842
166	0x3e729099	0.23687972
167	0xbe3314bd	-0.1748838
168	0xbe8a353d	-0.26993743
169	0xbe66a274	-0.22522908
170	0x3e94443f	0.28958318
171	0xbe80f5cc	-0.25187528
172	0xbd8c0448	-0.06836754
173	0x3f289dde	0.65865886
174	0x3e856e0d	0.26060525
175	0x3f06992a	0.5257746
176	0x3dad9c84	0.084771186
177	0xbedaa546	-0.4270422
178	0xbeaa2d05	-0.33237472
179	0x3e5987ce	0.21243212
180	0x3e789651	0.24276091
181	0xbd424568	-0.047429472
182	0xbe2eac22	-0.17057851
183	0xbf0676df	-0.5252513
184	0x3edd4552	0.4321695
185	0xbee4c717	-0.44683143
186	0xbef555ec	-0.47917116
187	0x3db4a7bc	0.08821055
188	0xbcb0728d	-0.021538997
189	0x3e00e683	0.12587933
190	0x3ebf1756	0.3732249
191	0x3d90a601	0.07062913

experts.0.net.0.bias f4 [64]
0	0x3e150918	0.1455425
1	0xbed50355	-0.41604105
2	0x3dd18a80	0.10231495
3	0xbd9760e5	-0.07391528
4	0x3e51d554	0.20491534
5	0x3ed186ca	0.40923148
6	0x3eac1e7a	0.33617002
7	0x3e2062ae	0.15662643
8	0xbf14d6c4	-0.58140206
9	0xbdae7fca	-0.085204676
10	0xbf077111	-0.529069
11	0xbed475e0	-0.4149618
12	0x3e4b9506	0.19881067
13	0xbe5bab68	-0.21452105
14	0x3dde739a	0.10861893
15	0xbee9c864	-0.45660698
16	0x3e9e4898	0.3091476
17	0xbe23a759	-0.15981807
18	0x3e8c0a7d	0.27351752
19	0xbe945f3b	-0.28978905
20	0x3e15c957	0.14627586
21	0x3e640649	0.22268023
22	0x3ea5fd23	0.3241969
23	0x3e56b2b9	0.20966615
24	0x3e4fc23a	0.20288935
25	0xbe12369b	-0.14278643
26	0xbed3e9b0	-0.41389227
27	0x3e3cde25	0.18444116
28	0x3e7359d8	0.23764741
29	0x3eb26ac7	0.3484709
30	0xbf089d7b	-0.53365296
31	0x3f11dc6a	0.5697695
32	0x3d80a565	0.062815465
33	0xbe141c22	-0.14463857
34	0x3d28daca	0.04122428
35	0x3e238b87	0.15971194
36	0x3e9ee9af	0.3103766
37	0xbd6cec3f	-0.05784249
38	0xbef8a091	-0.48560002
39	0xbd656805	-0.056007404
40	0x3e3cc842	0.18435767
41	0x3e5cd088	0.21563923
42	0x3ef07fe6	0.4697258
43	0x3e993731	0.2992492
44	0x3d10e427	0.035373833
45	0xbedc2fdb	-0.4300526
46	0xbe1eebbc	-0.15519613
47	0x3f26f611	0.6521922
48	0xbe1182ac	-0.14210004
49	0xbea6aaa6	-0.3255207
50	0x3ecc9418	0.39956737
51	0x3ed06fae	0.40710205
52	0x3e2289f5	0.15872939
53	0xbd2d5cc2	-0.04232479
54	0xbe827ad9	-0.2548435
55	0x3d28667b	0.041113358
56	0x3e3d2178	0.18469799
57	0xbed3e005	-0.4138185
58	0xbee07e93	-0.43846568
59	0x3eeb829b	0.45998082
60	0xbde63575	-0.11240665
61	0x3e3705eb	0.17873351
62	0x3ecd555e	0.40104192
63	0xbe09941b	-0.13435404

experts.0.net.1.weight f4 [64]
0	0x3f7af16e	0.9802464
1	0x3f845c66	1.0340698
2	0x3f57cfa5	0.84301215
3	0x3fa5a92f	1.2942256
4	0x3f673bf1	0.9032584
5	0x3f72aac1	0.947918
6	0x3f86cd66	1.0531433
7	0x3f64784b	0.8924605
8	0x3f9a780b	1.2067884
9	0x3f95558b	1.1666731
10	0x3f914a6b	1.1350836
11	0x3f83908f	1.0278491
12	0x3f685ba7	0.9076485
13	0x3f8174ec	1.0113807
14	0x3f5f34c2	0.8718988
15	0x3f8efb62	1.1170466
16	0x3f80585d	1.0026966
17	0x3f7a8a41	0.9786721
18	0x3f897863	1.0739864
19	0x3f658cc9	0.89667946
20	0x3f87f85f	1.0622672
21	0x3f77c3ef	0.96783346
22	0x3f6f0b8e	0.93377006
23	0x3f6a51bc	0.91530967
24	0x3f8016cf	1.0006961
25	0x3f9df78e	1.2341173
26	0x3f9df27b	1.2339624
27	0x3f61c431	0.8818999
28	0x3f49bbfc	0.78802466
29	0x3f716e37	0.943088
30	0x3fad5648	1.3541956
31	0x3f880fb8	1.0629797
32	0x3f688a22	0.90835774
33	0x3f8f104b	1.1176847
34	0x3f59103b	0.8479039
35	0x3f878471	1.0587293
36	0x3f6983da	0.91216815
37	0x3f9705f0	1.1798687
38	0x3f9949d9	1.1975662
39	0x3f6221f4	0.8833306
40	0x3f77ac89	0.9674764
41	0x3f901bf0	1.1258526
42	0x3f6bf6cb	0.9217345
43	0x3f90c55a	1.1310227
44	0x3f7a8d97	0.978723
45	0x3f9fe180	1.2490692
46	0x3f94fe83	1.1640171
47	0x3f933b9d	1.1502568
48	0x3f867dea	1.0507176
49	0x3f6e02e9	0.9297319
50	0x3f62eea8	0.8864541
51	0x3f77321b	0.9656083
52	0x3f69d7cb	0.913449
53	0x3f793f03	0.97361773
54	0x3f8065cc	1.0031066
55	0x3f7040da	0.93848956
56	0x3f740f42	0.9533578
57	0x3f95740f	1.1676043
58	0x3f966a79	1.1751243
59	0x3f837967	1.0271424
60	0x3f7cbdce	0.9872712
61	0x3f92a45f	1.1456412
62	0x3fade532	1.358557
63	0x3f823106	1.0171211

experts.0.net.1.bias f4 [64]
0	0xbd2f789e	-0.04283964
1	0x3b4a281b	0.0030846659
2	0xbda4e507	-0.08051496
3	0x3db845f9	0.08997721
4	0xbe043b46	-0.12913236
5	0xbd72308c	-0.05912833
6	0xbbc6204c	-0.0060463306
7	0xbcd643cd	-0.026155377
8	0x3c7eb73f	0.015546619
9	0xbde2f016	-0.11080949
10	0x3dcc311a	0.09970303
11	0x3d9fd70c	0.07804689
12	0x3c9bebb6	0.019033294
13	0xbca0f12f	-0.019646255
14	0x3dd98099	0.10620231
15	0x3cac93f6	0.021066647
16	0xbd1f12a6	-0.038836144
17	0x3cea6d05	0.028616438
18	0x3d2fa6f1	0.042883817
19	0x3da80276	0.082035944
20	0x3cd5068c	0.026004098
21	0xbc932a82	-0.017964605
22	0xbdea9e3d	-0.11455963
23	0xbc7b99ca	-0.01535649
24	0xbccb0b9c	-0.02478581
25	0x3d724257	0.059145298
26	0x3d3fe25d	0.046846736
27	0xbddf7fb4	-0.10913029
28	0xbe353325	-0.17695291
29	0xbd1466f5	-0.036231
30	0x3dab1d90	0.08355248
31	0xbc3ff61f	-0.011716395
32	0x3e26be49	0.16283526
33	0xb8b6d92c	-8.718888e-05
34	0xbe04dff6	-0.1297606
35	0x3da4c81c	0.0804598
36	0xbdb861d3	-0.090030335
37	0xbdb1fef1	-0.08691204
38	0xbbbf5a37	-0.005839612
39	0xbdef464b	-0.11683329
40	0xbdf7978f	-0.120894544
41	0xbcac8e31	-0.021063896
42	0xbda3cdde	-0.079982504
43	0x3d917015	0.07101456
44	0xbd11593f	-0.035485502
45	0x3d3a8ba1	0.045543317
46	0xbd3afb57	-0.045649853
47	0x3d726e86	0.059187435
48	0x3c892a57	0.016743822
49	0xbd3f1666	-0.04665222
50	0xbdc956b3	-0.0983099
51	0xbdb7218c	-0.089419454
52	0xbdfb2ca7	-0.12264376
53	0x3d88190e	0.06645404
54	0x3e2ba83d	0.16763397
55	0x3dc1e5ac	0.094676346
56	0x3ca1a65c	0.019732647
57	0x3e04edbf	0.12981318
58	0x3d816b2b	0.06319269
59	0x3c5ed88b	0.013601433
60	0xb85e9d80	-5.3075608e-05
61	0x3d2d3c49	0.04229382
62	0x3cce7606	0.025202762
63	0xbd367ec4	-0.044554487

experts.0.net.3.weight f4 [64, 64]
0	0x3d9e13bc	0.07718608
1	0x3e097aa7	0.13425694
2	0xbdd19390	-0.102332234
3	0x3dac23f6	0.084052965
4	0xbd222f39	-0.039595816
5	0xbda3fc7f	-0.08007144
6	0x3cd13956	0.025540035
7	0x3cd6d757	0.026225729
8	0xbc69b204	-0.014263634
9	0x3bb1024b	0.0054018847
10	0xbde5b45f	-0.11216044
11	0xbdd4698e	-0.103716955
12	0x3d22502b	0.039627235
13	0x3bd605f4	0.0065314714
14	0x3d704970	0.058663785
15	0x3d78fbd1	0.060787026
16	0x3d8fb929	0.07017738
17	0x3c9b3bfc	0.018949501
18	0xbd66f715	-0.05638798
19	0xbd7efc39	-0.062252257
20	0x3d932678	0.07185072
21	0x3d3e3b19	0.04644308
22	0xbd060894	-0.032723024
23	0x3d32f21f	0.043687936
24	0x3d5f5c0f	0.054531153
25	0xbd5a56b5	-0.053305347
26	0x3d2edbce	0.04269009
27	0xbc0ca573	-0.008584368
28	0xbd2d6904	-0.04233648
29	0x3cabb241	0.020959022
30	0xbd0cef20	-0.034407735
31	0xbdaf1d12	-0.085504666
32	0x3dfafe62	0.12255551
33	0x3cb795a7	0.022410227
34	0x3e00b1dd	0.1256785
35	0xbe0a7f44	-0.1352511
36	0x3ddc21b6	0.10748617
37	0xbdbc11b0	-0.09183061
38	0xbd970bca	-0.073752955
39	0xbde59396	-0.112097904
40	0xbc1c3080	-0.009533048
41	0xbdc4933b	-0.095983945
42	0xbd6d4386	-0.057925723
43	0xbc2afd19	-0.01043632
44	0x3dde6195	0.10858456
45	0xbe1f2fae	-0.15545532
46	0xbd97af49	-0.0740648
47	0xbcb8f0ec	-0.022575818
48	0xbddb0b61	-0.1069553
49	0x3c38cd36	0.011279395
50	0xbc838b97	-0.016057773
51	0x3dfacf86	0.12246613
52	0xbde6132c	-0.112341255
53	0xbdb77f10	-0.08959782
54	0x3d302400	0.043003082
55	0xbe0877f3	-0.13327007
56	0x3daad0d4	0.08340612
57	0xbd5fcdb1	-0.054639522
58	0xbd275819	-0.0408555
59	0x3db8551d	0.09000609
60	0x3d02e5e9	0.03195754
61	0x3cc7e26b	0.024399957
62	0x3d343b4a	0.044001855
63	0xbd153f53	-0.036437344
64	0x3cf92f00	0.03041792
65	0x3c639b77	0.013892046
66	0x3c28ba7b	0.010298367
67	0xbb5df14b	-0.0033865746
68	0x3d8f9ebf	0.070127
69	0x3cd08bde	0.025457319
70	0xbd941864	-0.07231215
71	0x3cc6b05c	0.024254017
72	0xbe03dea5	-0.12877901
73	0xbe05e9e9	-0.13077511
74	0x3d7015b3	0.058614444
75	0xbdc019d4	-0.09379926
76	0x3c1c945c	0.009556856
77	0xbd2452a6	-0.040117882
78	0x3e07874e	0.13235208
79	0xbe458203	-0.19287877
80	0xbd5e0250	-0.054201424
81	0x3dd800de	0.105470404
82	0x3c3ae9e4	0.011408303
83	0x3c502814	0.012704868
84	0x3cdb9dca	0.026808638
85	0x3db4f83b	0.08836409
86	0xbc625076	-0.013813129
87	0xbdeccb4c	-0.11562213
88	0x3dc974e5	0.09836749
89	0xbd2ec293	-0.04266603
90	0x3ad12f69	0.0015959564
91	0x3c204c1f	0.009783774
92	0xbdcd2e13	-0.100185536
93	0x3e2b0d4a	0.16704288
94	0xbdf0395f	-0.11729693
95	0x3db89310	0.09012425
96	0xbd6b8840	-0.057502985
97	0x3d87e6b6	0.066358015
98	0x3d9fe7e4	0.078079015
99	0xbd2e3d44	-0.042538896
100	0xbb8a9199	-0.0042287824
101	0x3de7e918	0.11323756
102	0xbdad015b	-0.08447524
103	0xbc702b86	-0.014658814
104	0x3d2ef672	0.042715497
105	0xbd60d377	-0.05488917
106	0xbdd934e1	-0.10605789
107	0x37e76296	2.7583254e-05
108	0xbd60f1ce	-0.054918103
109	0xbdac2a58	-0.08406514
110	0x3dace8e6	0.08442859
111	0x3e032178	0.12805736
112	0xbd04b27f	-0.03239679
113	0xbe115f52	-0.14196518
114	0x3ca31f06	0.019912254
115	0x3dff980e	0.12480174
116	0x37c0239c	2.2904766e-05
117	0x3d8dbbee	0.0692061
118	0xbdc54a2d	-0.096332885
119	0xbda917eb	-0.08256515
120	0x3e063deb	0.13109557
121	0x3e14fa1d	0.14548536
122	0xbd295a9a	-0.04134617
123	0xbdafd0b5	-0.085847296
124	0xbd8ded91	-0.06930078
125	0xbcdd3c36	-0.02700625
126	0x3dde856b	0.10865291
127	0x3dfc6224	0.12323406
128	0x3c7ade7e	0.015311835
129	0xbd9ea5f6	-0.07746498
130	0xbc78cc8b	-0.015185486
131	0xbd673069	-0.056442652
132	0xbd973007	-0.07382207
133	0x3e0a4aef	0.13505147
134	0x3db45865	0.088059224
135	0x3d32a8bb	0.043617945
136	0xbd8f9b91	-0.07012094
137	0xbdc4acf4	-0.09603301
138	0x3c0e3351	0.008679227
139	0xbe1cf592	-0.15328053
140	0xbdaad0b3	-0.083405875
141	0xbe090a80	-0.13382912
142	0xbd13796c	-0.03600447
143	0xbe2fbd78	-0.1716212
144	0x3c818cbe	0.015814181
145	0x3d3cf788	0.0461345
146	0x3db6320a	0.08896263
147	0xbdc2d5b3	-0.09513416
148	0xbd1ed384	-0.038775936
149	0xbdaea783	-0.08528044
150	0x3daa8fc4	0.08328202
151	0xbd0e1964	-0.034692183
152	0x3da31d77	0.07964604
153	0x3c4d6b56	0.012537798
154	0xbd8c26bd	-0.06843326
155	0x3d6ebfb5	0.058288295
156	0xbd83747a	-0.064187005
157	0x3e047995	0.12937005
158	0x3d03db23	0.032191407
159	0x3dc978e6	0.09837513
160	0x3d6898bd	0.056786288
161	0x3bfa4603	0.0076377406
162	0x3dab3d02	0.08361246
163	0xbdf82188	-0.121157706
164	0x3dee79e5	0.11644343
165	0x3d947623	0.07249095
166	0xbdf798b5	-0.120896734
167	0x3d02e22b	0.03195397
168	0x3d9507d8	0.07276887
169	0x3deeb69d	0.116559245
170	0x3cee4161	0.02908391
171	0xba9e65ea	-0.0012084816
172	0xbd486fe0	-0.048934817
173	0xbe203ae8	-0.15647471
174	0xbdcb80e5	-0.09936694
175	0xbd8b037c	-0.06787774
176	0xbdb7142f	-0.089393966
177	0x3d6230ff	0.055222508
178	0x3cf43a41	0.029812934
179	0x3cf0e8df	0.029407917
180	0xbd9ec50f	-0.0775243
181	0xbd38ea58	-0.045145363
182	0x3cee48af	0.029087393
183	0x3c969f05	0.018386373
184	0x3df96b25	0.12178639
185	0x3d304b0c	0.04304032
186	0xbde16cac	-0.11007056
187	0x3dbc40c9	0.09192044
188	0x3ce13649	0.027491705
189	0x3d96dd44	0.07366422
190	0x3dfc829a	0.12329598
191	0xbdcc1f8f	-0.09966957
192	0x3dae34d9	0.08506174
193	0xbe02f1b7	-0.1278752
194	0xbd9d9ed1	-0.076963075
195	0x3d2c5f14	0.04208286
196	0xbdcf403b	-0.10119673
197	0x3d293cfc	0.041317925
198	0xbd4917e9	-0.049095068
199	0x3d86befe	0.065793976
200	0x3d696167	0.056977656
201	0x3d2ac48e	0.041691355
202	0x3c5289b9	0.012850218
203	0x3d5b7508	0.053578407
204	0xbcb487c0	-0.022037387
205	0x3c135467	0.008992291
206	0xbaeaf6e6	-0.0017926365
207	0x3db7b060	0.08969188
208	0xbd983d86	-0.0743361
209	0xbdf6b74b	-0.12046679
210	0x3d0a371d	0.033743966
211	0xbc4e3040	-0.012584746
212	0x3e1b2833	0.15152054
213	0x3dd7430c	0.10510835
214	0x3c88d5fe	0.016703602
215	0xbddb0f07	-0.106962256
216	0x3de0969e	0.10966228
217	0xbdaa1bb4	-0.08306065
218	0x3d81e8ea	0.06343253
219	0x3d47b8e9	0.04876033
220	0x3da721a2	0.08160712
221	0xbd721275	-0.059099633
222	0xbe061e0d	-0.13097401
223	0x3dd3bf9b	0.1033928
224	0x3d210f01	0.03932095
225	0x3bef4e0c	0.007303005
226	0x3d898d6c	0.06716427
227	0xbdced0d8	-0.100984275
228	0x3c874455	0.016512075
229	0x3d986136	0.074404165
230	0xbd65d315	-0.056109507
231	0xbdf113fa	-0.11771388
232	0xbc07b793	-0.008283514
233	0xbb464f11	-0.003025953
234	0x3dbf9d14	0.09356132
235	0xbcf15d20	-0.02946335
236	0xbc6f76c2	-0.014615716
237	0xbe043afc	-0.12913126
238	0xbb8feca0	-0.0043922216
239	0x3d25c0f7	0.04046723
240	0x3dbe01a5	0.092776574
241	0x3e078906	0.13235864
242	0xbe067886	-0.13131914
243	0xbd4df26f	-0.05028003
244	0x3d387eda	0.04504285
245	0xbdf1a36d	-0.11798749
246	0xbd32d88d	-0.04366355
247	0xbdc6dab2	-0.097096816
248	0x3ce7cbe9	0.028295474
249	0xbd30f594	-0.04320295
250	0xbdb4fc8b	-0.08837231
251	0x3c84cc79	0.016210781
252	0x3ce4c47a	0.027925719
253	0xbdc7932c	-0.09744868
254	0x3e26c0bd	0.16284461
255	0x3d8c2747	0.06843429

experts.0.net.3.bias f4 [64]
0	0x3e18dd42	0.14928153
1	0x3cb395b7	0.021921976
2	0xbd7cbbc1	-0.061702494
3	0xbc1ab4c9	-0.009442517
4	0x3c80d8e9	0.01572843
5	0xbd113e2e	-0.03545969
6	0x3e0c97aa	0.1372973
7	0x3dac89c4	0.08424714
8	0xbdd19b51	-0.102347024
9	0xbde9968e	-0.11405669
10	0x3d1b569e	0.0379244
11	0xbdac956b	-0.08426937
12	0xbd0d3c25	-0.034481186
13	0x3dadb488	0.08481699
14	0x3d80d753	0.0629107
15	0x3ccc55d4	0.02494327
16	0xbd8acbf3	-0.067771815
17	0xbd7d4f4a	-0.061843194
18	0xbe079f7e	-0.13244435
19	0xbd4e60a8	-0.050385147
20	0xbbfb5034	-0.007669473
21	0xbd50aaf7	-0.050944295
22	0x3d106314	0.03525074
23	0x3dc0a428	0.0940631
24	0xbe163563	-0.14668803
25	0x3e1665d2	0.14687279
26	0xbe2675bc	-0.1625585
27	0xbd574ea0	-0.052565217
28	0x3da1563f	0.07877778
29	0x3d615247	0.055010106
30	0xbc582b51	-0.013193921
31	0xbcf01bfb	-0.029310217
32	0x3dca8d3c	0.098902196
33	0x3d70581f	0.05867779
34	0xbcbf5acb	-0.023358723
35	0xbd832671	-0.064038165
36	0xbb823e5e	-0.00397472
37	0x3db4c9ad	0.08827529
38	0xbdc3cde9	-0.095607586
39	0xbda4b14a	-0.08041628
40	0x3ca9a4d9	0.020708488
41	0x3e14aba4	0.145186
42	0x3c23a142	0.009987177
43	0xbd4ffadc	-0.050776348
44	0xbcbadc9d	-0.022810275
45	0xbd6ad063	-0.05732764
46	0xbc6daad4	-0.014506061
47	0xbd6f2ff2	-0.058395334
48	0xbd32f2f8	-0.043688744
49	0x3d9bbd71	0.076044925
50	0x3df57cb4	0.11986676
51	0xbde4f8db	-0.11180278
52	0x3e185404	0.148758
53	0x3dad9575	0.08475772
54	0xbe3120ed	-0.17297716
55	0x3aa206a1	0.0012361595
56	0x3cd6bd81	0.02621341
57	0xbd02a415	-0.031894762
58	0x3db7a1f0	0.08966434
59	0x3dbe78cb	0.09300383
60	0xbd79bc2f	-0.06097048
61	0x3dfcefe6	0.123504445
62	0x3ddb46c0	0.10706854
63	0x3cfd845a	0.0309469

experts.0.net.4.weight f4 [64]
0	0x3f7d6871	0.9898749
1	0x3f615d6e	0.8803319
2	0x3f73a713	0.9517681
3	0x3f5b8e38	0.85763884
4	0x3f6461e6	0.8921188
5	0x3f6e1812	0.9300548
6	0x3f920624	1.1408124
7	0x3f4d5ea2	0.80222523
8	0x3f49b45f	0.7879085
9	0x3f9f21e5	1.2432219
10	0x3f53cf96	0.82738626
11	0x3f7ad9ef	0.9798879
12	0x3f725162	0.9465543
13	0x3f90bd90	1.130785
14	0x3f739a09	0.95156914
15	0x3f9138fd	1.1345516
16	0x3f8eeb6d	1.1165596
17	0x3f97ed69	1.1869327
18	0x3f5dd188	0.86647844
19	0x3f53077b	0.8243329
20	0x3f7506c8	0.9571347
21	0x3f836d69	1.0267764
22	0x3f804b21	1.0022928
23	0x3f7e62ef	0.9936971
24	0x3f6595e8	0.89681864
25	0x3f9ec3f2	1.2403548
26	0x3f872b0a	1.056001
27	0x3f82c02f	1.02149
28	0x3f95b11f	1.1694678
29	0x3f8afdeb	1.085874
30	0x3f73b1dc	0.95193267
31	0x3f83679b	1.0265993
32	0x3f9bd9e2	1.2175868
33	0x3f7b1758	0.98082495
34	0x3f67d49f	0.9055881
35	0x3f59ebcc	0.8512542
36	0x3f6dd109	0.9289709
37	0x3f4879fc	0.78311133
38	0x3f38fcb8	0.7226062
39	0x3f7487aa	0.95519507
40	0x3f81e0a3	1.0146679
41	0x3f95f982	1.1716769
42	0x3f573c54	0.8407643
43	0x3f83aca1	1.0287057
44	0x3f6d266c	0.9263675
45	0x3f8613b1	1.0474759
46	0x3f7dcc98	0.9914031
47	0x3f8f2856	1.1184185
48	0x3f807198	1.0034666
49	0x3f87f7a7	1.0622452
50	0x3f8c927a	1.0982201
51	0x3f884089	1.0644695
52	0x3f77fcf7	0.9687037
53	0x3f91aa56	1.1380107
54	0x3f9932d2	1.1968634
55	0x3f6af04c	0.91772914
56	0x3f8e6259	1.1123763
57	0x3f9ec6c3	1.2404407
58	0x3f8c0110	1.0937824
59	0x3f8ced27	1.1009873
60	0x3f40e08f	0.7534265
61	0x3fa2bcfd	1.2713925
62	0x3f6549d9	0.8956581
63	0x3f7e66b7	0.9937548

experts.0.net.4.bias f4 [64]
0	0xbda69ede	-0.0813577
1	0xbd0c466f	-0.03424686
2	0xbc8d12d8	-0.0172209
3	0xbd9c943c	-0.07645461
4	0xbdc37533	-0.09543838
5	0xbd7d702b	-0.06187455
6	0xbd4a89d4	-0.04944785
7	0xbd31848d	-0.0433393
8	0xbdbeb9e8	-0.093128026
9	0xbcaaf442	-0.020868424
10	0xbd80647f	-0.06269168
11	0xbd32e14f	-0.043671902
12	0xbd19b37b	-0.03752468
13	0x3c7659db	0.015036072
14	0xbdc21c26	-0.09478025
15	0xbd1978e8	-0.03746882
16	0xbd738fb2	-0.05946321
17	0xbd8a575e	-0.06754945
18	0xbdacbc74	-0.08434382
19	0xbd9b2261	-0.07574917
20	0xbd018045	-0.031616468
21	0xbdb21dfd	-0.08697126
22	0xbd6fc8a9	-0.058540974
23	0xbd13ba09	-0.03606609
24	0xbd6509fb	-0.05591772
25	0xbad54bf8	-0.0016273251
26	0xbd6ae38a	-0.057345904
27	0xbd143686	-0.03618481
28	0xbd116761	-0.03549898
29	0xba33dac4	-0.0006860907
30	0xbc9da54d	-0.01924386
31	0xbca0e05d	-0.019638235
32	0xbcfa017a	-0.030518282
33	0xbcf86ff0	-0.030326813
34	0xbd28b4ab	-0.041187923
35	0xbd945c42	-0.07244159
36	0xbdb58605	-0.08863453
37	0xbde94e9a	-0.11391945
38	0xbde57ea8	-0.112057984
39	0xbd9d838b	-0.076911055
40	0xbdad7c4e	-0.08470975
41	0xbd621a03	-0.055200588
42	0xbd55612b	-0.05209462
43	0xbd75566b	-0.059896868
44	0xbd352f19	-0.04423437
45	0x3cd6bfd9	0.026214527
46	0xbd8d0455	-0.06885592
47	0xbd83fd38	-0.06444782
48	0xbdca8141	-0.098879345
49	0xbd5fc666	-0.054632567
50	0xbd40e6ad	-0.04709499
51	0xbd09b377	-0.033618417
52	0xbd6353f2	-0.05549998
53	0xb8cda640	-9.806128e-05
54	0xbd678c4e	-0.05653029
55	0xbd191683	-0.037374984
56	0xbd58df0e	-0.052947097
57	0xbd282253	-0.04104836
58	0xbd62ff84	-0.05541946
59	0xbe1e09ee	-0.15433475
60	0xbd895cbe	-0.06707142
61	0xbcf56412	-0.029954944
62	0xbd7c8238	-0.061647624
63	0xbdaab5f1	-0.08335484

experts.0.net.6.weight f4 [64, 64]
0	0xbdc8f528	-0.09812385
1	0xbd820e72	-0.063504115
2	0x3d6a03c9	0.057132516
3	0xbdcb2625	-0.09919385
4	0xbd9b6751	-0.075880654
5	0xba0dff95	-0.0005416808
6	0xbdeaf60b	-0.1147271
7	0xbd8b487c	-0.06800935
8	0x3c3a397a	0.011366243
9	0xbce290c6	-0.027656924
10	0xbb94c514	-0.004540095
11	0x3c7f61e5	0.015587305
12	0xbd6608e7	-0.056160834
13	0xbd3a7cd5	-0.045529205
14	0xbdb613b6	-0.08890478
15	0xbd85eda7	-0.06539469
16	0x3dc52a73	0.09627237
17	0xbd8c9874	-0.068650156
18	0x3bcdf178	0.006284889
19	0x3ddd724f	0.10812818
20	0xbaa93f5f	-0.0012912563
21	0xbdbe00c1	-0.092774875
22	0x3d9d4cf7	0.076806955
23	0x3b06a0f6	0.0020542718
24	0x3da67c1d	0.081291415
25	0xbdec6207	-0.11542135
26	0x3de833cd	0.11338005
27	0x3e0a398f	0.1349852
28	0x3e13b274	0.14423543
29	0x3dd8e8f0	0.10591304
30	0xbddff873	-0.1093606
31	0x3da7d0aa	0.081940964
32	0x3d64040b	0.05566792
33	0x3e1af8db	0.15133993
34	0x3cda079b	0.026614955
35	0xbd6585c5	-0.056035776
36	0x3d8661b4	0.06561604
37	0xbdfd7350	-0.1237551
38	0x3d1d358a	0.038381137
39	0x3cb6abfa	0.022298802
40	0xbdef577a	-0.11686607
41	0x3d884d19	0.0665533
42	0x3d9ed3f9	0.07755274
43	0x3c3a2d99	0.01136341
44	0xbca44de3	-0.02005667
45	0x3b3355fc	0.0027364483
46	0x3d8b2f8d	0.06796179
47	0xbc502ba7	-0.01270572
48	0x3c702a20	0.014658481
49	0xbc7e09d1	-0.01550527
50	0x3d4e92f1	0.050433103
51	0x3da907ef	0.08253466
52	0x3c82009c	0.015869431
53	0x3e0c257d	0.13686176
54	0xbd01d1ca	-0.03169421
55	0x3cdb24fc	0.026751034
56	0x3de84d4d	0.11342869
57	0xbd02b109	-0.031907115
58	0x3d5fbafc	0.05462168
59	0xbd1752d4	-0.036944225
60	0xbd6b5df5	-0.05746265
61	0xbd83cea6	-0.064358994
62	0x3d83ed83	0.06441786
63	0xbde4b84c	-0.11167964
64	0xbc8f713d	-0.01751005
65	0x3dd8a120	0.10577607
66	0x3cd532bd	0.02602517
67	0xbd65cbfc	-0.056102738
68	0xbdfbbdce	-0.12292062
69	0xbd815bba	-0.063163236
70	0x3de0bc4d	0.109734155
71	0x3d04bf32	0.0324089
72	0xbdec73b8	-0.11545509
73	0xbe17e64c	-0.14833945
74	0x3da52fe0	0.08065772
75	0xbe435229	-0.1907431
76	0xbddfa95c	-0.109209746
77	0xbdd437da	-0.10362215
78	0xbdcf1662	-0.10111691
79	0x3e175be1	0.14781143
80	0xbdc57aa4	-0.096425325
81	0x3d852738	0.06501621
82	0xbda4cf28	-0.080473244
83	0xbd7abb78	-0.06121394
84	0xbc15dd4a	-0.009146998
85	0xbdf97e7d	-0.12182329
86	0xbde44c1e	-0.11147331
87	0xbd82e216	-0.06390779
88	0xbe1c2641	-0.15248968
89	0x3df28143	0.11841061
90	0x3dae1810	0.08500683
91	0xbd6595c1	-0.05605102
92	0x3e2741a3	0.16333632
93	0xbdcc660f	-0.09980404
94	0x3d4039b5	0.046930034
95	0xbd8c5acf	-0.06853258
96	0xbdfa110d	-0.122102834
97	0xbe0011c7	-0.12506782
98	0x3dfa492c	0.12220988
99	0x3d724cf8	0.059155434
100	0xbd8ee9c1	-0.06978179
101	0x3d49502e	0.04914873
102	0xbd8c5738	-0.06852573
103	0x3d4e8a34	0.05042477
104	0x3d2f3d3d	0.04278301
105	0x3e77d4bb	0.24202244
106	0x3da6b380	0.08139706
107	0x3c91e3b1	0.017808767
108	0x3c9f2d32	0.01943073
109	0xbcf1399c	-0.029446416
110	0xbd26dd12	-0.040738173
111	0x3d833081	0.06405736
112	0xbd40695d	-0.046975482
113	0x3cb4ead4	0.022084631
114	0xbd84dd96	-0.06487577
115	0x3d87715e	0.0661342
116	0x3d3ec2ef	0.046572622
117	0x3d38ee4e	0.04514914
118	0x3d368509	0.044560466
119	0xbdb9d9b5	-0.090747274
120	0xbe218cfd	-0.15776439
121	0x3e46d62c	0.19417638
122	0x3d564299	0.052309606
123	0x3e32908f	0.17437957
124	0xbd537a2b	-0.05163018
125	0x3eb72e39	0.35777453
126	0x3dddb653	0.10825791
127	0x3d79a396	0.060947023
128	0x3ddf65aa	0.10908063
129	0x3da6b68e	0.08140288
130	0xbd825e2d	-0.06365619
131	0xbc26b1e6	-0.01017425
132	0x3dc66986	0.09688096
133	0x3d51878f	0.05115467
134	0x3e056d2f	0.13029931
135	0x3d5f2e1d	0.054487336
136	0xbd2966b9	-0.04135773
137	0xbe45f2f9	-0.19330968
138	0x3c8bf476	0.017084341
139	0x3ca53fef	0.020172087
140	0x3cc692cc	0.02423992
141	0xbdcbdef1	-0.09954632
142	0xbd0085a8	-0.031377465
143	0xbe0c62e9	-0.13709606
144	0xbcdb5114	-0.02677206
145	0xbd1231b0	-0.035691917
146	0x3d0e24da	0.034703113
147	0xbd17b472	-0.03703732
148	0x39d45b01	0.00040503594
149	0x3c5e01b3	0.01355021
150	0x3c9805ed	0.018557513
151	0xbda5bca4	-0.08092621
152	0xbdc803c4	-0.09766343
153	0x3e1ced2b	0.15324847
154	0xbd9224fc	-0.071359605
155	0xbd151c77	-0.0364041
156	0xbd500469	-0.050785456
157	0x3de6835c	0.112555236
158	0xbd2c5abd	-0.042078722
159	0xbd9bde13	-0.07610717
160	0xbd8c9e79	-0.06866164
161	0x3de9cd48	0.114161074
162	0xbd2fc54a	-0.04291276
163	0xbd5f239b	-0.054477315
164	0xbbc444a7	-0.0059896293
165	0xbd4a4ef1	-0.04939169
166	0x3c0aa583	0.008462313
167	0x3d5190d9	0.051163528
168	0xbc3de852	-0.011591034
169	0xbc114f1f	-0.008868962
170	0xbd538d57	-0.051648464
171	0xbe14c571	-0.14528443
172	0x3e0ea303	0.13929372
173	0x3d4cec65	0.05003013
174	0xbd9b6150	-0.0758692
175	0x3d9e5a4b	0.07732066
176	0x3cfdc3d4	0.030977167
177	0xbca0acbd	-0.019613618
178	0x3ce666e5	0.028125236
179	0x3d5aba45	0.053400297
180	0x3df5aa88	0.11995417
181	0xbc6e9fb6	-0.014564445
182	0xbc899a71	-0.016797276
183	0x3d243026	0.04008498
184	0xbd696aba	-0.056986548
185	0x3db99d54	0.09063211
186	0xbdb4ec6a	-0.08834155
187	0x3da10b89	0.07863528
188	0x3cf09c1a	0.02937131
189	0x3d0c7e90	0.034300387
190	0x3dce38cb	0.10069426
191	0x3d24c492	0.040226527
192	0xbcbbefe9	-0.022941547
193	0x3da4243f	0.08014726
194	0x3dc75769	0.09733469
195	0xbc9149e5	-0.017735431
196	0xbe40a87f	-0.18814276
197	0x3dfa4733	0.122206114
198	0x3d1dad96	0.038495623
199	0xbe208fb6	-0.15679821
200	0x3c7a86ce	0.015290929
201	0x3e262f10	0.1622889
202	0x3de4b625	0.11167554
203	0x3c815203	0.015786177
204	0x3d80017c	0.06250283
205	0x3e5482b7	0.20752989
206	0x3df75400	0.120765686
207	0xbe1a761e	-0.1508412
208	0xbd5f6655	-0.05454095
209	0xbe4bd644	-0.19905955
210	0x3d874abe	0.06606053
211	0xbd33fcd4	-0.043942288
212	0x3c58be82	0.013229014
213	0x3de06e88	0.10958582
214	0x3e3c1519	0.18367423
215	0xbd557124	-0.052109852
216	0xbdadd6b7	-0.08488219
217	0xbdf4a277	-0.1194505
218	0xbd1917d4	-0.03737624
219	0x3db208ec	0.08693108
220	0xbdcce07d	-0.10003755
221	0x3d366e91	0.044539038
222	0x3c1bb514	0.009503622
223	0x3de1f63e	0.11033295
224	0x3d815f0c	0.06316957
225	0x3e8f8d51	0.28037503
226	0x3db4c6b1	0.0882696
227	0x3d39ae96	0.045332514
228	0x3e32872f	0.17434381
229	0xbd86e859	-0.065872855
230	0x3d3fe7ab	0.046851795
231	0xbdafda44	-0.08586553
232	0xbe6bd027	-0.23028623
233	0xbe708cb5	-0.23491175
234	0xbc598d50	-0.01327832
235	0xbc302dcd	-0.010753107
236	0xbe0f8471	-0.14015366
237	0x3e25bdea	0.16185728
238	0x3c223093	0.009899276
239	0xbe5dd892	-0.21664646
240	0xbd466170	-0.048432767
241	0xbd4a5d24	-0.049405232
242	0x3ea5fd94	0.32420027
243	0x3dc3b125	0.09555272
244	0xbb9853c2	-0.0046486566
245	0xbc1c4ffd	-0.009540555
246	0x3d09ad11	0.033612315
247	0x3dc2f48e	0.09519301
248	0x3e843a1f	0.25825593
249	0x3bc07cd9	0.005874258
250	0xbe3bc7d8	-0.18337953
251	0xbdfa5e98	-0.122250736
252	0xbd31e996	-0.043435656
253	0xbdd9e691	-0.1063968
254	0x3bd86396	0.0066036684
255	0xbe21ce84	-0.15801436

experts.0.net.6.bias f4 [64]
0	0x3d88ce3d	0.06679962
1	0xbd3893ef	-0.045062955
2	0x3d0b02bc	0.033938155
3	0x3deb27e6	0.114822194
4	0x3b739ebb	0.0037173468
5	0xbd0b2e25	-0.033979554
6	0xbd9109a0	-0.07081914
7	0xbd85406d	-0.06506429
8	0x3d56f527	0.05247989
9	0x3c89933b	0.016793838
10	0xbd832b2e	-0.0640472
11	0xbddc533d	-0.10758064
12	0x3cbf6fdb	0.023368767
13	0x3d38f850	0.045158684
14	0x3d2947cc	0.041328236
15	0xbda2ba1c	-0.07945654
16	0xbd2c1012	-0.042007513
17	0xbd299ab3	-0.0414073
18	0x3d394b00	0.04523754
19	0x3dd55afd	0.10417745
20	0xbda9a6ea	-0.082837895
21	0xbb88a0a6	-0.0041695414
22	0x3c930d72	0.017950747
23	0xbdbc8a67	-0.09206086
24	0xbca9b05b	-0.020713976
25	0xbdcb8d04	-0.09939006
26	0x3aa748a1	0.0012762734
27	0xbc9bc5b6	-0.019015174
28	0xbda5ef4e	-0.08102284
29	0xbd904d81	-0.07046033
30	0xbcb4162d	-0.02198323
31	0xbdc3ef07	-0.09567075
32	0xbdd81e9a	-0.10552712
33	0x3ce95b4e	0.02848592
34	0x3d4044e7	0.04694071
35	0xbce7d239	-0.028298484
36	0x3d78c9bb	0.06073926
37	0xbd38a192	-0.04507596
38	0xbd9372bf	-0.071996205
39	0x3d852fd2	0.065032616
40	0x3d6d627a	0.057955243
41	0xbdd1adee	-0.102382526
42	0x3d112274	0.035433248
43	0xbd40776d	-0.046988893
44	0xbd199c0b	-0.03750233
45	0xbdfe932d	-0.12430415
46	0xbd20eba2	-0.039287217
47	0xbcbbfe84	-0.022948511
48	0xbc8d44d5	-0.017244736
49	0x3db625f5	0.088939585
50	0xbd91583c	-0.070969075
51	0x3dc721fe	0.0972328
52	0x3d26b6df	0.040701743
53	0xbc17e649	-0.009271213
54	0x3d9e3c2c	0.077263206
55	0xbd73b307	-0.059496906
56	0xbd8dc0b3	-0.0692152
57	0xbd7feba2	-0.062480576
58	0xbce4c521	-0.02792603
59	0xbdb67dbd	-0.089107014
60	0xbc91dab1	-0.017804476
61	0xbd855ddf	-0.06512045
62	0xbcaf5fd8	-0.021408007
63	0x3d211a54	0.03933175

experts.0.net.7.weight f4 [64]
0	0x3f7886b7	0.9708056
1	0x3fc527ea	1.5402806
2	0x3f8b3f98	1.0878782
3	0x3f67ecf0	0.9059591
4	0x3f826b06	1.0188911
5	0x3f8cf657	1.1012677
6	0x3f79cf16	0.97581613
7	0x3f81a9de	1.0129964
8	0x3f5841f2	0.84475625
9	0x3f91f1fc	1.1401973
10	0x3f7aa83b	0.9791295
11	0x3f8ad26b	1.0845464
12	0x3f810b9b	1.0081667
13	0x3f724471	0.94635683
14	0x3f95fdd9	1.1718093
15	0x3f7afb52	0.98039734
16	0x3fad1455	1.352183
17	0x3f91ec88	1.1400309
18	0x3f757cae	0.9589337
19	0x3f9229f5	1.1419054
20	0x3f85d80e	1.045656
21	0x3f71b5b3	0.94417876
22	0x3f778cd3	0.96699256
23	0x3f8d4560	1.1036797
24	0x3f7e67f3	0.99377364
25	0x3f8610a1	1.0473825
26	0x3f6a1fae	0.9145459
27	0x3f6824c9	0.9068113
28	0x3f90ec7f	1.1322173
29	0x3f9a9b0c	1.2078567
30	0x3f819f1d	1.0126683
31	0x3f72b870	0.9481268
32	0x3f85aa81	1.0442659
33	0x3f84e05b	1.0380968
34	0x3f9489ca	1.160455
35	0x3f90347e	1.1266019
36	0x3f6c7132	0.9236022
37	0x3f6ead9d	0.9323366
38	0x3f87ea3e	1.061836
39	0x3f85f5cb	1.0465635
40	0x3f828953	1.0198158
41	0x3f9ba8d8	1.2160902
42	0x3f7c514f	0.9856157
43	0x3f6b956f	0.9202489
44	0x3f9c161b	1.2194246
45	0x3f99d876	1.2019184
46	0x3f81442d	1.0098931
47	0x3f6df332	0.9294921
48	0x3f843cab	1.0331014
49	0x3f71f39b	0.9451234
50	0x3f6a5671	0.9153815
51	0x3f72f034	0.9489777
52	0x3f87e969	1.0618106
53	0x3f8f438d	1.119249
54	0x3f7a386f	0.9774236
55	0x3f75c0ff	0.95997614
56	0x3f6fd870	0.9368963
57	0x3f76a39c	0.963434
58	0x3f88dd41	1.0692521
59	0x3f7a3190	0.97731876
60	0x3f8e3040	1.1108475
61	0x3f9ba77a	1.2160485
62	0x3f56ac3f	0.83856577
63	0x3faeb61d	1.3649327
