checkpoints/checkpoint_7000.pt (torch, 38432 bytes, 8 tensors)

net.0.weight f4 [64, 3]
0.046078973 -0.0003689828 -0.0041433144 0.79599035 -0.20380433 0.08954692 -0.032991037 -0.011870999
0.0033728394 0.204077 -0.01573071 0.016553873 -0.14001636 0.3785889 0.21819688 -0.49982482
-1.4779501 0.53741753 -0.26304033 -0.006796911 -0.032914374 1.3339083 -0.96281815 -0.52144104
0.034695033 -0.005931015 -0.00010455353 0.0027163106 -0.03345098 -0.028914968 0.008210605 -0.009955555
-0.00398946 0.75306296 -0.07310088 -0.0008049015 0.6648692 -0.0053845644 0.21054988 0.90849805
-0.03644843 0.29398718 -0.82266134 0.9260482 0.071574666 0.7546774 0.10625472 0.7962463
-0.5076617 -0.012673328 -0.049393915 0.3877293 0.86329967 0.94793594 -0.8252157 0.2841899
1.2478539 0.021672565 -0.00426338 0.0015382313 -1.4151083 0.1674898 1.1833987 0.031725746
0.113321766 0.03952869 -0.19333874 0.8055675 -0.17241547 -0.0011531855 0.016742146 0.048243
0.31941825 -0.061285652 -0.100570224 -0.93142486 0.8427632 -0.7328899 0.022742605 -0.063563585
-0.031335548 0.71070963 0.041681275 -0.016515752 -0.976513 -1.633639 1.1217519 -1.0911182
0.06821448 0.018936014 0.6662875 -0.6842667 0.27852282 -1.0281578 0.72157073 -0.66670614
0.22044641 0.05912251 -0.13076466 -0.0046516233 -0.03052087 -0.028731098 1.1450863 -0.5062007
-0.520481 0.76986897 0.10677491 -0.16509895 -0.1811138 -0.39837593 -0.059624877 1.4162191
-0.07172628 -0.739199 0.66791093 0.37975913 0.27640572 -0.45000333 -0.6475725 -0.9914917
0.055422764 -0.0054375837 0.0057357503 -0.12597595 -0.013544228 0.08531486 0.3246955 -0.0059508528
-0.016127175 -0.8669749 -0.0365651 -0.0064082243 -0.18772909 -0.004254392 0.010920151 0.1380099
-0.560754 -0.9273915 0.5037132 0.114652134 0.014932573 -1.3267486 0.72749895 1.6588385
0.357114 -0.13196671 0.13596372 0.720181 -0.37447932 0.021340331 -0.4254649 0.3555208
-1.0881038 0.49345833 -0.5009521 0.3427111 -0.21931808 0.0035476903 0.0092682745 0.1192427
0.008728225 0.0023523285 -0.05073743 0.22954446 -1.1683757 1.0924882 -0.18689416 1.0432914
-0.96953887 0.07636166 -0.02161279 0.6414176 -0.034240544 -0.030666465 -0.6767082 0.7210836
-0.05308173 0.6476482 -0.6997622 0.46295837 0.74327666 -0.00074703025 -0.14000344 -0.25143543
-2.5312095 0.2191649 0.91797036 0.28691438 1.1032761 0.29058793 -0.52716726 -0.64085346
00000000: 4ebd 3c3d 0874 c1b9 a4c4 87bb 06c6 4b3f
00000010: 15b2 50be 6064 b73d 9c21 07bd 947e 42bc
00000020: db0a 5d3b 90f9 503e b1dd 80bc fd9b 873c
00000030: 7360 0fbe 68d6 c13e 016f 5f3e 0ae9 ffbe
00000040: 782d bdbf 3294 093f 39ad 86be 9fb8 debb
00000050: 39d1 06bd 82bd aa3f 407b 76bf 297d 05bf
00000060: 611c 0e3d f658 c2bb c043 dbb8 2104 323b
00000070: e503 09bd 15df ecbc c685 063c a01c 23bc
00000080: 04ba 82bb bcc8 403f eab5 95bd 0600 53ba
00000090: de34 2a3f 0071 b0bb 639a 573e 5493 683f
000000a0: f34a 15bd 7d85 963e ef99 52bf 7f11 6d3f
000000b0: bd95 923d 8a32 413f 139c d93d ccd6 4b3f
000000c0: 1ef6 01bf caa3 4fbc 4651 4abd 7484 c63e
000000d0: 3501 5d3f eeab 723f 5641 53bf 5781 913e
000000e0: adb9 9f3f aa8a b13c d3b3 8bbb 7a9e c93a
000000f0: 4522 b5bf 7282 2b3e 9c79 973f dbf2 013d
00000100: 3e15 e83d d6e8 213d 97fa 45be ac39 4e3f
00000110: ae8d 30be 7c26 97ba d326 893c 749a 453d
00000120: ca8a a33e aa06 7bbd c3f7 cdbd dc71 6ebf
00000130: 54bf 573f ac9e 3bbf b34e ba3c a02d 82bd
00000140: b459 00bd 11f1 353f fcb9 2a3d 0b4c 87bc
00000150: c2fc 79bf 151b d1bf 9195 8f3f c3a9 8bbf
00000160: 09b4 8b3d b31f 9b3c d191 2a3f 1a2c 2fbf
00000170: 8b9a 8e3e ad9a 83bf dcb8 383f 41ad 2abf
00000180: b4bc 613e 722a 723d 2ce7 05be a56c 98bb
00000190: e706 fabc 7b5d ebbc 3092 923f 5e96 01bf
000001a0: 3e3e 05bf 2216 453f ceac da3d b30f 29be
000001b0: e575 39be eef7 cbbe 3739 74bd ab46 b53f
000001c0: 3ae5 92bd 253c 3dbf 36fc 2a3f ca6f c23e
000001d0: 0d85 8d3e d666 e6be 50c7 25bf 66d2 7dbf
000001e0: fb02 633d c22d b2bb f6f2 bb3b d7ff 00be
000001f0: 9ce8 5dbc 8fb9 ae3d 7d3e a63e 5fff c2bb
00000200: 231d 84bc 11f2 5dbf 49c5 15bd 15fc d1bb
00000210: 0e3c 40be 6d68 8bbb 6fea 323c 7852 0d3e
00000220: 938d 0fbf 8869 6dbf 59f3 003f bdce ea3d
00000230: c0a7 743c e6d2 a9bf 5f3d 3a3f d254 d43f
00000240: a5d7 b63e 4822 07be 133a 0b3e c85d 383f
00000250: c1bb bfbe ebd1 ae3c 89d6 d9be d306 b63e
00000260: fc46 8bbf 92a6 fc3e 663e 00bf d477 af3e
00000270: eb94 60be 5e80 683b f6d9 173c 8435 f43d
00000280: d400 0f3c 8629 1a3b 0dd2 4fbd b40d 6b3e
00000290: 568d 95bf a7d6 8b3f 2f61 3fbe 938a 853f
000002a0: b333 78bf 8163 9c3d 4e0d b1bc f233 243f
000002b0: d03f 0cbd 3d38 fbbc c03c 2dbf ef98 383f
000002c0: 3a6c 59bd 46cc 253f 9e23 33bf e108 ed3e
000002d0: 6147 3e3f 5ad4 43ba 105d 0fbe 25bc 80be
000002e0: 56ff 21c0 c36c 603e 1b00 6b3f 71e6 923e
000002f0: 2738 8d3f f1c7 943e 6ff4 06bf f90e 24bf

net.0.bias f4 [64]
-0.020041745 -0.5852211 -0.05916086 -0.14198497 -0.32665113 -0.20923586 0.21938284 -0.6962123
0.016305957 0.0059323953 0.0026874077 -0.64595646 -0.67116064 -0.9072085 -0.46364972 -0.77122056
0.44904527 -0.86369437 -0.027036542 -0.010342919 0.64655083 -0.14590241 -0.7201633 0.017473264
-0.2365582 -0.13125825 0.03526786 -0.650251 0.061609484 0.88558406 0.060363937 0.87054414
-0.15702842 -0.022415271 -0.73282135 -0.6765273 0.10784918 -0.8495883 -0.9507904 0.30462754
0.023852216 0.06288532 -0.25303897 0.72492224 0.1634009 -0.073046535 -0.5705277 -0.08990502
-0.28814998 -0.43548164 -0.3105234 -0.039350085 0.1799871 -0.10529765 -0.4894076 -0.7054109
0.77950925 -0.53703207 -0.2501206 0.05949832 -0.61838853 -0.66291857 -0.936226 0.28755435
00000000: 962e a4bc 0dd1 15bf a852 72bd 8264 11be
00000010: d13e a7be ed41 56be e5a5 603e f83a 32bf
00000020: 1294 853c 8a64 c23b 381f 303b 675d 25bf
00000030: 2fd1 2bbf d13e 68bf 7f63 edbe b66e 45bf
00000040: 43e9 e53e 131b 5dbf bd7b ddbc 5975 29bc
00000050: 5b84 253f 7167 15be 9f5c 38bf 1724 8f3c
00000060: 503c 72be 9068 06be 0875 103d d976 26bf
00000070: 3a5a 7c3d a3b5 623f 2d40 773d fbdb 5e3f
00000080: 0fcc 20be 3ba0 b7bc 2e9a 3bbf e530 2dbf
00000090: 08e0 dc3d 9e7e 59bf 0067 73bf 24f8 9b3e
000000a0: b965 c33c 05ca 803d 538e 81be 8194 393f
000000b0: 9152 273e 6c99 95bd 1a0e 12bf 2020 b8bd
000000c0: 6588 93be 73f7 debe ecfc 9ebe 8e2d 21bd
000000d0: 8a4e 383e 4ba6 d7bd a293 fabe cf95 34bf
000000e0: eb8d 473f ef7a 09bf cf0f 80be 83b4 733d
000000f0: b64e 1ebf 08b5 29bf 82ac 6fbf 533a 933e

net.2.weight f4 [64, 64]
0.067076184 -0.17059779 -0.122614264 -0.110792086 0.07894729 0.11424414 0.033124067 -0.130815
-0.122585155 -0.07652734 0.045304842 -0.06831814 0.031198388 0.012932325 -0.0005896476 -0.08647647
-0.013363613 0.069236346 0.0197202 0.14764965 -0.028260868 0.03170094 0.08576711 0.05763937
0.064083844 0.035343267 -0.10753091 0.06029072 -0.035644833 -0.0065469528 -0.11610292 -0.14711523
0.1907442 -0.12581965 -0.014760062 0.031126663 -0.06175958 -0.028261352 -0.027617134 0.05727023
-0.007024697 0.03459584 -0.025150998 0.00360377 -0.06588014 0.05149824 0.06398778 0.008007125
0.07256545 -0.0552627 -0.07358632 0.050115656 0.017322395 -0.008836895 -0.10704513 0.09610776
0.054423925 0.2239466 -0.07528993 0.078030415 0.0015228856 -0.09373428 -0.06708766 0.04388027
-0.008640981 -0.95559835 -0.0035986681 -0.0014336898 0.95483726 0.2393363 -0.17238662 -0.470824
0.020522043 0.022518815 -0.012590462 -0.026693618 0.11602883 0.018424522 2.2054253 -0.1682194
-0.21302733 0.719952 0.45273358 -0.012364625 -0.014715306 0.4062981 1.8661621 -0.022746544
-0.06277002 1.3224968 0.03563252 0.31018597 -0.059292663 -0.14406085 -2.0482202 0.3393675
0.13041936 -0.017177464 -0.25015482 0.34234098 0.07645248 -0.30085102 0.86754966 0.07297087
0.016410472 0.070478976 0.026149102 -0.30488327 -0.01595109 -0.04658808 0.5026769 1.3217506
-0.4004472 -1.2817906 0.71199894 -1.544748 -0.028776297 0.0028753611 0.76769465 -1.1942886
0.048525985 0.05526529 1.7986372 -2.15765 0.19881856 0.23654874 0.15449163 -1.035893
-0.039945316 -0.13034672 0.103335455 0.069922045 -0.043267984 -0.037896942 0.06020052 0.008583151
-0.15979804 0.027555373 0.0025934323 -0.10897557 0.0071088634 -0.062064018 -0.05380258 -0.026691023
0.05671518 -0.013845827 0.11507832 0.08264901 0.08007646 0.060399316 0.17426151 0.032492846
-0.17081149 -0.051532056 -0.13929604 -0.029463746 -0.0002811465 0.0660031 -0.06954538 0.065812826
-0.03318776 -0.04838379 -0.15629572 -0.013174047 0.058414567 -0.0810108 0.07307818 0.086926974
-0.08077532 -0.07503246 0.060384743 -0.04033751 -0.044479765 0.008907041 -0.056830622 -0.015027243
0.0078085973 0.001094573 -0.06049623 0.029332954 0.019028941 -0.034295868 -0.055831905 -0.11977512
-0.09591465 0.09250908 0.021258479 -0.14659491 0.027641587 0.0129928775 -0.12489875 -0.1647426
-0.044386946 0.0031891288 0.018220417 -0.045551475 -0.099645406 0.109522425 -0.03843154 -0.063015796
-0.05942688 0.04245765 0.15894562 0.14556278 0.05540145 0.010645736 -0.06397953 -0.0004239988
-0.0497262 0.0025465505 -0.0069318214 0.03321112 -0.10199341 -0.009652735 0.098975174 -0.08603017
-0.017240763 -0.028846513 0.03328204 -0.069693156 -0.13065833 -0.016430177 -0.049122363 -0.07702122
-0.0018807207 -0.014174197 0.037805326 -0.012562866 -0.10402053 -0.14321269 -0.14209789 -0.051921405
-0.06994963 -0.04469499 0.14612526 0.093410805 -0.14478579 -0.081186086 -0.06814069 0.13645421
0.02104432 -0.086766556 0.045982543 -0.11785669 -0.100210935 0.11783465 -0.0056945877 -0.07231702
0.066515826 -0.053226043 -0.06135557 0.0434401 0.055490535 -0.014842169 -0.032686125 -0.026020277
00000000: 3d5f 893d 30b1 2ebe 301d fbbd f6e6 e2bd
00000010: 1eaf a13d d5f8 e93d 1aad 073d 5ef4 05be
00000020: ed0d fbbd 5eba 9cbd 9291 393d 62ea 8bbd
00000030: c393 ff3c 1ae2 533c 9592 1aba 931a b1bd
00000040: 0ef3 5abc c9cb 8d3d 428c a13c 7831 173e
00000050: 5683 e7bc d8d8 013d aba6 af3d 4317 6c3d
00000060: 643e 833d 1ac4 103d 2a39 dcbd 67f3 763d
00000070: 5100 12bd d287 d6bb 5ec7 edbd 60a5 16be
00000080: 7352 433e ded6 00be 30d4 71bc 58fd fe3c
00000090: 9df7 7cbd 5a84 e7bc 543d e2bc 3094 6a3d
000000a0: 6e2f e6bb 5eb4 0d3d 7709 cebc 3a2d 6c3b
000000b0: 2bec 86bd d2ef 523d 060c 833d 5130 033c
000000c0: 329d 943d 245b 62bd 6db4 96bd 1346 4d3d
000000d0: b2e7 8d3c a0c8 10bc 7a3a dbbd 25d4 c43d
000000e0: 9feb 5e3d 4252 653e 9b31 9abd 69ce 9f3d
000000f0: 909b c73a c2f7 bfbd 4165 89bd ccbb 333d
00000100: e792 0dbc 18a2 74bf a2d7 6bbb a6ea bbba
00000110: 3770 743f 9314 753e 1e86 30be d80f f1be
00000120: d81d a83c 6179 b83c 3a48 4ebc 93ac dabc
00000130: 86a0 ed3d 06ef 963c b025 0d40 b541 2cbe
00000140: d623 5abe c64e 383f b2cc e73e ff94 4abc
00000150: 7818 71bc 4e06 d03e 66de ee3f f656 babc
00000160: 918d 80bd 9347 a93f 68f3 113d b2d0 9e3e
00000170: dddc 72bd b084 13be 0a16 03c0 94c1 ad3e
00000180: a78c 053e c1b7 8cbc 4b14 80be 5147 af3e
00000190: 1e93 9c3d 2509 9abe bc17 5e3f c071 953d
000001a0: 416f 863c 4857 903d a436 d63c a919 9cbe
000001b0: dcab 82bc 24d3 3ebd 6faf 003f 202f a93f
000001c0: 6a07 cdbe b711 a4bf 9045 363f 4dba c5bf
000001d0: 45bc ebbc 8e70 3c3b a387 443f 73de 98bf
000001e0: 2fc3 463d db5d 623d be39 e63f f016 0ac0
000001f0: 1897 4b3e d539 723e 0e33 1e3e 2498 84bf
00000200: b39d 23bd 9c79 05be 8aa1 d33d 4a33 8f3d
00000210: c539 31bd d339 1bbd d294 763d 58a0 0c3c
00000220: 19a2 23be cebb e13c 93f6 293b 952e dfbd
00000230: 78f1 e83b d736 7ebd 1860 5cbd 22a7 dabc
00000240: 2d4e 683d 9cd9 62bc 2fae eb3d e243 a93d
00000250: 21ff a33d 4665 773d 9c71 323e 3817 053d
00000260: 35e9 2ebe 4713 53bd 9fa3 0ebe f45d f1bc
00000270: d866 93b9 a22c 873d cf6d 8ebd e0c8 863d
00000280: e3ef 07bd 152e 46bd fc0b 20be f5d7 57bc
00000290: 1d44 6f3d fee8 a5bd 03aa 953d c506 b23d
000002a0: 886d a5bd 9eaa 99bd fe55 773d f238 25bd
000002b0: 6a30 36bd d6ee 113c 3ac7 68bd d334 76bc
000002c0: 43df ff3b c677 8f3a e5ca 77bd aa4b f03c
000002d0: 95e2 9b3c d379 0cbd ffaf 64bd a84c f5bd
000002e0: e66e c4bd 6775 bd3d 4326 ae3c fa1c 16be
000002f0: 9c70 e23c 14e0 543c eaca ffbd 49b2 28be
00000300: 16cf 35bd b400 513b fc42 953c 2f94 3abd
00000310: e412 ccbd 4b4d e03d 646a 1dbd 6d0e 81bd
00000320: 9a69 73bd 13e8 2d3d a4c2 223e 690e 153e
00000330: a1ec 623d 746b 2e3c b307 83bd 284c deb9
00000340: b3ad 4bbd 07e4 263b 5524 e3bb 6208 083d
00000350: ece1 d0bd 8126 1ebc 7fb3 ca3d 9630 b0bd
00000360: 803c 8dbc 864f ecbc c052 083d 49bb 8ebd
00000370: 4ccb 05be 9498 86bc 8834 49bd 4dbd 9dbd
00000380: 8482 f6ba e43a 68bc c2d9 1a3d 7bd4 4dbc
00000390: b708 d5bd 59a6 12be 1c82 11be 8aab 54bd
000003a0: c041 8fbd 1812 37bd dca1 153e 2a4e bf3d
000003b0: ba42 14be e444 a6bd 598d 8bbd a7ba 0b3e
000003c0: 2365 ac3c aab2 b1bd 3158 3c3d d95e f1bd
000003d0: 643b cdbd 4b53 f13d aa99 babb f21a 94bd
000003e0: 7339 883d 8d03 5abd fa4f 7bbd 3fee 313d
000003f0: 0b4a 633d 922c 73bc e3e1 05bd 7a28 d5bc

net.2.bias f4 [64]
-0.12425975 -0.5961203 -0.14405835 -0.10828247 -0.1917664 -0.60760754 -0.13194385 -0.60009146
0.4801711 0.053559408 -0.15464248 -1.0728493 -0.6920196 -0.9782487 -0.101694755 -1.0290817
-0.16139801 -0.106438495 0.43708298 -0.10523453 -0.14440554 -0.8127134 0.17361046 -0.24933627
-0.1250144 -0.11764362 -0.06245742 0.0092347795 -0.42336845 0.06267355 -0.59305257 -0.3103203
-0.042789284 0.25149742 -0.7022515 -0.12596306 -0.07050994 0.17912742 -0.073373936 -0.9431095
-0.08464258 -0.066865586 -0.04265833 -0.15307918 0.013655848 -0.18571697 -0.08737416 0.07634919
0.012774998 0.0043309787 -0.02994304 -0.074546255 -0.026538864 -0.18486993 -0.5675583 0.11316492
0.04273804 0.04257167 -0.56181145 -0.40975827 -0.13088952 -0.86465156 -0.3497069 -0.21265197
00000000: e57b febd 579b 18bf 0884 13be 33c3 ddbd
00000010: 695e 44be 2b8c 1bbf 4a1c 07be 989f 19bf
00000020: fdd8 f53e 1c61 5b3d 995a 1ebe 2053 89bf
00000030: 3228 31bf 826e 7abf 5745 d0bd f3b8 83bf
00000040: 8545 25be 6dfc d9bd 57c9 df3e 3485 d7bd
00000050: 0cdf 13be fc0d 50bf f1c6 313e 0252 7fbe
00000060: c603 00be 23ef f0bd 5ad3 7fbd 794d 173c
00000070: c0c3 d8be fd5a 803d 4bd2 17bf 4de2 9ebe
00000080: d143 2fbd 45c4 803e c1c6 33bf 76fc 00be
00000090: 8467 90bd 2e6d 373e 1345 96bd a06f 71bf
000000a0: 1759 adbd d3f0 88bd 80ba 2ebd cac0 1cbe
000000b0: c7bc 5f3c 972c 3ebe 39f1 b2bd f75c 9c3d
000000c0: 3a4e 513c e2ea 8d3b 1b4b f5bc b5ab 98bd
000000d0: 0868 d9bc 8b4e 3dbe 804b 11bf 02c3 e73d
000000e0: 150e 2f3d a25f 2e3d e0d2 0fbf d6cb d1be
000000f0: e707 06be ce59 5dbf c80c b3be 70c1 59be

net.4.weight f4 [64, 64]
0.055861842 0.0084698 -0.025207322 -0.009175872 -0.09789615 -0.64212745 -0.03214458 -1.3793441
-0.36722648 0.0007899336 0.06309002 0.75838894 0.046066917 0.13174567 0.028979091 0.6697161
-0.005353403 0.015649559 -1.2114753 -0.060667165 -0.019757433 0.34229994 -0.042885046 0.029235488
0.044234708 0.0053560226 -0.0065577943 -0.004498859 -0.34605676 -0.022202386 0.69785064 0.2704507
0.04250106 -0.5119328 -0.020971438 0.0055424813 0.00089951535 -0.01907831 -0.038840685 0.64560425
-1.0449427 0.004306998 -0.03347197 0.009689432 0.016380252 -0.040746354 0.03050326 -0.011601489
0.0102252355 -0.017926088 -3.5051541 -0.009948575 -0.041363645 -0.3523276 0.17774618 0.006849142
0.03242484 -0.0199839 0.6025978 -0.3848247 0.0034667128 1.09123 0.07110965 -0.029821714
0.09032454 0.028851915 0.06511624 0.033089817 0.087179385 0.009416748 0.06728275 -0.003979504
-0.11817492 -0.08110825 -0.013052119 0.030956704 0.04697572 -0.013968043 0.14627416 0.026384179
-0.08931073 -0.08674475 -0.050531585 -0.012979013 0.15568691 -0.0547005 -0.051909544 -0.12408779
-0.019038199 -0.10790526 -0.16656695 -0.06907256 -0.087902345 0.06035391 0.040209375 -0.08789604
-0.058890294 0.04654102 -0.27781776 0.004509869 0.0692545 0.043494932 0.31402594 0.16785188
0.11002796 -0.10586732 0.19825393 0.022047132 0.12926024 0.14627072 -0.12805258 0.08875256
-0.12841645 0.015131909 -0.09056939 -0.09829003 0.013924032 -0.06693223 -0.01730934 -0.004559464
0.08183115 0.10317558 0.14172134 -0.028952247 0.05191384 0.18887904 -0.053452134 0.10525837
-0.016200338 -0.07359797 -0.21629097 -0.11156511 -0.072168745 -0.10522686 -0.09440546 -0.002052613
0.004532869 0.012161304 0.051196173 -0.093435325 0.034625024 -0.21506079 -0.14806813 0.16098931
0.0836403 -0.050167535 -0.08873891 -0.14228228 0.16422425 0.020751996 -0.06131068 -0.012245852
-0.08054943 -0.11877958 -0.0829518 -0.07950413 -0.03666527 0.046786614 0.033377007 0.019714033
0.04289875 -0.120893456 -0.024934636 -0.08290441 -0.129676 0.10053381 -0.11005686 0.23596819
-0.11193275 0.16268285 0.10733748 -0.23904759 -0.080752544 -0.16679777 0.13639934 -0.069264494
0.11151695 0.1032106 -0.15763593 -0.0011038529 -0.011575714 -0.0047309464 0.048380345 0.053189214
0.22387134 -0.05698762 0.035649758 -0.05129296 -0.10312812 0.07471513 0.02369353 -0.13138445
0.002155125 -0.2151925 0.097362205 0.1102279 -0.01210039 -0.03667722 -0.009434494 -0.13047875
-0.019050065 0.1367808 -0.051095225 0.06130235 0.03609463 -0.038308855 0.06642117 0.28676346
-0.021040693 -0.095271744 -0.022795916 -0.03944195 -0.030886184 -0.16976522 -0.0771343 0.025549779
-0.11114989 0.034262802 0.013915066 -0.0005701793 -0.07330843 0.12371851 -0.23868608 0.27184597
-0.13104516 -0.063328564 -0.13534692 -0.0067558046 0.16163567 -0.054378096 0.05235905 0.053708807
-0.15648544 -0.009337069 -0.058824036 0.0467152 -0.013343035 -0.029764444 -0.059282716 -0.017448084
-0.13006917 -0.09689984 -0.014708124 0.02307487 -0.053939782 -0.13204369 0.114301465 0.029639611
0.05171566 -0.03539764 0.24948831 -0.060850892 -0.059024516 -0.04429889 -0.14296386 0.114709795
00000000: 63cf 643d ebc4 0a3c 967f cebc 6656 16bc
00000010: c77d c8bd 7762 24bf 09aa 03bd 598e b0bf
00000020: 1c05 bcbe 8c13 4f3a 5735 813d c725 423f
00000030: aab0 3c3d 56e8 063e 8f65 ed3c 8472 2b3f
00000040: 996b afbb 8133 803c 9f11 9bbf 227e 78bd
00000050: 57da a1bc f041 af3e 3ba8 2fbd 437f ef3c
00000060: 742f 353d 9381 af3b c4e2 d6bb 2a6b 93bb
00000070: 5a2e b1be c7e1 b5bc 57a6 323f 8478 8a3e
00000080: 9715 2e3d 070e 03bf 4bcc abbc b49d b53b
00000090: 74cd 6b3a 1e4a 9cbc 6917 1fbd 5246 253f
000000a0: afc0 85bf b821 8d3b e819 09bd 6cc0 1e3c
000000b0: e12f 863c a6e5 26bd f9e1 f93c 2c14 3ebc
000000c0: bf87 273c bbd9 92bc 7254 60c0 59ff 22bc
000000d0: ed6c 29bd 4864 b4be 1803 363e c46e e03b
000000e0: e9cf 043d 47b5 a3bc d943 1a3f be07 c5be
000000f0: ca31 633b 6dad 8b3f f0a1 913d ab4c f4bc
00000100: 13fc b83d da5a ec3c aa5b 853d 3089 073d
00000110: 1b8b b23d b448 1a3c 8acb 893d 8066 82bb
00000120: b105 f2bd 151c a6bd 8ed8 55bc ea98 fd3c
00000130: 9d69 403d 38da 64bc e5c8 153e a223 d83c
00000140: 8be8 b6bd 3ba7 b1bd 35fa 4ebd eda5 54bc
00000150: 646c 1f3e a20d 60bd 1a9f 54bd bd21 febd
00000160: fff5 9bbc 6ffd dcbd 8790 2abe ea75 8dbd
00000170: 2506 b4bd a935 773d 96b2 243d d702 b4bd
00000180: f336 71bd cca1 3e3d 213e 8ebe 86c7 933b
00000190: 4ed5 8d3d be27 323d 02c8 a03e 5de1 2b3e
000001a0: 5756 e13d f7d0 d8bd 1403 4b3e 309c b43c
000001b0: cc5c 043e fec7 153e 3720 03be e7c3 b53d
000001c0: 9a7f 03be d4eb 773c 727c b9bd 494c c9bd
000001d0: a021 643c c413 89bd 51cc 8dbc 8e67 95bb
000001e0: 1797 a73d b84d d33d 661f 113e 432d edbc
000001f0: 9ba3 543d 8269 413e a0f0 5abd b391 d73d
00000200: 92b6 84bc 88ba 96bd 617b 5dbe 407c e4bd
00000210: 35cd 93bd 2e81 d7bd a657 c1bd 2285 06bb
00000220: 7688 943b 3540 473c 14b3 513d 055b bfbd
00000230: f8d2 0d3d e538 5cbe 2c9f 17be 62da 243e
00000240: 9b4b ab3d 797c 4dbd bfbc b5bd 72b2 11be
00000250: 672a 283e 1700 aa3c e820 7bbd d3a2 48bc
00000260: 19f7 a4bd b542 f3bd a2e2 a9bd 10d3 a2bd
00000270: 522e 16bd 52a3 3f3d 54b6 083d 537f a13c
00000280: 9ab6 2f3d fd96 f7bd b943 ccbc cac9 a9bd
00000290: c9c9 04be ace4 cd3d 7e65 e1bd a5a1 713e
000002a0: ff3c e5bd 5596 263e c1d3 db3d e4c8 74be
000002b0: 9761 a5bd 09cd 2abe 45ac 0b3e 8bda 8dbd
000002c0: 0063 e43d 1460 d33d 506b 21be 28af 90ba
000002d0: 10a8 3dbc 0e06 9bbb 782a 463d efdc 593d
000002e0: 873e 653e da6b 69bd 7b05 123d 9118 52bd
000002f0: d634 d3bd 3f04 993d ef18 c23c a589 06be
00000300: ff3c 0d3b 6c5b 5cbe d665 c73d 2abf e13d
00000310: b740 46bc da3a 16bd 2393 1abc 399c 05be
00000320: e20e 9cbc 4410 0c3e 3a49 51bd 2c18 7b3d
00000330: f6d7 133d bfe9 1cbd d307 883d a9d2 923e
00000340: 885d acbc d51d c3bd 80be babc e28d 21bd
00000350: 0605 fdbc efd6 2dbe 96f8 9dbd c54d d13c
00000360: 8ea2 e3bd 2757 0c3d 04fc 633c 1678 15ba
00000370: bb22 96bd 2160 fd3d 206a 74be 652f 8b3e
00000380: b430 06be 68b2 81bd 6298 0abe cc5f ddbb
00000390: d283 253e 91bb 5ebd 7176 563d c4fd 5b3d
000003a0: b83d 20be 81fa 18bc 79f1 70bd 7058 3f3d
000003b0: bf9c 5abc 90d4 f3bc 6fd2 72bd 49ef 8ebc
000003c0: da30 05be 6c73 c6bd 58fa 70bc 8307 bd3c
000003d0: f6ef 5cbd 7636 07be e316 ea3d c5ce f23c
000003e0: cdd3 533d 1efd 10bd dd79 7f3e c93e 79bd
000003f0: b1c3 71bd c172 35bd 1e65 12be f8ec ea3d

net.4.bias f4 [64]
-0.84589005 -0.11218737 -0.32780957 -0.26770747 -0.51408786 -0.19818823 -0.9293531 -0.3061794
-0.20432161 -0.8440893 -0.088234685 -0.28822047 0.10985004 -0.21999806 -0.083158314 -0.20666817
-0.16009913 -0.20117736 -0.28196174 -0.06234047 -0.057007607 -0.46178186 -0.1471138 -0.19974263
-0.13166095 -0.26781464 -0.22164878 -0.25420436 -0.6098805 -0.56800884 -0.32027692 -0.069439426
-0.004461254 -0.19115093 -0.36449048 -0.1384194 -0.70390254 -0.7498647 -0.3566883 -0.1891375
-0.45410448 -0.22732759 -1.0070549 -0.235374 -0.11710886 -0.70867133 -0.17659163 -0.2082273
-0.15878901 -0.5544966 -0.2994125 -0.1687296 -0.23924479 -0.1793242 -0.5343648 -0.10961667
-0.089886636 -0.83443546 -0.6218046 -0.19325599 -0.40426794 -0.23004407 -0.14477524 -0.29006818
00000000: 408c 58bf 7ec2 e5bd a8d6 a7be f410 89be
00000010: 439b 03bf dbf1 4abe 16ea 6dbf 8cc3 9cbe
00000020: af39 51be 3d16 58bf 63b4 b4bd a291 93be
00000030: 0ff9 e03d 2c47 61be e84e aabd d2a0 53be
00000040: 07f1 23be 7001 4ebe 4a5d 90be b858 7fbd
00000050: cf80 69bd ac6e ecbe 00a5 16be 5589 4cbe
00000060: 21d2 06be 001f 89be e6f7 62be 1327 82be
00000070: 2121 1cbf 0769 11bf 56fb a3be 4236 8ebd
00000080: b62f 92bb 12bd 43be 7f9e babe d1bd 0dbe
00000090: f532 34bf 22f7 3fbf d99f b6be 43ad 41be
000000a0: 6280 e8be 90c8 68be 2de7 80bf e205 71be
000000b0: c5d6 efbd 7c6b 35bf 70d4 34be 8a39 55be
000000c0: 9699 22be 7df3 0dbf 984c 99be 74c7 2cbe
000000d0: 96fc 74be c3a0 37be 22cc 08bf b47e e0bd
000000e0: 7c16 b8bd 909d 55bf 962e 1fbf e6e4 45be
000000f0: 35fc cebe ac90 6bbe f63f 14be d183 94be

net.6.weight f4 [2, 64]
-0.2576914 -0.0036006845 -0.021207282 -0.0053083063 0.110480115 0.046436053 -0.31986594 0.0037222796
0.009700861 -0.12525213 -0.0038267924 0.0004999043 0.02122832 -0.012467871 0.00616246 -0.046575714
0.017597197 -0.012127811 -0.001934229 0.0074179927 0.012544304 0.09247813 0.011270859 -4.5330788e-05
-0.014068328 -0.0011340389 0.009941245 0.009904602 -0.05678504 0.14393696 0.06995483 -0.0075279586
0.0012107703 0.010458851 -0.03774894 0.0027560175 0.023578174 0.011502614 0.15135226 -0.00415668
-0.09846147 0.0015960372 -0.31155595 -0.0019436176 -0.0009857957 0.1402744 -0.016806895 -0.001887379
-0.009097564 -0.03429241 0.0039575906 -0.033135857 -0.008669573 0.005640953 -0.1799634 -0.035854943
-0.006337941 0.28344506 -0.079004325 0.0067975456 0.0015589243 0.004712003 -0.003989218 -0.008990589
-0.01507133 0.004707849 -0.0034112597 0.01181644 0.059198953 0.017770987 -0.13027203 -0.00058237463
-0.00059900346 -0.2101351 -0.0127185285 -0.00017322239 0.13756879 0.008130301 0.014283293 -0.00093149324
0.0060628746 0.0033172148 0.0068547083 -0.005923723 -0.0069775074 0.03126808 0.005955361 -0.023034513
0.0014475744 0.013644867 0.005264264 -0.0020425974 -0.16513667 -0.12963319 0.13299882 0.0058457693
0.0010784982 -0.010656741 0.2240835 0.008549314 -0.010007829 -0.040381532 -0.09736615 0.0012535396
0.04552782 0.0018439236 -0.104898445 0.007058298 0.0017437193 -0.08106737 0.0010255189 0.0009636724
0.0018877523 0.07589338 0.003944133 0.008047701 0.0040302104 0.0057221428 0.043932945 0.007334085
-0.0019123394 -0.012568479 0.025978236 0.0048498735 -0.00076014246 0.0040332414 0.004516105 -0.002283377
00000000: 21f0 83be 76f9 6bbb e5ba adbc 4df1 adbb
00000010: 6643 e23d bb33 3e3d 78c5 a3be 7df1 733b
00000020: 5cf0 1e3c 1842 00be ecca 7abb 020c 033a
00000030: 04e7 ad3c 0b46 4cbc 76ee c93b 2dc6 3ebd
00000040: ff27 903c bab3 46bc f585 fdba a212 f33b
00000050: a086 4d3c 2c65 bd3d 69a9 383c 9021 3eb8
00000060: d87e 66bc 08a4 94ba 9be0 223c e946 223c
00000070: 6e97 68bd 3664 133e 7a44 8f3d 18ad f6bb
00000080: b6b2 9e3a 9a5b 2b3c a29e 1abd 4d9e 343b
00000090: 0427 c13c 7675 3c3c 16fc 1a3e c234 88bb
000000a0: 2ba6 c9bd 1f32 d13a 4384 9fbe fcc0 feba
000000b0: d135 81ba 18a4 0f3e 9dae 89bc ee61 f7ba
000000c0: f30d 15bc 3376 0cbd adae 813b 77b9 07bd
000000d0: d30a 0ebc bed7 b83b 5348 38be a2dc 12bd
000000e0: 81ae cfbb b61f 913e 05cd a1bd f2bd de3b
000000f0: d254 cc3a 2567 9a3b fcb7 82bb 434d 13bc
00000100: bded 76bc 4d44 9a3b 718f 5fbb be99 413c
00000110: 9a7a 723d 7694 913c 0866 05be 80aa 18ba
00000120: 7106 1dba a82d 57be 6061 50bc 08a3 35b9
00000130: d5de 0c3e f434 053c 7904 6a3c 742f 74ba
00000140: 14ab c63b a165 593b 769d e03b ca1b c2bb
00000150: 93a3 e4bb f512 003d 3025 c33b e0b2 bcbc
00000160: 89bc bd3a b88e 5f3c d97f ac3b 19dd 05bb
00000170: 9619 29be 90be 04be d830 083e de8d bf3b
00000180: 655c 8d3a 9d99 2ebc 2576 653e 6c12 0c3c
00000190: e1f7 23bc 1b67 25bd e767 c7bd cf4d a43a
000001a0: 617b 3a3d cfaf f13a ffd4 d6bd 4c49 e73b
000001b0: 838d e43a a606 a6bd b46a 863a f69e 7c3a
000001c0: 756e f73a fd6d 9b3d c93d 813b 81da 033c
000001d0: db0f 843b d080 bb3b 08f3 333d c452 f03b
000001e0: 76a7 faba 06ec 4dbc 4fd0 d43c b0eb 9e3b
000001f0: 4c44 47ba 4829 843b d6fb 933b b6a4 15bb

net.6.bias f4 [2]
-0.1465346 0.012946134
00000000: 2b0d 16be 061c 543c
