checkpoints/checkpoint_2000.pt (torch, 174016 bytes, 66 tensors)

gating.net.0.weight f4 [32, 3]
-0.27221695 -0.046521787 -0.1340444 -0.21101382 -0.06859755 -0.33198816 -0.41138905 0.17720877
-0.27058902 0.24839246 -0.2777828 0.25739318 0.46339953 0.002821196 -0.33772606 0.47540528
-0.24234688 0.5294172 0.036105517 0.09255871 0.028199209 0.29462582 -0.43574518 -0.18619889
-0.2749027 0.42726806 -0.18496466 -0.0047086137 0.24424663 0.19554581 -0.4375437 -0.3537785
-0.30494285 0.021679725 -0.42866623 -0.10246769 -0.036998004 -0.3391437 -0.1544521 0.22452828
0.5504423 -0.0018508623 0.46786445 -0.21977137 0.15097609 -0.40749738 0.07747666 -0.09944632
-0.4673862 0.29999888 0.2390303 0.5254947 0.12263463 0.46615458 0.41093847 -0.26111728
-0.56264347 0.32735467 0.20483248 0.18663533 0.30886593 0.1889759 -0.15700603 0.09301779
-0.3893932 0.29041722 -0.48279724 0.38864464 -0.3351479 0.43139216 -0.6494397 0.22244036
-0.45581862 0.00024214572 0.37575078 -0.15259385 -0.2067442 -0.3248903 0.42716655 0.22814086
-0.22035326 -0.43273878 -0.21287957 -0.08987116 0.2911435 -0.51003647 0.5301719 -0.3493549
0.19557452 0.40436545 0.2218563 -0.26228145 -0.50670934 -0.21102355 -0.032906774 0.049555782
00000000: 0560 8bbe a18d 3ebd ef42 09be 0214 58be
00000010: df7c 8cbd 5afa a9be 96a1 d2be 3776 353e
00000020: a58a 8abe 985a 7e3e 8c39 8ebe 0ac9 833e
00000030: b442 ed3e d1e3 383b 6eea acbe 5268 f33e
00000040: c829 78be e387 073f 61e3 133d 6c8f bd3d
00000050: 0702 e73c 32d9 963e fe19 dfbe ecaa 3ebe
00000060: 0cc0 8cbe e1c2 da3e 6067 3dbe b74a 9abb
00000070: ca1b 7a3e 293d 483e ba05 e0be 7522 b5be
00000080: 7821 9cbe ae99 b13c 247a dbbe 95da d1bd
00000090: 388b 17bd 3ea4 adbe b128 1ebe beea 653e
000000a0: c9e9 0c3f a298 f2ba ee8b ef3e bf0b 61be
000000b0: 7a99 1a3e 7fa3 d0be 15ac 9e3d 83aa cbbd
000000c0: 3e4d efbe 7499 993e 5cc4 743e d286 063f
000000d0: dd27 fb3d d0ab ee3e 8766 d23e 2ab1 85be
000000e0: 6709 10bf 089b a73e 9bbf 513e 551d 3f3e
000000f0: ad23 9e3e e682 413e 30c6 20be 1c80 be3d
00000100: 8c5e c7be 91b1 943e 3331 f7be 6efc c63e
00000110: 8198 abbe 6fdf dc3e ae41 26bf 68c7 633e
00000120: 0f61 e9be 7fe8 7d39 6862 c03e 9041 1cbe
00000130: c0b4 53be 0558 a6be 93b5 da3e c29d 693e
00000140: 49a4 61be f08f ddbe 1afd 59be 5f0e b8bd
00000150: c310 953e c091 02bf 58b9 073f a5de b2be
00000160: b044 483e fd08 cf3e 4c2e 633e c149 86be
00000170: b4b7 01bf 8f16 58be 41c9 06bd 01fb 4a3d

gating.net.0.bias f4 [32]
0.27823025 0.14730248 -0.43072703 0.13516918 0.030098205 0.26043677 -0.034514084 -0.5046351
-0.39065525 -0.48690155 -0.21022385 0.2942616 0.5146 0.36139637 -0.26794437 0.23983894
-0.14509994 -0.49642482 -0.30208936 0.40220556 -0.12412659 -0.025380533 0.45265785 0.46415195
0.17709105 -0.037351713 -0.39308164 0.26957878 0.44697312 0.30966157 -0.2809916 0.31273273
00000000: 3274 8e3e 76d6 163e 4188 dcbe ca69 0a3e
00000010: 8390 f63c f857 853e a45e 0dbd c42f 01bf
00000020: f703 c8be 294b f9be ec44 57be 75a9 963e
00000030: d3bc 033f f208 b93e 0130 89be 5798 753e
00000040: 1495 14be 652b febe 75ab 9abe e3ed cd3e
00000050: 1536 febd d6ea cfbc c5c2 e73e 53a5 ed3e
00000060: 5b57 353e 1cfe 18bd ff41 c9be 3b06 8a3e
00000070: a9d9 e43e f68b 9e3e 22de 8fbe 811e a03e

gating.net.1.weight f4 [32]
1.0934261 1.078962 1.2807053 0.94460243 0.9770319 0.9327442 0.9896676 1.2119893
1.0638559 1.2100376 0.95857203 0.9766665 1.015535 1.003404 1.1416976 1.1178942
0.99168074 1.0683287 0.9822107 0.8765987 0.97132504 0.9536235 0.9772969 1.0458037
1.0750501 0.98307174 1.0293298 1.0300455 1.0049564 0.9394273 0.9889858 1.024892
00000000: 63f5 8b3f 6d1b 8a3f 27ee a33f 77d1 713f
00000010: c31e 7a3f 53c8 6e3f db5a 7d3f 7722 9b3f
00000020: 6e2c 883f 83e2 9a3f fa64 753f d106 7a3f
00000030: 0dfd 813f 8b6f 803f 2623 923f 2817 8f3f
00000040: cade 7d3f ffbe 883f 2972 7b3f c668 603f
00000050: c2a8 783f ab20 743f 2130 7a3f e5dc 853f
00000060: 3e9b 893f 97aa 7b3f 14c1 833f 88d8 833f
00000070: 69a2 803f 4f7e 703f 2c2e 7d3f a92f 833f

gating.net.1.bias f4 [32]
0.090150736 0.004737987 0.15689582 -0.05517551 -0.080423005 -0.09050802 -0.014236657 -0.04095342
-0.068106644 0.011560165 -0.0031991715 -0.0044562956 0.046853285 -0.080045134 0.036340836 -0.0032358633
-0.0713601 -0.02836637 -0.07980006 -0.11529086 -0.054033607 -0.024987293 -0.0210439 -0.037026435
0.06802228 -0.03804915 0.09129715 -0.012685483 -0.061853647 -0.0031389534 0.0013899937 -0.047161814
00000000: f3a0 b83d 1e41 9b3b 4ca9 203e b7ff 61bd
00000010: d1b4 a4bd 455c b9bd de40 69bc c6be 27bd
00000020: 7f7b 8bbd d966 3d3c 31a9 51bb 1e06 92bb
00000030: 3be9 3f3d b4ee a3bd 21da 143d c710 54bb
00000040: 3e25 92bd 9760 e8bc 376e a3bd 9d1d ecbd
00000050: 5852 5dbd 27b2 ccbc 4264 acbc 08a9 17bd
00000060: 444f 8b3d 6dd9 1bbd 00fa ba3d c6d6 4fbc
00000070: 405a 7dbd e6b6 4dbb 7330 b63a bf2c 41bd

gating.net.4.weight f4 [32, 32]
-0.0679653 -0.24868421 0.02323336 0.056750603 -0.19721621 -0.009509318 -0.17110889 0.043525785
-0.19641799 -0.08387319 -0.13837618 0.15723738 -0.15751845 0.13115029 -0.010475103 -0.16328397
-0.13115492 -0.06844919 0.09181516 0.0598263 0.10548601 -0.1974935 -0.014121163 -0.19046967
-0.032944005 0.096471995 -0.09515774 -0.08577388 0.030609977 -0.0506553 0.112251036 -0.17684084
-0.037668683 0.12186752 -0.15288654 -0.16563758 0.027692769 -0.14869584 0.16796483 0.26394302
-0.16251346 -0.25866973 -0.0750382 -0.089332685 0.12552254 0.12559223 -0.15885419 -0.25278318
0.020522224 -0.061011698 0.1687764 0.028893907 -0.059777778 -0.03121148 0.15956953 -0.1477293
-0.028660653 0.15672268 -0.04865422 0.106394075 -0.054268755 -0.13612472 -0.019803071 -0.0962268
0.10075406 0.042368423 0.0024014697 0.19992027 0.09507095 -0.060438488 -0.095588975 0.17543323
-0.073512934 0.0140888775 -0.056480322 -0.12693952 -0.09795874 -0.13830636 -0.046940662 -0.09566664
-0.1662542 0.12755331 0.01880811 0.11431848 -0.1442607 -0.14642921 -0.004226396 -0.1324982
0.03491545 -0.1865791 -0.13664249 0.06723426 0.037818395 -0.067914836 -0.06676951 0.061695322
0.061847474 -0.11766179 0.025170328 0.148662 -0.08386052 0.02799066 0.14506905 0.3356071
-0.09653655 0.049391415 0.09963949 -0.10954772 0.124090135 -0.14238562 0.1205481 -0.2249094
-0.15940544 0.19056235 0.13468304 -0.12320142 -0.023742227 0.013429298 0.07017999 -0.04091878
0.14490667 0.17698194 0.16911596 0.07939676 -0.042956006 -0.05784254 0.041207872 -0.22670938
-0.08699554 0.04178252 -0.30157697 -0.06409338 0.14130533 0.1372693 -0.12581845 0.3308905
-0.056434028 0.003579141 0.046475958 -0.08725491 0.055780552 0.12414665 -0.09407023 -0.025780438
-0.10446588 -0.19771504 0.08151912 -0.059808165 -0.04601909 -0.07935852 0.16288915 0.0087926835
-0.063880935 0.15247342 -0.0592111 0.12110466 -0.07240838 0.015997712 0.074423894 0.005905861
0.14815876 0.14785661 -0.34899583 -0.12735389 -0.09470425 -0.21466798 -0.15297946 -0.1748264
0.12695321 0.1651854 -0.047245134 0.11613321 0.008636674 -0.027925692 0.085431844 0.059032723
0.07631052 -0.067053065 -0.16093858 0.11346959 0.041799307 0.074584045 0.07977564 -0.073100455
0.12443285 0.13358067 -0.12626961 -0.06301578 -0.042836633 0.07704052 -0.13248824 0.025916455
-0.18948315 -0.017648458 0.39873102 -0.04570932 -0.057327952 0.015147272 0.13395675 0.02461058
0.059915796 0.14301567 0.10790476 0.11893498 -0.10667084 -0.16912274 0.1275984 -0.14247626
0.025845362 0.19228257 -0.06419401 -0.02078864 -0.11859283 0.108200096 -0.21377744 0.18368886
-0.1646715 -0.046601124 0.019232059 0.056921314 0.10494697 0.023375599 -0.21934813 -0.0856615
0.15711272 -0.14333634 -0.18359263 0.0031282906 -0.12148542 0.14618231 -0.10798748 0.093752824
-0.06870565 -0.33331415 0.12520708 0.061010282 -0.06692596 0.11305756 -0.062060766 0.27487287
-0.06144686 -0.20503864 0.026466332 -0.14468978 0.035287607 0.10663119 -0.16129352 -0.17874935
0.13472244 -0.009181957 -0.16630247 0.058692742 -0.09113643 0.05726591 -0.041484527 0.146102
00000000: 6431 8bbd 13a7 7ebe e353 be3c 5273 683d
00000010: 0cf3 49be f8cc 1bbc 2b37 2fbe 1848 323d
00000020: cc21 49be b5c5 abbd 7cb2 0dbe d602 213e
00000030: 844c 21be 434c 063e c49f 2bbc ea33 27be
00000040: 7a4d 06be 172f 8cbd 9609 bc3d 6c0c 753d
00000050: 0d09 d83d bc3b 4abe 735c 67bc 7b0a 43be
00000060: 4bf0 06bd 1c93 c53d 10e2 c2bd 37aa afbd
00000070: c6c1 fa3c ef7b 4fbd dfe3 e53d c415 35be
00000080: 7a4a 1abd ae95 f93d 4a8e 1cbe e69c 29be
00000090: f2db e23c b943 18be f9fe 2b3e 8a23 873e
000000a0: ee69 26be 5c70 84be a1ad 99bd 0ef4 b6bd
000000b0: fb88 003e 409b 003e acaa 22be cc6c 81be
000000c0: 391e a83c 67e7 79bd b8d3 2c3e eab2 ec3c
000000d0: 8bd9 74bd 38af ffbc 3266 233e 5a46 17be
000000e0: bfc9 eabc e97b 203e a649 47bd 23e5 d93d
000000f0: ea48 5ebd 4764 0bbe 0d3a a2bc 8e12 c5bd
00000100: 2558 ce3d 838a 2d3d fa61 1d3b e6b7 4c3e
00000110: 8fb4 c23d 598e 77bd 27c4 c3bd c5a4 333e
00000120: f38d 96bd 09d5 663c e957 67bd 6ffc 01be
00000130: 989e c8bd 2fa0 0dbe da44 40bd dfec c3bd
00000140: 8a3e 2abe 569d 023e 7713 9a3c cf1f ea3d
00000150: 14b9 13be 8af1 15be 947d 8abb 9cad 07be
00000160: 8103 0f3d 970e 3fbe 02ec 0bbe 1eb2 893d
00000170: 76e7 1a3d ef16 8bbd 74be 88bd 3cb4 7c3d
00000180: c753 7d3d aaf8 f0bd 0132 ce3c da3a 183e
00000190: 10bf abbd ab4c e53c fb8c 143e b2d4 ab3e
000001a0: f4b4 c5bd a74e 4a3d ca0f cc3d 8e5a e0bd
000001b0: f822 fe3d 89cd 11be ece1 f63d a64e 66be
000001c0: 2e3b 23be c722 433e 5aea 093e 0751 fcbd
000001d0: 0f7f c2bc 8f06 5c3c 87ba 8f3d 739a 27bd
000001e0: 6a62 143e c13a 353e bc2c 2d3e c59a a23d
000001f0: a3f2 2fbd 4dec 6cbd 96c9 283d 8126 68be
00000200: b82a b2bd 2624 2b3d 4c68 9abe 6443 83bd
00000210: 58b2 103e 5390 0c3e 8dd6 00be 7b6a a93e
00000220: 5e27 67bd 0690 6a3b 935d 3e3d b4b2 b2bd
00000230: 267a 643d 9940 fe3d e5a7 c0bd 7f31 d3bc
00000240: 35f2 d5bd d075 4abe 7ff3 a63d 68f9 74bd
00000250: 837e 3cbd b886 a2bd 6acc 263e 300f 103c
00000260: 02d4 82bd fe21 1c3e 5787 72bd b805 f83d
00000270: d84a 94bd a20d 833c 8e6b 983d f485 c13b
00000280: eeb6 173e b967 173e 95af b2be 0f69 02be
00000290: 4df4 c1bd ecd1 5bbe a6a6 1cbe b105 33be
000002a0: 0600 023e 5d26 293e 1d84 41bd 40d7 ed3d
000002b0: d680 0d3c 6cc4 e4bc e4f6 ae3d 4ccc 713d
000002c0: b148 9c3d 1e53 89bd 15cd 24be bf62 e83d
000002d0: c035 2b3d 85bf 983d 6961 a33d b1b5 95bd
000002e0: a6d6 fe3d 5fc9 083e d24c 01be 6b0e 81bd
000002f0: 7775 2fbd 6cc7 9d3d ffaa 07be bf4e d43c
00000300: df07 42be 8093 90bc 7926 cc3e b239 3bbd
00000310: b7d0 6abd 432c 783c f52b 093e 219c c93c
00000320: 446a 753d b372 123e 2cfd dc3d 2f94 f33d
00000330: 3e76 dabd 832e 2dbe 28a9 023e 4ce5 11be
00000340: a7b9 d33c b9e5 443e 2678 83bd f04c aabc
00000350: cce0 f2bd 0398 dd3d 79e8 5abe ef18 3c3e
00000360: a59f 28be d2e0 3ebd 8d8c 9d3c 5326 693d
00000370: 70ee d63d 2f7e bf3c cc9c 60be 4c6f afbd
00000380: 28e2 203e c3c6 12be b5ff 3bbe 0204 4d3b
00000390: 59cd f8bd d1b0 153e 8a28 ddbd 7b01 c03d
000003a0: 8cb5 8cbd 27a8 aabe 4936 003e ebe5 793d
000003b0: 7a10 89bd b98a e73d 6e33 7ebd 23bc 8c3e
000003c0: b4af 7bbd a6f5 51be eccf d83c 8f29 14be
000003d0: bd89 103d 7461 da3d 212a 25be 120a 37be
000003e0: aef4 093e eb6f 16bc 324b 2abe cd67 703d
000003f0: bda5 babd a98f 6a3d aeeb 29bd c39b 153e

gating.net.4.bias f4 [32]
-0.12479217 -0.07180099 0.14772873 -0.1168431 -0.14333358 -0.08239026 -0.07481551 0.042514734
0.12968707 0.106654756 -0.04419785 -0.11488177 -0.07173016 -0.0041764774 -0.054749407 -0.25669974
0.033119284 0.097795516 -0.11132775 0.13687485 -0.19433622 -0.006282036 -0.16649994 -0.07244327
-0.033303056 0.17630138 -0.12074773 0.054341003 0.07978384 -0.19575043 -0.116531774 -0.16377765
00000000: 0a93 ffbd 660c 93bd 3346 173e 6f4b efbd
00000010: 0ac6 12be 3abc a8bd e038 99bd ee23 2e3d
00000020: b0cc 043e cf6d da3d ce08 35bd 2247 ebbd
00000030: 43e7 92bd d5da 88bb ea40 60bd 266e 83be
00000040: 16a8 073d 0449 c83d ceff e3bd ec28 0c3e
00000050: 1300 47be 8ad9 cdbb f67e 2abe 235d 94bd
00000060: c968 08bd 5988 343e 964a f7bd ac94 5e3d
00000070: b665 a33d cd72 48be 36a8 eebd 54b5 27be

gating.net.5.weight f4 [32]
0.9837554 0.9693132 0.93564856 0.9635595 0.91105515 0.965758 1.0320636 0.9005215
0.9519332 1.0026811 0.9631108 1.0107074 0.98753494 0.9751567 0.99096495 0.9846164
1.0241429 0.97798836 0.9696841 0.98518753 0.9170689 1.0697788 0.93498015 0.9694576
0.9684902 0.99341077 0.94403505 0.9625983 0.92738867 0.98912156 0.9609299 0.94356066
00000000: 65d7 7b3f e924 783f aa86 6f3f d6ab 763f
00000010: e93a 693f eb3b 773f a91a 843f 9488 663f
00000020: e5b1 733f db57 803f 6e8e 763f dc5e 813f
00000030: 17cf 7c3f dfa3 793f e1af 7d3f d20f 7c3f
00000040: 1d17 833f 725d 7a3f 383d 783f 4035 7c3f
00000050: 07c5 6a3f 83ee 883f dc5a 6f3f 602e 783f
00000060: f9ee 773f 2b50 7e3f 48ac 713f d86c 763f
00000070: 5869 6d3f 1237 7d3f 80ff 753f 318d 713f

gating.net.5.bias f4 [32]
-0.029156907 -0.02864452 -0.048432007 0.007497835 -0.079510435 -0.025190186 -0.021305852 -0.06568219
-0.021067807 -0.009127103 0.00037453897 -0.013920668 -0.017503027 -0.022435747 -0.008552862 -0.012425556
-0.055256963 -0.0046155592 -0.038505323 -0.017018639 -0.05749555 -0.008851365 -0.01620042 -0.020075725
-0.029451825 0.019611152 -0.029357618 -0.0064690006 -0.064713866 -0.044337578 -0.020854613 -0.010309924
00000000: 77da eebc eaa7 eabc a460 46bd 66b0 f53b
00000010: 5ed6 a2bd a65b cebc 9c89 aebc 6284 86bd
00000020: 6596 acbc d889 15bc c55d c439 8313 64bc
00000030: 8262 8fbc 2ccb b7bc 4e21 0cbc 8f94 4bbc
00000040: 2055 62bd 1e3e 97bb c2b7 1dbd ac6a 8bbc
00000050: 7480 6bbd 5105 11bc beb6 84bc d975 a4bc
00000060: f444 f1bc 91a7 a03c 637f f0bc e9f9 d3bb
00000070: b488 84bd 529b 35bd 4bd7 aabc f5ea 28bc

gating.net.7.weight f4 [4, 32]
-0.11791148 -0.13423212 0.10792465 0.00023528945 0.071309276 0.15080275 0.024735142 -0.09967963
-0.043191757 -0.17036949 0.034700137 0.034012742 -0.20896086 -0.13568678 -0.12312377 -0.038306616
-0.041900262 0.07147629 -0.06955348 -0.11181758 0.0071975417 -0.26486292 0.01304438 -0.0071262643
-0.079408124 0.12870573 -0.030447217 0.05092345 -0.06750885 0.070822194 0.09418376 0.014681613
0.12496193 0.01609686 0.08301739 0.016041754 0.05152686 -0.12819119 -0.12659399 -0.1321856
-0.071547635 0.004323423 0.13624822 -0.065195315 -0.018867062 -0.117877185 -0.0969405 -0.021006154
0.124811865 0.12522048 0.04078469 -0.051876497 0.02250613 0.080126435 -0.05523916 -0.13435642
0.048859008 -0.16326523 -0.042236846 0.037340894 0.042885303 0.0051894407 -0.07284208 -0.11139769
0.011331643 -0.08300351 -0.030103136 0.024468174 0.02579035 0.026788475 0.078376375 -0.06457562
-0.027410856 -0.12047009 0.09117034 0.038909886 -0.07328603 0.012489791 -0.16867827 0.020007098
-0.018319344 0.057439923 -0.12976699 0.11125274 0.018775724 -0.004598944 -0.05712554 0.050216656
-0.014027927 0.09462835 -0.11982665 0.074660845 -0.08813329 0.12633051 0.03461022 0.015567771
-0.07232704 -0.10462556 0.015266353 -0.057567846 0.006800331 0.14293304 0.07426351 0.03061395
0.09246537 0.044135902 -0.08773504 -0.218763 0.08678626 -0.13410904 -0.019972276 -0.14450374
-0.0048333146 -0.028603122 0.029799785 -0.13992101 -0.028096791 0.0011567144 0.04897466 -0.07875557
-0.04717193 -0.027080663 -0.0691001 -0.016731016 0.056418624 -0.029313631 -0.01637279 -0.075573996
00000000: 937b f1bd 2574 09be 9907 dd3d 08b8 7639
00000010: 990a 923d 096c 1a3e 5aa1 ca3c d524 ccbd
00000020: d7e9 30bd 5775 2ebe bb21 0e3d f250 0b3d
00000030: d6f9 55be 7af1 0abe 5128 fcbd 66e7 1cbd
00000040: 9c9f 2bbd 2962 923d 0e72 8ebd 9e00 e5bd
00000050: 5bd9 eb3b 1d9c 87be 18b8 553c 7083 e9bb
00000060: baa0 a2bd 6fcb 033e 716c f9bc 1c95 503d
00000070: 1442 8abd 3a0b 913d 6ae3 c03d 268b 703c
00000080: 0aec ff3d 90dd 833c 0505 aa3d ff69 833c
00000090: d40d 533d 8d44 03be dba1 01be a95b 07be
000000a0: 9187 92bd 80ab 8d3b a784 0b3e 1f85 85bd
000000b0: 198f 9abc 9869 f1bd be88 c6bd 1915 acbc
000000c0: 5d9d ff3d cc39 003e d90d 273d 737c 54bd
000000d0: c75e b83c 5419 a43d 7542 62bd bb94 09be
000000e0: 6220 483d 002f 27be 8b00 2dbd c4f2 183d
000000f0: 80a8 2f3d 2f0c aa3b 3a2e 95bd 7924 e4bd
00000100: 5ba8 393c bffd a9bd da9a f6bc 7b71 c83c
00000110: 4946 d33c 8173 db3c cb83 a03d 3940 84bd
00000120: bb8c e0bc 06b9 f6bd 84b7 ba3d f95f 1f3d
00000130: fc16 96bd fba1 4c3c ffb9 2cbe ede5 a33c
00000140: 7312 96bc 2046 6b3d a3e1 04be 7ad8 e33d
00000150: 8ccf 993c bdb2 96bb 78fc 69bd fbaf 4d3d
00000160: 64d5 65bc 82cc c13d ad67 f5bd c9e7 983d
00000170: 3a7f b4bd c95c 013e 72c3 0d3d f70f 7f3c
00000180: 3320 94bd ed45 d6bd ba1f 7a3c 43cc 6bbd
00000190: 50d5 de3b 0a5d 123e 7817 983d 1bca fa3c
000001a0: 7c5e bd3d d9c7 343d 6eae b3bd 6803 60be
000001b0: ffbc b13d e153 09be e69c a3bc caf8 13be
000001c0: c860 9ebb 1851 eabc ae1e f43c 7447 0fbe
000001d0: 3e2b e6bc e59c 973a a799 483d 9a4a a1bd
000001e0: 5b37 41bd 44d8 ddbc 5a84 8dbd 7c0f 89bc
000001f0: 3717 673d 2423 f0bc 3b20 86bc 8ac6 9abd

gating.net.7.bias f4 [4]
0.03354357 0.15844779 -0.09568641 0.17949934
00000000: fc64 093d 2340 223e 3df7 c3bd adce 373e

experts.0.net.0.weight f4 [64, 3]
0.29513338 0.08809181 -0.4852622 0.28066367 0.1559758 0.5061409 0.17215851 0.056442235
-0.36639702 -0.38658786 -0.43864536 -0.5514243 0.4420542 -0.42284384 0.21448572 0.23531142
0.13623448 0.24143662 -0.43233085 0.4772107 -0.38644326 0.0663614 -0.3468573 0.43199104
0.3885619 0.6127401 0.33304834 0.57319194 -0.095233284 -0.24405283 0.19272164 -0.3669112
0.19322565 0.5118309 -0.11876726 -0.13042934 0.0678704 -0.3925778 -0.5230187 0.16154632
0.35959944 0.39078107 -0.32970595 0.10501554 0.12515862 0.3207785 0.35173324 0.5783476
0.07462725 -0.29878724 -0.27396372 -0.15044217 0.22463965 0.10648156 -0.4480308 -0.17217316
0.053471457 -0.27580175 0.38877016 0.029614849 -0.40243125 -0.24507362 -0.30074453 0.14698204
-0.4380938 0.1824463 0.40562868 0.2288225 -0.49131697 0.051765352 -0.113945805 -0.28484067
0.22353391 -0.43570918 -0.19219944 -0.38933852 0.48934773 0.36544827 -0.44369507 -0.34494573
0.40696195 -0.07880365 0.05193489 0.35631815 0.3462214 0.013767661 0.1653672 -0.16877101
0.2855548 -0.10974186 -0.25024316 -0.6205754 -0.46847007 -0.47224057 -0.40086052 0.31988177
-0.263122 -0.20192799 -0.12885216 -0.11137398 0.58100945 0.35421568 0.0684165 0.32410437
0.3884246 -0.28142875 0.29381216 -0.54019654 0.11389514 0.26258156 -0.33120576 0.5898678
-0.08627416 -0.36523417 0.11269964 -0.110275194 0.5107126 0.46764433 -0.0020147227 0.35478085
0.39259508 -0.2500621 -0.13674715 -0.40541393 0.53139627 0.31059858 -0.14867838 0.44436368
0.26701874 -0.46472514 0.49767604 -0.270371 -0.12016307 -0.079350024 0.45309535 0.18177645
-0.31254125 0.22360028 0.51565397 0.08801482 -0.28973755 -0.59262854 -0.08987605 -0.29318136
-0.33951873 0.51842016 0.005274225 0.22544312 0.0043220003 -0.40157425 0.3744162 0.43729448
0.32121098 0.19027458 0.20875408 -0.37468836 0.39322096 -0.5253622 0.11125187 -0.12401511
0.15908527 0.16606095 -0.28132585 -0.21686889 0.115286276 -0.2907337 0.2098611 -0.19115013
-0.28683358 -0.2570397 0.26017782 -0.293882 -0.054360792 0.600373 0.24535313 0.50667083
0.07519121 -0.42578006 -0.3566734 0.2107329 0.20101461 -0.037509486 -0.19192664 -0.52370733
0.4049561 -0.40346697 -0.45448074 0.07734725 -0.027712815 0.14642991 0.3824309 0.07149613
00000000: b91b 973e 7b69 b43d 4974 f8be 26b3 8f3e
00000010: 1fb8 1f3e 7392 013f 524a 303e f92f 673d
00000020: 6498 bbbe d8ee c5be 2096 e0be 252a 0dbf
00000030: ee54 e23e fd7e d8be 25a2 5b3e 7af5 703e
00000040: 0d81 0b3e 293b 773e 785a ddbe f654 f43e
00000050: e4db c5be 7ce8 873d 4897 b1be ee2d dd3e
00000060: 96f1 c63e 89dc 1c3f 5085 aa3e b5bc 123f
00000070: ab09 c3bd fce8 79be d258 453e c9db bbbe
00000080: f2dc 453e 5a07 033f 403c f3bd 458f 05be
00000090: a3ff 8a3d f5ff c8be 8ee4 05bf 666c 253e
000000a0: 6b1d b83e 7514 c83e 38cf a8be 6312 d73d
000000b0: 9529 003e 143d a43e 6116 b43e 970e 143f
000000c0: 2cd6 983d a4fa 98be f944 8cbe 830d 1abe
000000d0: f007 663e 0113 da3d 4b64 e5be 294e 30be
000000e0: e304 5b3d e335 8dbe e20c c73e d79a f23c
000000f0: 780b cebe 94f4 7abe 30fb 99be 7682 163e
00000100: d54d e0be 34d3 3a3e 90ae cf3e 7250 6a3e
00000110: e68d fbbe e807 543d 6b5c e9bd a3d6 91be
00000120: 13e6 643e 4615 dfbe eecf 44be 6157 c7be
00000130: c98b fa3e 091c bb3e 002c e3be ba9c b0be
00000140: 515d d03e cf63 a1bd aeb9 543d 556f b63e
00000150: ee43 b13e c191 613c 0556 293e 4fd2 2cbe
00000160: 3d34 923e 57c0 e0bd df1f 80be 08de 1ebf
00000170: 4fdb efbe 84c9 f1be 973d cdbe 8bc7 a33e
00000180: edb7 86be 36c6 4ebe d2f1 03be 0b18 e4bd
00000190: 09bd 143f c25b b53e f31d 8c3d 02f1 a53e
000001a0: 97df c63e 6e17 90be 8c6e 963e 524a 0abf
000001b0: db41 e93d 1771 863e cd93 a9be 9301 173f
000001c0: 82b0 b0bd f9ff babe 12cf e63d f6d7 e1bd
000001d0: 10be 023f 146f ef3e 7009 04bb d6a5 b53e
000001e0: 3902 c93e 2408 80be 7207 0cbe 6a92 cfbe
000001f0: 9609 083f c706 9f3e 253f 18be a383 e33e
00000200: aeb6 883e 74f0 edbe 65cf fe3e 116e 8abe
00000210: 0e18 f6bd 4482 a2bd 1dfc e73e 9b23 3a3e
00000220: 6805 a0be 79f7 643e e601 043f 1d41 b43d
00000230: 7b58 94be 81b6 17bf ef10 b8bd de1b 96be
00000240: 66d5 adbe 2fb7 043f 68d3 ac3b 90da 663e
00000250: 919f 8d3b 249b cdbe 7bb3 bf3e 10e5 df3e
00000260: c475 a43e 57d7 423e a1c3 553e 27d7 bfbe
00000270: 4254 c93e 237e 06bf 05d8 e33d a2fb fdbd
00000280: 40e7 223e e20b 2a3e f109 90be e112 5ebe
00000290: 361b ec3d 0cdb 94be d4e5 563e dcbc 43be
000002a0: dadb 92be b59a 83be 0736 853e b477 96be
000002b0: 6ca9 5ebd 0cb2 193f da3d 7b3e 2eb5 013f
000002c0: d9fd 993d d8ff d9be e59d b6be 5eca 573e
000002d0: c6d6 4d3e 8ca3 19bd 6b88 44be af11 06bf
000002e0: 6856 cf3e 3993 cebe b3b1 e8be 3c68 9e3d
000002f0: fc05 e3bc b9f1 153e fccd c33e 906c 923d

experts.0.net.0.bias f4 [64]
0.16600859 -0.40740585 0.11176155 -0.10222568 0.24646872 0.43333218 0.3339309 0.15965158
-0.57864517 -0.064340256 -0.5290498 -0.45443618 0.16651842 -0.19043636 0.02176896 -0.46195737
0.31186864 -0.20069745 0.2393393 -0.35735875 0.13876474 0.21395029 0.35201293 0.20125943
0.20004979 -0.14400841 -0.42556924 0.21727313 0.369843 0.35031253 -0.53192276 0.5533352
-0.009367519 -0.14825138 0.07965078 0.11643778 0.326965 -0.049912505 -0.4648487 -0.0182447
0.21275288 0.21952823 0.4988899 0.28498685 0.050980587 -0.41832778 -0.1449635 0.64301485
-0.16080087 -0.3611759 0.47381994 0.42723757 0.1688228 -0.059362754 -0.2826797 -0.007902949
0.15096983 -0.43923017 -0.4499016 0.43616766 -0.13185093 0.15637282 0.38724214 -0.113513075
00000000: 28fe 293e 8097 d0be 3de3 e43d b35b d1bd
00000010: 4c62 7c3e b7dd dd3e fef8 aa3e b47b 233e
00000020: 1722 14bf d3c4 83bd cf6f 07bf dcab e8be
00000030: ce83 2a3e c001 43be d154 b23c ad85 ecbe
00000040: 3fad 9f3e a283 4dbe 5d15 753e baf7 b6be
00000050: 5818 0e3e c915 5b3e 0a3b b43e f416 4e3e
00000060: dad9 4c3e f176 13be 36e4 d9be d97c 5e3e
00000070: 105c bd3e 2a5c b33e 172c 08bf 60a7 0d3f
00000080: 397a 19bc 36cf 17be f31f a33d ee76 ee3d
00000090: f567 a73e 0e71 4cbd a600 eebe e975 95bc
000000a0: e4db 593e 02cc 603e 7f6e ff3e cce9 913e
000000b0: 05d1 503d 0f2f d6be 5071 14be 9f9c 243f
000000c0: fca8 24be 0cec b8be 8798 f23e e2be da3e
000000d0: e2df 2c3e 5c26 73bd 65bb 90be 5f7b 01bc
000000e0: d697 1a3e c7e2 e0be 8159 e6be 5e51 df3e
000000f0: ee03 07be 3220 203e 9a44 c63e 8b79 e8bd

experts.0.net.1.weight f4 [64]
1.0046054 1.0437411 0.90034395 1.2040876 0.94074905 0.97718006 1.0029217 0.9375777
1.1768948 1.1440212 1.076013 0.9895717 0.96126187 1.0078658 0.9078977 1.0932512
1.0087554 0.9991515 1.0808554 0.9275099 1.0454166 0.9814312 0.9581844 0.9545834
0.9988772 1.1488824 1.1460099 0.9157156 0.87791187 0.95911026 1.2701477 1.0299157
0.95272195 1.0783732 0.8882095 1.0022717 0.9582358 1.1491727 1.1141877 0.9331428
0.9796288 1.0880637 0.9494344 1.0823696 0.9777674 1.1785445 1.1444314 1.1003157
0.98726004 0.949212 0.939068 0.98801947 0.9390517 1.0031421 0.990942 0.94044477
0.9481713 1.0891514 1.150084 1.021083 0.98338926 1.0437361 1.2585906 1.0284861
00000000: e996 803f 4f99 853f f17c 663f 8b1f 9a3f
00000010: eed4 703f 7928 7a3f bd5f 803f 1805 703f
00000020: 7da4 963f 496f 923f cbba 893f 9254 7d3f
00000030: 4215 763f bf01 813f fc6b 683f a8ef 8b3f
00000040: e61e 813f 65c8 7f3f 7859 8a3f 4a71 6d3f
00000050: 36d0 853f 133f 7b3f 934b 753f 945f 743f
00000060: 6bb6 7f3f 940e 933f 74b0 923f 566c 6a3f
00000070: d5be 603f 4088 753f 3394 a23f 47d4 833f
00000080: 96e5 733f 2208 8a3f b361 633f 704a 803f
00000090: f14e 753f 1718 933f b49d 8e3f 72e2 6e3f
000000a0: f4c8 7a3f ac45 8b3f 220e 733f 168b 8a3f
000000b0: f74e 7a3f 8cda 963f ba7c 923f 25d7 8c3f
000000c0: 13bd 7c3f 8fff 723f c366 703f d8ee 7c3f
000000d0: b165 703f f666 803f 60ae 7d3f fdc0 703f
000000e0: 5bbb 723f 5069 8b3f f435 933f d9b2 823f
000000f0: 66bf 7b3f 2599 853f 7f19 a13f 6fa5 833f

experts.0.net.1.bias f4 [64]
-0.014716341 0.005378408 -0.047555033 0.069423325 -0.08155359 -0.030833816 -0.009849056 -0.019149879
0.020840403 -0.07652909 0.08023433 0.061925787 0.015205666 -0.0075675556 0.05562577 0.014662712
-0.020725884 0.0057635414 0.021783719 0.057902146 0.02285056 -0.018033478 -0.069458485 -6.121684e-05
-0.010757928 0.052001968 0.033087663 -0.072990455 -0.08842809 -0.021867357 0.07592895 -0.015007431
0.12495357 -0.004868994 -0.07824891 0.044470828 -0.05906878 -0.062968716 -0.010001648 -0.062465858
-0.08147868 -0.016302697 -0.048899002 0.05418047 -0.027543336 0.036691967 -0.018530892 0.04589746
0.0070186546 -0.03816149 -0.047275934 -0.057451643 -0.1067298 0.04870855 0.14976875 0.062101193
-0.0032169286 0.087166704 0.058925327 0.0043617208 0.004236804 0.019636089 0.009125241 -0.021797214
00000000: cf1c 71bc 5b3d b03b 11c9 42bd d12d 8e3d
00000010: 9205 a7bd 3397 fcbc ef5d 21bc 35e0 9cbc
00000020: 7eb9 aa3c 49bb 9cbd e551 a43d e5a5 7d3d
00000030: 3021 793c 42f9 f7bb d9d7 633d df3b 703c
00000040: 54c9 a9bc 17dc bc3b c573 b23c cd2a 6d3d
00000050: 1931 bb3c f2ba 93bc 4040 8ebd 8a61 80b8
00000060: 0542 30bc 0400 553d ee86 073d 057c 95bd
00000070: c919 b5bd 2c23 b3bc a380 9b3d bae1 75bc
00000080: a8e7 ff3d 158c 9fbb f740 a0bd 0b27 363d
00000090: 1bf2 71bd bef5 80bd f4dd 23bc 33dc 7fbd
000000a0: 4bde a6bd 3c8d 85bc 524a 48bd 57ec 5d3d
000000b0: 90a2 e1bc 514a 163d 19ce 97bc fafe 3b3d
000000c0: befc e53b 394f 1cbd 69a4 41bd 6a52 6bbd
000000d0: 2795 dabd 9e82 473d fb5c 193e d25d 7e3d
000000e0: 1bd3 52bb 7584 b23d af5b 713d c4ec 8e3b
000000f0: e3d4 8a3b dddb a03c 0982 153c 1290 b2bc

experts.0.net.3.weight f4 [64, 64]
0.07563831 0.14228275 -0.105579644 0.07114371 -0.037356175 -0.0795701 0.025910178 0.02988651
-0.01713598 0.004874715 -0.10048067 -0.10166444 0.04648591 0.0046998896 0.056935698 0.064417124
0.071499854 0.016973453 -0.047775023 -0.06475409 0.06595888 0.050412215 -0.038058423 0.04568482
0.05792417 -0.049548857 0.04878129 -0.009747918 -0.042830765 0.014743604 -0.049855173 -0.08226346
0.12480833 0.016146066 0.12458603 -0.13053674 0.10127631 -0.09065733 -0.052502956 -0.10974752
-0.009508481 -0.10289958 -0.06197132 -0.010697479 0.11578171 -0.14032596 -0.07400478 -0.025152583
-0.1095837 0.009847899 -0.01686614 0.11576557 -0.10994051 -0.08854071 0.044933088 -0.13531417
0.09318929 -0.030807426 -0.04213717 0.09628799 0.031765528 0.023915675 0.03639466 -0.042217664
0.027062085 0.017062183 0.015240083 0.032132737 0.065752715 0.014236694 -0.06678017 0.016904494
-0.13419904 -0.12946956 0.0722745 -0.06335854 0.018482942 -0.048710328 0.12665296 -0.18727574
-0.04848436 0.10656319 0.0030544128 0.015065163 0.046028774 0.08535486 -0.021752218 -0.10706648
0.10620351 -0.06688325 -0.010125638 0.0001828331 -0.108923666 0.15545692 -0.0841455 0.078377366
-0.050946053 0.054292843 0.06803659 -0.02536316 -0.012709664 0.11256134 -0.07056579 -0.02058328
0.043475542 -0.07299401 -0.11767531 -0.0033527422 -0.06499952 -0.0708087 0.08044671 0.12871215
-0.03731617 -0.118365526 0.008957351 0.11809473 -0.00088486867 0.05360081 -0.093646355 -0.07195016
0.1225488 0.13816196 -0.0559508 -0.09636416 -0.04681079 -0.011029423 0.08909778 0.10165099
0.014787851 -0.076555274 -0.01581326 -0.033883944 -0.07550276 0.12952748 0.07571928 0.03538114
-0.047433607 -0.08608666 0.027687307 -0.12517342 -0.073716044 -0.13135108 -0.04670258 -0.16160184
0.017814329 0.04685105 0.08716932 -0.09498493 -0.028735504 -0.089796335 0.0787171 -0.025920916
0.08579536 0.0127550885 -0.065574855 0.04898984 -0.06974756 0.121682204 0.061442625 0.08042132
0.061755523 0.013354942 0.080667175 -0.13465354 0.110933974 0.08191696 -0.11111263 0.032216743
0.073660925 0.111260414 0.020981941 -0.016053969 -0.06373534 -0.13813432 -0.08843377 -0.08267483
-0.095343046 0.06462989 0.024198178 0.022585286 -0.07961304 -0.05443388 0.037618745 0.012101494
0.11096697 0.04645279 -0.09464557 0.07661821 0.04272162 0.053101495 0.08863444 -0.09517452
0.085864484 -0.11548109 -0.07754243 0.028591009 -0.09899302 0.04400403 -0.047478072 0.0689007
0.05498848 0.05245877 0.024804197 0.06645959 -0.027463911 0.013963116 -0.002094583 0.095055714
-0.08177113 -0.120626494 0.01430652 -0.011764403 0.13685529 0.1081992 0.019589864 -0.10946878
0.10967039 -0.08436818 0.06883368 0.048488155 0.08056304 -0.05845317 -0.13282007 0.09317251
0.030808067 0.004465014 0.071678184 -0.09931507 0.017769054 0.0846969 -0.037493274 -0.11237928
-0.0059022657 -0.0055884523 0.09608003 -0.02828116 -0.011194338 -0.11599312 0.0052553215 0.008314807
0.0945569 0.13219908 -0.12767138 -0.04941819 0.047149573 -0.11983758 -0.043891456 -0.09903643
0.021577934 -0.032020647 -0.09202307 0.0016561075 0.03040283 -0.09330429 0.12508383 0.073207565
00000000: 42e8 9a3d 92b2 113e 243a d8bd cbb3 913d
00000010: ca02 19bd a6f5 a2bd 9541 d43c 8ed4 f43c
00000020: c160 8cbc 13bc 9f3b cfc8 cdbd 7235 d0bd
00000030: 0268 3e3d 8801 9a3b 6835 693d 20ed 833d
00000040: 846e 923d e90b 8b3c beaf 43bd cb9d 84bd
00000050: 7315 873d 0a7d 4e3d 26e3 1bbd 0120 3b3d
00000060: e541 6d3d bef3 4abd e4ce 473d bbb5 1fbc
00000070: 506f 2fbd 288f 713c f034 4cbd bf79 a8bd
00000080: 829b ff3d c144 843c f626 ff3d 6cab 05be
00000090: f469 cf3d 8daa b9bd 570d 57bd 4fc3 e0bd
000000a0: 76c9 1bbc 04bd d2bd a4d5 7dbd 7b44 2fbc
000000b0: f61e ed3d 9cb1 0fbe d18f 97bd ca0c cebc
000000c0: 6b6d e0bd 1559 213c dc2a 8abc 8016 ed3d
000000d0: 7d28 e1bd d554 b5bd c20b 383d cc8f 0abe
000000e0: 07da be3d db5f fcbc 0698 2cbd a332 c53d
000000f0: 921c 023d ceea c33c 9112 153d 6eec 2cbd
00000100: 4eb1 dd3c fec5 8b3c 8bb1 793c 9e9d 033d
00000110: 5ca9 863d 0641 693c 0bc4 88bd 4b7b 8a3c
00000120: 796b 09be ab93 04be a704 943d 1fc2 81bd
00000130: 8a69 973c 7b84 47bd 50b1 013e 36c5 3fbe
00000140: 8997 46bd cd3d da3d 8b2c 483b e0d3 763c
00000150: ab88 3c3d 87ce ae3d b531 b2bc ac45 dbbd
00000160: 3a81 d93d 16fa 88bd 01e6 25bc e3b6 3f39
00000170: 5f13 dfbd 1930 1f3e 7a54 acbd 5084 a03d
00000180: cfac 50bd 2c62 5e3d c556 8b3d 67c6 cfbc
00000190: 323c 50bc 8f86 e63d cc84 90bd 449e a8bc
000001a0: 6913 323d e27d 95bd c1ff f0bd aeb9 5bbb
000001b0: 781e 85bd 2704 91bd 3fc1 a43d 1ecd 033e
000001c0: d7d8 18bd a069 f2bd dac1 123c a6db f13d
000001d0: 88f6 67ba 868c 5b3d a9c9 bfbd 9b5a 93bd
000001e0: defa fa3d 547a 0d3e ab2c 65bd 935a c5bd
000001f0: acbc 3fbd c1b4 34bc e678 b63d 652e d03d
00000200: be48 723c 03c9 9cbd cf8a 81bc e4c9 0abd
00000210: 31a1 9abd daa2 043e b612 9b3d d0eb 103d
00000220: be49 42bd 344e b0bd 7ed0 e23c 762d 00be
00000230: 70f8 96bd e680 06be 344b 3fbd f47a 25be
00000240: 5bef 913c e3e6 3f3d d485 b23d 7587 c2bd
00000250: b866 ebbc 24e7 b7bd 6e36 a13d 1a58 d4bc
00000260: 7ab5 af3d b8fa 503c 1c4c 86bd 92a9 483d
00000270: cfd7 8ebd 8534 f93d 43ab 7b3d efb3 a43d
00000280: 5cf3 7c3d b0ce 5a3c d534 a53d 9ee2 09be
00000290: 5a31 e33d 14c4 a73d 058f e3bd b4f5 033d
000002a0: 8adb 963d 80dc e33d 52e2 ab3c 9d83 83bc
000002b0: ad87 82bd 1573 0dbe c41c b5bd 6c51 a9bd
000002c0: 3743 c3bd ad5c 843d 423b c63c c704 b93c
000002d0: 290c a3bd 0ff6 5ebd 1d16 1a3d 5845 463c
000002e0: a742 e33d 4845 3e3d 89d5 c1bd 02ea 9c3d
000002f0: defc 2e3d f480 593d f985 b53d dcea c2bd
00000300: b8d9 af3d 5a81 ecbd 91ce 9ebd b137 ea3c
00000310: dabc cabd 923d 343d 5e78 42bd cf1b 8d3d
00000320: 9a3b 613d 02df 563d 2c32 cb3c f71b 883d
00000330: fffb e0bc 8ec5 643c 4545 09bb 92ac c23d
00000340: 9f77 a7bd 060b f7bd e565 6a3c 7cbf 40bc
00000350: cb23 0c3e 8b97 dd3d ec7a a03c 2b31 e0bd
00000360: df9a e03d 39c9 acbd acf8 8c3d 849b 463d
00000370: 3cfe a43d 976c 6fbd fc01 08be 3bd1 be3d
00000380: 3361 fc3c 414f 923b 03cc 923d b365 cbbd
00000390: 6890 913c 9175 ad3d 8c92 19bd 1c27 e6bd
000003a0: cb67 c1bb 561f b7bb 9bc5 c43d e4ad e7bc
000003b0: 7568 37bc cd8d edbd d534 ac3b d43a 083c
000003c0: 0ca7 c13d 325f 073e 49bc 02be ba6a 4abd
000003d0: e91f 413d 686d f5bd 87c7 33bd 9dd3 cabd
000003e0: 35c4 b03c 1528 03bd 9776 bcbd bf11 d93a
000003f0: 5b0f f93c 5216 bfbd fa15 003e d9ed 953d

experts.0.net.3.bias f4 [64]
0.15336978 0.012455957 -0.06412501 -0.005923958 0.029507913 -0.042068847 0.12280863 0.08128508
-0.10664122 -0.10969883 0.030936493 -0.084878996 -0.033784047 0.06627088 0.07089597 0.008105395
-0.038492303 -0.042753782 -0.12131708 -0.050473217 -0.0004585712 -0.051005036 0.03298198 0.104959376
-0.14198656 0.14179936 -0.1509988 -0.044056483 0.07483218 0.047391336 -0.025553323 -0.042735014
0.10547144 0.054244272 -0.032763913 -0.075358264 -0.005310591 0.08334067 -0.09175156 -0.070482984
0.020635316 0.1322955 0.0025611154 -0.06719151 -0.038849372 -0.06661413 -0.0018960808 -0.04372058
-0.03837706 0.064870626 0.10390573 -0.095565096 0.14569616 0.082359925 -0.14124376 -0.0076429457
0.013886339 -0.050068766 0.098240554 0.10428897 -0.056993652 0.103233285 0.10558171 0.030763205
00000000: f80c 1d3e 1214 4c3c f953 83bd c31d c2bb
00000010: 94ba f13c 6250 2cbd 1783 fb3d cb78 a63d
00000020: b666 dabd c8a9 e0bd 876e fd3c 0ad5 adbd
00000030: 2461 0abd 07b9 873d e831 913d 7ecc 043c
00000040: 1baa 1dbd 971e 2fbd 1775 f8bd 01bd 4ebd
00000050: 626c f0b9 a8ea 50bd 1d18 073d f1f4 d63d
00000060: ed64 11be da33 113e 6e9f 1abe 9274 34bd
00000070: 9d41 993d 6b1d 423d 3455 d1bc e90a 2fbd
00000080: 6901 d83d 3e2f 5e3d 7433 06bd 6f55 9abd
00000090: 7704 aebb 83ae aa3d 3ee8 bbbd 6259 90bd
000000a0: 650b a93c 7978 073e 63d8 273b b49b 89bd
000000b0: 8520 1fbd fd6c 88bd ea85 f8ba 5a14 33bd
000000c0: 4431 1dbd e4da 843d 87cc d43d a2b7 c3bd
000000d0: 6031 153e 52ac a83d 34a2 10be ad71 fabb
000000e0: 8783 633c e814 4dbd 5832 c93d 7595 d53d
000000f0: 2d72 69bd f96b d33d 393b d83d 1e03 fc3c

experts.0.net.4.weight f4 [64]
1.0303146 0.94307494 0.97724426 0.93000084 0.9530966 0.9522124 1.097652 0.89766765
0.9190984 1.1222413 0.89662695 0.9838404 0.978357 1.0797168 0.9859381 1.0967069
1.0651122 1.1116836 0.9502456 0.9386092 0.9885772 1.0182225 1.0012615 1.0174332
0.9427897 1.1910294 1.0495058 1.006086 1.1042652 1.062895 0.9863393 1.0145218
1.1461151 1.0081416 0.9528542 0.9566447 0.9773838 0.8786203 0.84089863 0.98264647
1.0410194 1.0808983 0.9443299 1.0637808 0.9780264 1.0419049 1.0178186 1.1101767
1.0379511 1.0888603 1.0587583 1.0482247 1.0015469 1.0679921 1.1241896 0.95045733
1.0851195 1.1253033 1.0637333 1.0675815 0.8764298 1.1334814 0.95691967 1.0183145
00000000: 59e1 833f 5c6d 713f ae2c 7a3f 8914 6e3f
00000010: 24fe 733f 31c4 733f dc7f 8c3f 8ccd 653f
00000020: 084a 6b3f 9aa5 8f3f 5889 653f f7dc 7b3f
00000030: 9b75 7a3f 2934 8a3f 7066 7c3f e460 8c3f
00000040: 9955 883f a64b 8e3f 4c43 733f b148 703f
00000050: 6513 7d3f 1d55 823f 5629 803f 403b 823f
00000060: aa5a 713f a773 983f 3556 863f 6dc7 803f
00000070: 9058 8d3f f20c 883f bb80 7c3f dadb 813f
00000080: e6b3 923f c90a 813f 41ee 733f abe6 743f
00000090: d335 7a3f 43ed 603f 2245 573f b88e 7b3f
000000a0: 2040 853f e05a 8a3f 9bbf 713f f829 883f
000000b0: f05f 7a3f 245d 853f e147 823f 451a 8e3f
000000c0: 95db 843f c65f 8b3f 6485 873f 3a2c 863f
000000d0: b032 803f f7b3 883f 72e5 8f3f 2c51 733f
000000e0: 32e5 8a3f f009 903f 6a28 883f 83a6 883f
000000f0: b45d 603f eb15 913f b0f8 743f 2158 823f

experts.0.net.4.bias f4 [64]
-0.03152319 -0.03225142 -0.00051656726 -0.039851822 -0.056621578 -0.036049675 -0.024544789 -0.009183945
-0.04748391 -0.016629277 -0.044310715 -0.007442119 -0.021220243 0.009568017 -0.04146834 -0.013008857
-0.048124865 -0.037925497 -0.036840327 -0.018560717 -0.015469091 -0.03286818 -0.031297438 -0.017104482
-0.022558214 0.011048982 -0.041244052 -0.030849779 -0.027905656 0.002699614 -0.016426496 -0.030331964
-0.021519009 -0.020438673 -0.008921192 -0.028614081 -0.045896273 -0.053129148 -0.049419954 -0.04216874
-0.029615369 -0.039050408 -0.01193555 -0.026718857 -0.021853391 0.02791447 -0.04592018 -0.053861406
-0.028718375 -0.02519989 -0.0572283 -0.033996418 -0.012993963 -0.0054206485 -0.045179084 -0.024613628
-0.030774858 -0.027446972 -0.0021220394 -0.080409326 -0.028088063 -0.01839615 -0.026120305 -0.04022363
00000000: 761e 01bd 111a 04bd 3e6a 07ba aa3b 23bd
00000010: 07ec 67bd d3a8 13bd 2712 c9bc 4278 16bc
00000020: 7d7e 42bd 1f3a 88bc 277f 35bd 05dd f3bb
00000030: 13d6 adbc 2cc3 1c3c b5da 29bd 1a23 55bc
00000040: 941e 45bd c457 1bbd e2e5 16bd a50c 98bc
00000050: 1272 7dbc c9a0 06bd be31 00bd b31e 8cbc
00000060: 01cc b8bc ca06 353c 86ef 28bd adb8 fcbc
00000070: 679a e4bc 02ec 303b dc90 86bc bd7a f8bc
00000080: a248 b0bc 016f a7bc 312a 12bc 1468 eabc
00000090: bbfd 3bbd f39d 59bd 946c 4abd 21b9 2cbd
000000a0: ee9b f2bc 52f3 1fbd 538d 43bc 81e1 dabc
000000b0: e205 b3bc e3ac e43c cc16 3cbd c79d 5cbd
000000c0: cc42 ebbc 0070 cebc 3968 6abd d43f 0bbd
000000d0: a2e4 54bc b29f b1bb b40d 39bd 85a2 c9bc
000000e0: 8e1b fcbc 79d8 e0bc ea11 0bbb a5ad a4bd
000000f0: f018 e6bc 86b3 96bc 40fa d5bc 88c1 24bd

experts.0.net.6.weight f4 [64, 64]
-0.09599726 -0.059862517 0.05516665 -0.09794469 -0.08155261 0.00032039304 -0.091652915 -0.061258655
0.019439906 -0.044672176 0.0005839101 0.022841629 -0.05547758 -0.029597923 -0.08167833 -0.053649787
0.068253405 -0.09264704 0.0040364736 0.11054789 -0.02057633 -0.06551887 0.07494635 -0.016443593
0.074683614 -0.07426406 0.10443684 0.121552095 0.14949761 0.098707065 -0.1070595 0.07619633
0.03374271 0.14073904 0.032973725 -0.05801973 0.06982138 -0.1235418 0.044366423 0.018105168
-0.10749899 0.08469038 0.06637921 0.0059388457 -0.013488767 -0.0066047087 0.05245246 -0.033172783
0.021545166 -0.02308133 0.04358933 0.06693264 0.025555879 0.11346544 -0.0705912 0.049339928
0.09757142 -0.027827682 0.053753376 -0.044825815 -0.06290804 -0.044158056 0.06406532 -0.12649529
0.0030818826 0.10487966 0.0011640185 -0.0505633 -0.10451669 -0.030128743 0.12271419 0.045247555
-0.10935473 -0.14334759 0.06269105 -0.16440873 -0.09692625 -0.10989941 -0.11225298 0.123204276
-0.070108846 0.056214735 -0.070623025 -0.06650534 -0.017961672 -0.11933081 -0.11509955 -0.08386615
-0.118886285 0.11574503 0.09066748 -0.079378165 0.10331766 -0.1057638 0.08552772 -0.055111643
-0.12309525 -0.15013678 0.13565385 0.10569399 -0.06798992 0.07194941 -0.09574996 0.07648319
0.064831905 0.16972627 0.04391944 0.020864958 0.024025144 -0.07492184 -0.061226584 0.0746598
-0.034954824 -0.056342572 -0.07565459 0.06726028 0.07244502 0.03242954 0.05329614 -0.104849674
-0.13838327 0.09443918 0.066021554 0.10994087 -0.059213005 0.25824893 0.12168379 0.089296736
0.11357506 0.074971296 -0.06972903 -0.007729664 0.08202352 0.045920327 0.14896122 0.049025312
-0.044758942 -0.14646281 0.0059002936 0.008967973 0.015472083 -0.09607716 -0.040541407 -0.1212865
-0.008878588 -0.047531977 0.027063377 -0.035606336 -0.011838463 -0.007846557 0.014496887 -0.088089176
-0.100298904 0.15352887 -0.08568887 -0.03266963 -0.0421404 0.10684041 -0.050036818 -0.072634235
-0.016128616 0.10747575 -0.047305644 -0.05938734 -0.007895573 -0.053374838 0.00016712371 0.038763795
-0.023601675 0.0005355389 -0.042516995 -0.11438157 0.13789159 0.042172205 -0.08357939 0.06395198
0.012010454 -0.03879072 0.028060293 0.05570941 0.12480764 0.02299149 0.0019445107 0.034935135
-0.040635884 0.09678094 -0.08049867 0.041902736 0.015092651 0.038260564 0.1000421 0.027321167
-0.065018795 0.044060484 0.051703352 -0.04146989 -0.15072462 0.07286097 0.0346558 -0.14754988
-0.008453633 0.11121641 0.09957153 -0.0007423871 0.029051796 0.12137175 0.08226234 -0.12191287
-0.050519638 -0.10200783 0.07127403 -0.06545754 0.045147892 0.08611812 0.12312257 -0.033795763
-0.08699471 -0.116192736 0.029243825 0.06640068 -0.07899373 -0.024221484 0.007234476 0.043714777
0.045414694 0.21271266 0.064630456 0.027984142 0.11503205 -0.05462151 0.047459338 -0.022165457
-0.18170996 -0.19339569 -0.048415974 -0.029663026 -0.13039964 0.11615141 0.0574615 -0.15978758
-0.02935476 -0.07709147 0.24298136 0.12460955 0.030995851 -0.01518384 0.06578072 0.053328596
0.1910969 0.007174244 -0.10590459 -0.12745795 -0.027063234 -0.058929652 0.00426069 -0.09312841
00000000: 369a c4bd 6632 75bd 6df6 613d 3a97 c8bd
00000010: 0e05 a7bd 6dfa a739 86b4 bbbd 5bea 7abd
00000020: 7040 9f3c 2cfa 36bd 8b11 193a 5e1e bb3c
00000030: 753c 63bd 5877 f2bc f846 a7bd e1bf 5bbd
00000040: 71c8 8b3d bbbd bdbd 6544 843b ef66 e23d
00000050: b18f a8bc c22e 86bd 797d 993d b7b4 86bc
00000060: b9f3 983d c117 98bd fbe2 d53d 4ef0 f83d
00000070: e715 193e ee26 ca3d 0342 dbbd d20c 9c3d
00000080: cc35 0a3d e51d 103e 750f 073d 19a6 6dbd
00000090: 83fe 8e3d 7c03 fdbd 91b9 353d 4a51 943c
000000a0: 6e28 dcbd 2672 ad3d d3f1 873d a69a c23b
000000b0: fdff 5cbc 506c d8bb 64d8 563d 2fe0 07bd
000000c0: 7d7f b03c 0f15 bdbc ba8a 323d fb13 893d
000000d0: 905a d13c 9260 e83d 1e92 90bd aa18 4a3d
000000e0: 86d3 c73d e1f6 e3bc 802c 5c3d 469b 37bd
000000f0: eed5 80bd 14df 34bd ae34 833d fb87 01be
00000100: 69f9 493b 26cb d63d fb91 983a 761b 4fbd
00000110: d90c d6bd 8ed0 f6bc 9451 fb3d 8055 393d
00000120: 5ff5 dfbd b6c9 12be 2a64 803d c35a 28be
00000130: 4581 c6bd f112 e1bd e4e4 e5bd 8652 fc3d
00000140: 3a95 8fbd 6c41 663d cea2 90bd f433 88bd
00000150: 5b24 93bc b663 f4bd 50b9 ebbd 04c2 abbd
00000160: a77a f3bd bb0b ed3d dfaf b93d 0591 a2bd
00000170: 3698 d33d b19a d8bd 2829 af3d bfbc 61bd
00000180: 5d19 fcbd 75bd 19be d8e8 0a3e 1776 d83d
00000190: 4d3e 8bbd 365a 933d 8e18 c4bd 38a3 9c3d
000001a0: 97c6 843d b9cc 2d3e dfe4 333d fdec aa3c
000001b0: 61d0 c43c 9f70 99bd bac8 7abd 3de7 983d
000001c0: ca2c 0fbd 78c7 66bd cbf0 9abd c2bf 893d
000001d0: 0e5e 943d d6d4 043d 0e4d 5a3d 6dbb d6bd
000001e0: 58b4 0dbe 5469 c13d 4f36 873d ae28 e13d
000001f0: 5689 72bd 3439 843e 5a35 f93d 35e1 b63d
00000200: 0b9a e83d 8d8a 993d 18ce 8ebd 1f49 fdbb
00000210: f2fb a73d f416 3c3d 4a89 183e c4ce 483d
00000220: 2755 37bd 59fa 15be 4057 c13b 68ee 123c
00000230: 9f7e 7d3c 1ac4 c4bd bf0e 26bd 0e65 f8bd
00000240: 7f77 11bc e4b0 42bd 04b4 dd3c f3d7 11bd
00000250: 1df6 41bc d88e 00bc 5a84 6d3c 1968 b4bd
00000260: 8369 cdbd ac36 1d3e a57d afbd 97d0 05bd
00000270: 699b 2cbd 25cf da3d 68f3 4cbd 42c1 94bd
00000280: 2920 84bc 3f1c dc3d 90c3 41bd 2440 73bd
00000290: 6f5c 01bc 939f 5abd ee3d 2f39 c9c6 1e3d
000002a0: 4d58 c1bc 6863 0c3a 4d26 2ebd e240 eabd
000002b0: 7433 0d3e c3bc 2c3d ac2b abbd 41f9 823d
000002c0: 7fc7 443c 05e3 1ebd b3de e53c 8d2f 643d
000002d0: 269b ff3d a658 bc3c f4de fe3a 2518 0f3d
000002e0: d071 26bd 1635 c63d 7ddc a4bd 34a2 2b3d
000002f0: 2b47 773c 1cb7 1c3d dfe2 cc3d a4d0 df3c
00000300: 9328 85bd c478 343d e5c6 533d 55dc 29bd
00000310: 8e57 1abe 2238 953d 3df3 0d3d 5117 17be
00000320: 1b81 0abc 6ec5 e33d 29ec cb3d c19c 42ba
00000330: 08fe ed3c c191 f83d 2879 a83d 74ad f9bd
00000340: aeed 4ebd 7be9 d0bd 1ef8 913d 9a0e 86bd
00000350: ffec 383d b25e b03d b027 fc3d 6d6d 0abd
00000360: 482a b2bd 75f6 edbd bf90 ef3c 14fd 873d
00000370: 77c7 a1bd 226c c6bc 2f0f ed3b 440e 333d
00000380: c204 3a3d 59d1 593e f95c 843d 003f e53c
00000390: ec95 eb3d ceba 5fbd b964 423d 5594 b5bc
000003a0: 2d12 3abe 8509 46be d44f 46bd e0ff f2bc
000003b0: 7c87 05be cae0 ed3d c05c 6b3d 5b9f 23be
000003c0: 6579 f0bc 22e2 9dbd 1bd0 783e 4b33 ff3d
000003d0: 03eb fd3c a4c5 78bc 0bb8 863d 166f 5a3d
000003e0: e8ae 433e ec15 eb3b 81e4 d8bd 5684 02be
000003f0: b7b3 ddbc 3860 71bd 429d 8b3b 1cba bebd

experts.0.net.6.bias f4 [64]
0.05184432 -0.071342155 0.033228353 0.06260919 -0.0010755092 -0.03681985 -0.08570515 -0.056399774
0.011782941 0.012150925 -0.0635645 -0.11066896 0.016985165 0.050403662 0.038395863 -0.07208327
-0.017770778 0.004072003 0.033547323 0.10789215 -0.059143323 -0.0222434 0.025687557 -0.08352305
-0.03757291 -0.0827492 -0.018880887 -0.016811611 -0.092972025 -0.04293434 -0.031182112 -0.08882555
-0.08171337 0.038044523 0.050083704 -0.017407734 0.04956723 -0.060185414 -0.08145041 0.07586032
0.06065409 -0.11768018 0.05097178 -0.07384363 -0.058258094 -0.12266345 -0.051650867 -0.06892418
-0.0031553311 0.065412894 -0.053238608 0.07175808 0.0435804 -0.01867728 0.07845681 -0.07337821
-0.09470733 -0.1052379 -0.014036309 -0.10265273 -0.010657258 -0.032823242 -0.06607521 0.03791339
00000000: b65a 543d d61b 92bd 741a 083d 3f39 803d
00000010: 1af8 8cba 69d0 16bd 2f86 afbd 7303 67bd
00000020: 3d0d 413c ac14 473c 1b2e 82bd 68a6 e2bd
00000030: 7924 8b3c 1274 4e3d fb44 1d3d 65a0 93bd
00000040: 0694 91bc 706e 853b eb68 093d 8ff6 dc3d
00000050: 4540 72bd ca37 b6bc b66e d23c 220e abbd
00000060: 0de6 19bd 6a78 a9bd 17ac 9abc 81b8 89bc
00000070: 1e68 bebd ebdb 2fbd a171 ffbc 2cea b5bd
00000080: 5759 a7bd 93d4 1b3d 9224 4d3d aa9a 8ebc
00000090: 0207 4b3d fb84 76bd 79cf a6bd a85c 9b3d
000000a0: 6c70 783d 4e02 f1bd c9c7 503d 543b 97bd
000000b0: 0aa0 6ebd fa36 fbbd dc8f 53bd 1f28 8dbd
000000c0: acc9 4ebb 32f7 853d ba10 5abd e6f5 923d
000000d0: 5d81 323d 1801 99bc f7ad a03d 5147 96bd
000000e0: ebf5 c1bd f886 d7bd 8cf8 65bc 983b d2bd
000000f0: c89b 2ebc aa71 06bd 7152 87bd 124b 1b3d

experts.0.net.7.weight f4 [64]
0.98411316 1.3737698 1.0703146 0.93996793 1.0088749 1.0480051 0.9862841 1.0080109
0.9177983 1.1154699 0.9949974 1.0815972 1.0183059 0.9803401 1.1007155 0.9877716
1.2568904 1.0632167 0.9746294 1.1043184 1.0266544 0.95045054 0.9827466 1.0852568
0.99729663 1.0189934 0.9398843 0.95474386 1.0718573 1.1743491 1.0463727 0.98126423
0.9990027 1.0058922 1.1164675 1.0203655 0.95979416 0.9592139 1.067936 1.0118346
1.0213894 1.155331 0.9853571 0.94189334 1.1697401 1.1562902 0.99990183 0.9554793
1.0457112 0.96768916 0.9789223 0.9706942 1.0309979 1.0926595 0.98242164 0.96550405
0.9661581 0.9788718 1.0395639 0.97080785 1.065391 1.1367763 0.8889816 1.2724125
00000000: d7ee 7b3f b0d7 af3f 1200 893f bda1 703f
00000010: d022 813f 0825 863f 1d7d 7c3f 8006 813f
00000020: d4f4 6a3f b8c7 8e3f 26b8 7e3f c771 8a3f
00000030: d957 823f 92f7 7a3f 3fe4 8c3f 99de 7c3f
00000040: c9e1 a03f 7c17 883f 5081 793f 4e5a 8d3f
00000050: 6969 833f ba50 733f 4895 7b3f b2e9 8a3f
00000060: d54e 7f3f 606e 823f 429c 703f 186a 743f
00000070: 9f32 893f 1251 963f 8aef 853f 2234 7b3f
00000080: a4be 7f3f 13c1 803f 68e8 8e3f 569b 823f
00000090: 12b5 753f 0b8f 753f 20b2 883f cc83 813f
000000a0: e3bc 823f e3e1 933f 5d40 7c3f ec1f 713f
000000b0: 0bba 953f 5101 943f 91f9 7f3f 4b9a 743f
000000c0: ddd9 853f 7aba 773f a79a 7a3f 6a7f 783f
000000d0: bdf7 833f 44dc 8b3f fc7f 7b3f 462b 773f
000000e0: 2356 773f 5897 7a3f 6e10 853f dd86 783f
000000f0: bb5e 883f e381 913f 4c94 633f 6ade a23f

experts.0.net.7.bias f4 [64]
-0.0037537732 0.039053608 -0.022206565 -0.07966919 0.011116225 -0.021939686 -0.018031888 -0.015351993
-0.07618132 -0.0030655437 0.0021714484 -0.012629967 0.024512341 -0.02309679 0.0025031508 0.082159646
0.055096664 0.0021659646 -0.01101889 -0.0047892197 -0.020853313 -0.022299185 -0.016871016 -0.0012741743
-0.0025865452 -0.0022550663 -0.022726456 -0.023802824 -0.0029126334 -0.01318955 0.0019383251 -0.05014545
-0.01138509 0.009926872 0.00026751566 -0.0011622321 -0.04046236 -0.010260695 -0.00822892 0.0062696165
-0.024558254 -0.033621013 -0.00025185553 -0.025369331 -0.0047339625 -0.0009514674 0.0017204831 -0.037205573
-0.01585613 -0.018210007 -0.0014123485 -0.01823639 -0.03356495 0.0053772167 -0.00052663696 0.02129744
0.0020839379 -0.027020354 0.008312369 -0.007913596 0.017266553 -0.016470866 -0.09367244 0.023454154
00000000: dd01 76bb adf6 1f3d 8bea b5bc 9a29 a3bd
00000010: d420 363c dbba b3bc 9cb7 93bc ed86 7bbc
00000020: f404 9cbd 4ae7 48bb dc4e 0e3b eced 4ebc
00000030: 1bce c83c 7b35 bdbc e70b 243b 5143 a83d
00000040: 0aad 613d dbf2 0d3b 9388 34bc e3ee 9cbb
00000050: 91d4 aabc c8ac b6bc 1635 8abc 3202 a7ba
00000060: 0783 29bb bcc9 13bb d52c babc 24fe c2bc
00000070: e1e1 3ebb fb18 58bc 660f fe3a 5165 4dbd
00000080: 8788 3abc 52a4 223c 5841 8c39 0a56 98ba
00000090: dcbb 25bd 791c 28bc 98d2 06bc 5b71 cd3b
000000a0: 642e c9bc 30b6 09bd 7a0b 84b9 58d3 cfbc
000000b0: 5b1f 9bbb e56b 79ba d581 e13a df64 18bd
000000c0: b7e4 81bc 272d 95bc 8d1e b9ba 7b64 95bc
000000d0: 677b 09bd 5d33 b03b 020e 0aba f877 ae3c
000000e0: ad92 083b ca59 ddbc 9a30 083c 07a8 01bc
000000f0: 9672 8d3c e9ed 86bc 56d7 bfbd ed22 c03c
