checkpoints/checkpoint_3000.pt (torch, 174016 bytes, 66 tensors)

gating.net.0.weight f4 [32, 3]
-0.29038742 -0.043639973 -0.09149089 -0.17916189 -0.012659332 -0.32921046 -0.41101837 0.18501481
-0.24541745 0.260725 -0.30209678 0.22517477 0.45470804 -0.02530259 -0.34451988 0.47088426
-0.25286224 0.5194342 0.03676456 0.0947349 0.029332805 0.31688493 -0.45478114 -0.17233357
-0.28320906 0.41036174 -0.16752344 -0.007981053 0.26187003 0.13656197 -0.4061651 -0.32724893
-0.26252282 0.012885655 -0.4261514 -0.09225717 -0.07745487 -0.335472 -0.104515314 0.19325131
0.56256825 0.028121844 0.46052688 -0.22239964 0.11654941 -0.41719505 0.08507094 -0.10665496
-0.45254105 0.31737208 0.2026594 0.527426 0.17233951 0.4334656 0.45198458 -0.28699672
-0.5454236 0.27743196 0.19064726 0.19515173 0.345812 0.18413207 -0.15494505 0.12739933
-0.42141068 0.24003795 -0.45941365 0.38389444 -0.36815786 0.4312256 -0.67337996 0.23852657
-0.42271262 -0.013929747 0.39350635 -0.11520623 -0.19018637 -0.30069602 0.4080571 0.22576304
-0.2086385 -0.4142236 -0.23882851 -0.057584852 0.2712383 -0.54730785 0.51554596 -0.35359812
0.15646182 0.39924273 0.25769573 -0.22772884 -0.47277611 -0.22311752 -0.0293675 0.071169995
00000000: a9ad 94be d4bf 32bd 935f bbbd 3776 37be
00000010: 1669 4fbc 468e a8be 0071 d2be 8674 3d3e
00000020: b64e 7bbe bf7d 853e 6eac 9abe 3794 663e
00000030: 7ecf e83e 6147 cfbc e964 b0be be17 f13e
00000040: 2977 81be a4f9 043f 6f96 163d 5f04 c23d
00000050: 5a4b f03c be3e a23e 13d9 e8be 3678 30be
00000060: c700 91be ef1a d23e 448b 2bbe f6c2 02bc
00000070: d413 863e e7d6 0b3e dff4 cfbe 2c8d a7be
00000080: 6469 86be 5b1e 533c 8430 dabe 54f1 bcbd
00000090: a9a0 9ebd fcc2 abbe 200c d6bd ace3 453e
000000a0: 7904 103f c85f e63c 2eca eb3e bbbc 63be
000000b0: 75b1 ee3d 979a d5be ac39 ae3d ea6d dabd
000000c0: 76b3 e7be 987e a23e f285 4f3e 6405 073f
000000d0: c579 303e 34ef dd3e 866a e73e 3cf1 92be
000000e0: e2a0 0bbf 900b 8e3e 0939 433e dbd5 473e
000000f0: 450e b13e 1e8d 3c3e eaa9 1ebe f874 023e
00000100: 24c3 d7be 82cc 753e 4438 ebbe d08d c43e
00000110: 307f bcbe 9ac9 dc3e a162 2cbf 4f40 743e
00000120: ca6d d8be 9839 64bc aa79 c93e 3ef1 ebbd
00000130: 37c0 42be d4f4 99be dcec d03e 6d2e 673e
00000140: 55a5 55be 1e15 d4be 768f 74be 18de 6bbd
00000150: bfdf 8a3e 5e1c 0cbf d2fa 033f d00a b5be
00000160: 8737 203e 8b69 cc3e b2f0 833e c031 69be
00000170: b60f f2be eb78 64be 1d94 f0bc 93c1 913d

gating.net.0.bias f4 [32]
0.29330406 0.20563917 -0.45562476 0.1266177 0.0066154897 0.25695634 -0.03515991 -0.4959868
-0.4151786 -0.5046082 -0.20320085 0.2901181 0.5112093 0.33854732 -0.2800585 0.23110534
-0.14790744 -0.5014441 -0.26906273 0.3743702 -0.105989486 -0.0049733287 0.4949166 0.45136604
0.22948691 -0.022042911 -0.4058017 0.29225186 0.44156897 0.33563864 -0.29802966 0.3230489
00000000: f32b 963e 1393 523e a647 e9be 12a8 013e
00000010: c0c6 d83b c88f 833e d603 10bd fbf1 fdbe
00000020: 4a92 d4be 012e 01bf e213 50be 5c8a 943e
00000030: 9dde 023f 1356 ad3e d463 8fbe e1a6 6c3e
00000040: 0c75 17be a45e 00bf 97c2 89be 73ad bf3e
00000050: 0411 d9bd 4ef7 a2bb b565 fd3e 7319 e73e
00000060: 9efe 6a3e 5693 b4bc 3ec5 cfbe 09a2 953e
00000070: 5415 e23e d4d8 ab3e 5897 98be aa66 a53e

gating.net.1.weight f4 [32]
1.1459022 1.1057692 1.3509439 0.9400924 0.9658463 0.9150864 0.98150504 1.3010179
1.0576806 1.2754395 0.93768203 0.96345073 0.99484503 0.9937918 1.1295948 1.1318856
0.99552786 1.0715785 1.0060548 0.83642966 0.98390794 0.9649816 0.99543476 1.0573424
1.0764222 0.9630964 1.0161456 1.0660496 0.99719405 0.9259617 0.9801929 1.0499691
00000000: ecac 923f d889 8d3f bbeb ac3f e5a9 703f
00000010: b441 773f 1a43 6a3f ea43 7b3f c187 a63f
00000020: 1462 873f 9a41 a33f ee0b 703f b5a4 763f
00000030: 2aae 7e3f 2469 7e3f 9096 903f a1e1 903f
00000040: eada 7e3f 7c29 893f 67c6 803f 4120 563f
00000050: 64e1 7b3f 0909 773f d0d4 7e3f ff56 873f
00000060: 34c8 893f 7c8d 763f 0f11 823f 5074 883f
00000070: 1c48 7f3f d30b 6d3f eced 7a3f 6365 863f

gating.net.1.bias f4 [32]
0.09213417 0.04380106 0.15216884 -0.07746852 -0.10551533 -0.10753124 -0.012767021 -0.025217995
-0.08584264 0.008929581 -0.028542047 -0.02188147 0.02494382 -0.124909334 0.027161362 -0.013312842
-0.076813474 -0.046564743 -0.05814362 -0.16638628 -0.04077969 -0.019970246 -0.0034755028 -0.058623288
0.10359599 -0.05707959 0.084983595 0.0052211215 -0.08938077 0.004647207 -0.021379637 -0.056539673
00000000: d7b0 bc3d be68 333d 26d2 1b3e d1a7 9ebd
00000010: 6c18 d8bd 5739 dcbd c42c 51bc f895 cebc
00000020: 44ce afbd 614d 123c 03d1 e9bc c540 b3bc
00000030: fb56 cc3c 77d0 ffbd 8181 de3c 1b1e 5abc
00000040: 6250 9dbd acba 3ebd 0128 6ebd 2a61 2abe
00000050: 9b08 27bd a498 a3bc 43c5 63bb f91e 70bd
00000060: 222a d43d 4acc 69bd e10b ae3d f115 ab3b
00000070: 440d b7bd 9947 983b 5924 afbc 2596 67bd

gating.net.4.weight f4 [32, 32]
-0.12312163 -0.308935 0.022659002 0.040246073 -0.19921029 -0.019330105 -0.17357968 0.08686483
-0.24825202 -0.14343333 -0.11308708 0.16711108 -0.1726579 0.13114937 -0.03256837 -0.20514525
-0.1441788 -0.034300495 0.05760949 0.05403099 0.094516106 -0.17929262 -0.01045947 -0.21098933
-0.04411573 0.09809471 -0.093712755 -0.14858751 0.016861288 -0.04634317 0.08349767 -0.18775673
-0.030312253 0.13621683 -0.19033438 -0.1660915 0.029134642 -0.13755003 0.20236863 0.31260148
-0.15381387 -0.26945418 -0.07200696 -0.087569185 0.1211202 0.12932254 -0.18603408 -0.2580807
0.01997497 -0.011426273 0.16590157 0.039782602 -0.07412764 -0.04302329 0.181432 -0.15334916
0.013389173 0.14749312 -0.048540376 0.08261935 -0.056184772 -0.11468991 -0.019007297 -0.08013177
0.09494401 0.04951955 -0.016441235 0.20387203 0.09466219 -0.06391022 -0.102455184 0.19236514
-0.07102917 -0.055143677 -0.053859916 -0.12418195 -0.10885266 -0.15640779 -0.038081422 -0.091181695
-0.17429347 0.117567666 -0.01634119 0.11182399 -0.13407938 -0.14531134 -0.020011382 -0.11626089
0.034210443 -0.18451668 -0.13772525 0.09517034 0.038298607 -0.07668335 -0.08610896 0.062770866
0.10157046 -0.086252324 0.056415204 0.1468102 -0.097344115 0.03519179 0.17403509 0.4036424
-0.049377553 0.020767882 0.09461016 -0.11256474 0.11081955 -0.14431785 0.11936 -0.22153454
-0.2061518 0.18112272 0.1422744 -0.12541978 0.03216425 0.033146597 0.100506335 -0.021885602
0.1549703 0.15459237 0.2206154 0.09053784 -0.030591706 -0.02836787 0.04812195 -0.22860736
-0.10157941 0.055488124 -0.3353872 -0.051662643 0.14901137 0.13623598 -0.12517722 0.37981614
-0.056757852 -0.008910743 0.072323054 -0.08624022 0.05050414 0.12672673 -0.088959254 -0.027332058
-0.10980333 -0.20000942 0.053653415 -0.06291168 -0.019026482 -0.1401739 0.15402205 0.0149767175
-0.09279859 0.15793024 -0.06491351 0.12884563 -0.05539759 0.015766915 0.051381554 -0.009418965
0.14094417 0.14259899 -0.3920943 -0.12520754 -0.10364792 -0.22968003 -0.15174137 -0.21604596
0.1405438 0.1679363 -0.03606359 0.11159194 0.0073342756 -0.024625728 0.09678503 0.05377048
0.07260214 -0.09062584 -0.1663377 0.11073307 0.041013833 0.066407144 0.073270835 -0.079655975
0.10703457 0.14052084 -0.12836948 -0.03819219 -0.040915612 0.06906239 -0.1308723 0.032181986
-0.19536507 -0.006458157 0.43920437 -0.03877755 -0.06810583 0.023419132 0.13012376 -0.017900916
0.038095202 0.12727582 0.11919473 0.1446311 -0.07853789 -0.19368583 0.10630139 -0.15403609
0.02258626 0.19134837 -0.015861943 -0.024439184 -0.18288495 0.14721815 -0.22860256 0.18018627
-0.15992066 -0.02307198 0.008221881 0.043521456 0.10284824 0.022812122 -0.20455842 -0.08684051
0.16838662 -0.12715326 -0.21241906 0.02462947 -0.1188127 0.14408492 -0.114247724 0.06990076
-0.04213728 -0.37397635 0.09935741 0.06353069 -0.04612391 0.12192744 -0.06903285 0.2758017
-0.029001666 -0.20119901 0.051075585 -0.122142754 0.043959435 0.09250681 -0.16896218 -0.17626053
0.15160902 0.0062577226 -0.1501365 0.09680152 -0.08113734 0.06004645 -0.023272945 0.16786914
00000000: 3127 fcbd ba2c 9ebe 5f9f b93c 11d9 243d
00000010: c8fd 4bbe 2b5a 9ebc dfbe 31be 30e6 b13d
00000020: c735 7ebe 30e0 12be 339a e7bd 2b1f 2b3e
00000030: 3ccd 30be 054c 063e 6966 05bd 9911 52be
00000040: 9ba3 13be ad7e 0cbd eef7 6b3d 994f 5d3d
00000050: a991 c13d 7c98 37be 325e 2bbc 960d 58be
00000060: b2b2 34bd e1e5 c83d 79ec bfbd 5327 18be
00000070: af20 8a3c 56d2 3dbd d400 ab3d 4d43 40be
00000080: 6751 f8bc 6d7c 0b3e 04e7 42be e413 2abe
00000090: c6ab ee3c ead9 0cbe b939 4f3e 4d0d a03e
000000a0: 6281 1dbe e6f5 89be 6378 93bd 7957 b3bd
000000b0: de0d f83d 216d 043e b87f 3ebe 2723 84be
000000c0: 8ca2 a33c 4335 3bbc 1ae2 293e 15f3 223d
000000d0: 3bd0 97bd 3039 30bd 4fc9 393e 9007 1dbe
000000e0: 435e 5b3c 7008 173e 46d2 46bd 5534 a93d
000000f0: 0122 66bd 8be2 eabd 31b5 9bbc 201c a4bd
00000100: 0172 c23d 03d5 4a3d c5af 86bc d4c3 503e
00000110: 40de c13d 5de3 82bd 06d4 d1bd 5efb 443e
00000120: be77 91bd 56de 61bd 379c 5cbd 1b53 febd
00000130: 25ee debd 5d29 20be 44fb 1bbd 78bd babd
00000140: fd79 32be 51c7 f03d f6dd 85bc fa03 e53d
00000150: 1b4c 09be 7fcc 14be e9ee a3bc 311a eebd
00000160: 4020 0c3d f1f1 3cbe d907 0dbe abe8 c23d
00000170: 00df 1c3d 290c 9dbd e559 b0bd 038e 803d
00000180: 2c04 d03d 0fa5 b0bd a113 673d 6a55 163e
00000190: 5a5c c7bd 4425 103d 4136 323e 37aa ce3e
000001a0: 1e40 4abd 6821 aa3c f9c2 c13d 5888 e6bd
000001b0: 5cf5 e23d 0fc8 13be 0473 f43d f3d9 62be
000001c0: 7519 53be 3c78 393e 61b0 113e 0b6e 00be
000001d0: a9be 033d bac4 073d 44d6 cd3d 6f49 b3bc
000001e0: 89b0 1e3e 764d 1e3e 01e9 613e e76b b93d
000001f0: 759b fabc bc63 e8bc 861b 453d 0c18 6abe
00000200: de08 d0bd 8447 633d dfb7 abbe 359c 53bd
00000210: 7096 183e 7281 0b3e 752e 00be 4377 c23e
00000220: ec7a 68bd 5dfe 11bc 1c1e 943d b69e b0bd
00000230: 6edd 4e3d a7c4 013e 4530 b6bd 7be7 dfbc
00000240: 91e0 e0bd 45cf 4cbe afc3 5b3d d7d7 80bd
00000250: 6ddd 9bbc bf89 0fbe f5b7 1d3e e860 753c
00000260: 300d bebd 77b8 213e 60f1 84bd 1cf0 033e
00000270: 95e8 62bd 9e29 813c 7775 523d 0152 1abc
00000280: ab53 103e 7805 123e 96c0 c8be 6836 00be
00000290: 5c45 d4bd 3e31 6bbe 1762 1bbe 273b 5dbe
000002a0: b7ea 0f3e 7ef7 2b3e 6ab7 13bd 518a e43d
000002b0: 5d54 f03b e5bb c9bc 3b37 c63d 6f3e 5c3d
000002c0: 6eb0 943d 0a9a b9bd 6e54 2abe 05c8 e23d
000002d0: 1ffe 273d 7800 883d 050f 963d ac22 a3bd
000002e0: f134 db3d b2e4 0f3e 4a73 03be 6a6f 1cbd
000002f0: 2197 27bd 9570 8d3d 6303 06be 42d1 033d
00000300: c80d 48be f39e d3bb 65df e03e 35d5 1ebd
00000310: 127b 8bbd 7bd9 bf3c 2a3f 053e f1a4 92bc
00000320: b709 1c3d 9854 023e 5e1c f43d 2d1a 143e
00000330: 79d8 a0bd 9455 46be 8bb4 d93d a3bb 1dbe
00000340: d206 b93c d4f0 433e e8f0 81bc af34 c8bc
00000350: 3146 3bbe 5bc0 163e ca16 6abe c082 383e
00000360: 3ec2 23be 7301 bdbc 12b5 063c 8e43 323d
00000370: 19a2 d23d 7de0 ba3c c377 51be 70d9 b1bd
00000380: 8b6d 2c3e 7734 02be 6284 59be bec3 c93c
00000390: 1354 f3bd ff8a 133e b6fa e9bd 2128 8f3d
000003a0: 2498 2cbd d479 bfbe e67b cb3d 611c 823d
000003b0: 6dec 3cbd 18b5 f93d 1861 8dbd e135 8d3e
000003c0: e794 edbc 1d07 4ebe a234 513d fb25 fabd
000003d0: cf0e 343d 3674 bd3d 6c04 2dbe a47d 34be
000003e0: 653f 1b3e 950d cd3b 62bd 19be e03f c63d
000003f0: 552b a6bd 44f3 753d e7a6 bebc e3e5 2b3e

gating.net.4.bias f4 [32]
-0.13077936 -0.05641694 0.14228514 -0.10931135 -0.14184365 -0.08924212 -0.068438806 0.054795846
0.1231967 0.12711534 -0.039837573 -0.114285514 -0.081945665 -0.010750946 -0.04894243 -0.2947731
0.026990434 0.10201388 -0.11589214 0.12382923 -0.19695617 0.0059389165 -0.17179552 -0.0792113
-0.032001637 0.17575027 -0.11957463 0.054970134 0.10073614 -0.20487058 -0.117741175 -0.16785353
00000000: 06eb 05be 7315 67bd 32b3 113e a1de dfbd
00000010: 763f 11be 93c4 b6bd a529 8cbd 9c71 603d
00000020: 8d4e fc3d 862a 023e b92c 23bd 860e eabd
00000030: 21d3 a7bd bc24 30bc dc77 48bd 80ec 96be
00000040: 0b1b dd3c a7ec d03d dc58 edbd 2e9a fd3d
00000050: e1ae 49be 3e9b c23b 2aeb 2fbe 8939 a2bd
00000060: 2614 03bd e1f7 333e 8be3 f4bd 5d28 613d
00000070: c04e ce3d 98c9 51be 4922 f1bd cce1 2bbe

gating.net.5.weight f4 [32]
0.98956 0.97108185 0.93129903 0.9484932 0.8854566 0.9567707 1.0289029 0.87039226
0.9352944 0.9971776 0.94311523 0.9762608 0.9986206 0.96225035 0.9594103 0.98475766
1.061912 0.9541689 0.9587835 0.97905046 0.9060327 1.0825108 0.9008414 0.9531269
0.95671296 0.98722816 0.9325845 0.94323826 0.91894823 0.9906192 0.9443847 0.95550466
00000000: ce53 7d3f d298 783f 9d69 6e3f 73d0 723f
00000010: 49ad 623f edee 743f 17b3 833f 07d2 5e3f
00000020: 746f 6f3f 0847 7f3f 0070 713f 3aec 793f
00000030: 9aa5 7f3f 0a56 763f ea9b 753f 1419 7c3f
00000040: bbec 873f 6a44 743f d672 753f 0da3 7a3f
00000050: c2f1 673f b78f 8a3f 8b9d 663f 2000 743f
00000060: 24eb 743f fcba 7c3f dcbd 6e3f 1078 713f
00000070: 3140 6b3f 3899 7d3f 32c3 713f f49b 743f

gating.net.5.bias f4 [32]
-0.040425688 -0.025027981 -0.06190157 0.007322672 -0.10693052 -0.03421284 -0.020091219 -0.07102846
-0.028099386 -0.0022867187 -0.0019153623 -0.004469109 -0.03489766 -0.031296846 -0.011959126 -0.012403098
-0.07230252 -0.012002989 -0.048815653 -0.030525677 -0.068438336 -0.0012497046 -0.02785204 -0.03277763
-0.03961967 0.015021028 -0.047404665 -0.023083251 -0.05707769 -0.057567403 -0.03104396 -0.0101182265
00000000: 6895 25bd 7b07 cdbc 808c 7dbd 06f3 ef3b
00000010: 63fe dabd c322 0cbd 5796 a4bc 5f77 91bd
00000020: af30 e6bc c6dc 15bb e50c fbba 9a71 92bb
00000030: d9f0 0ebd 1f31 00bd 36f0 43bc 5d36 4bbc
00000040: 5813 94bd 2fa8 44bc ecf2 47bd fc10 fabc
00000050: 6629 8cbd 21cd a3ba f629 e4bc d641 06bd
00000060: 3c48 22bd c21a 763c 652b 42bd 1619 bdbc
00000070: 4cca 69bd cccb 6bbd e74f febc ebc6 25bc

gating.net.7.weight f4 [4, 32]
-0.12018749 -0.15993321 0.1191156 0.0062654647 0.06499945 0.13228832 0.004621212 -0.09612878
-0.020325992 -0.16561699 0.048512183 0.095180236 -0.2136735 -0.14083329 -0.13095056 -0.04784323
-0.047114655 0.07909518 -0.07730117 -0.11735853 0.009519691 -0.2770407 -0.030090233 -0.022188084
-0.073652074 0.12701613 -0.02693912 0.059662633 -0.0891812 0.050905608 0.08715109 0.06086015
0.13780208 0.016435714 0.06721352 0.037486225 0.050360493 -0.122286536 -0.124062136 -0.12764704
-0.06442195 0.0042794286 0.11954302 -0.06805769 -0.010557004 -0.10463853 -0.09569091 -0.025166158
0.16659607 0.11446686 0.040871356 -0.048722833 0.022260064 0.09930615 -0.027487399 -0.125415
0.044891644 -0.15962222 -0.03945369 0.03794019 0.03664823 0.014377835 -0.06933361 -0.12629533
0.00031713987 -0.07509263 -0.033031084 0.009246615 0.039213195 0.02473309 0.0851472 -0.058209427
-0.048864238 -0.12663704 0.08547443 -0.010138181 -0.09226038 0.0069464017 -0.14701754 0.0363874
-0.041061345 0.047428593 -0.12216072 0.10842662 0.035410125 -0.0074863634 -0.050277956 0.04857247
-0.013653245 0.097488105 -0.119193725 0.067682296 -0.07291972 0.14235619 0.02604109 0.0029313012
-0.07714717 -0.08191735 0.025649123 -0.0694638 0.0007370546 0.15942764 0.08019419 0.009725402
0.078794785 0.046900537 -0.075775735 -0.18756866 0.100014895 -0.14256755 -0.035803393 -0.13907461
-0.02699076 -0.012402667 0.0296418 -0.13329905 -0.04273386 -0.0073276986 0.04669991 -0.07220943
-0.049469683 -0.03206848 -0.07605099 -0.020411331 0.06311068 -0.048522342 -0.0058314768 -0.087371156
00000000: dc24 f6bd 88c5 23be e1f2 f33d 874e cd3b
00000010: 6f1e 853d 9776 073e 896d 973b 2adf c4bd
00000020: b282 a6bc 8097 29be b6b4 463d dbed c23d
00000030: 3acd 5abe 9a36 10be e717 06be 43f7 43bd
00000040: 4cfb 40bd a7fc a13d 1350 9ebd ab59 f0bd
00000050: 7af8 1b3c 47d8 8dbe cb7f f6bc c9c3 b5bc
00000060: e6d6 96bd 8410 023e 6eaf dcbc ce60 743d
00000070: a2a4 b6bd 6682 503d 457c b23d 7e48 793d
00000080: fd1b 0d3e 31a4 863c 3ea7 893d 288b 193d
00000090: ce46 4e3d 5d71 fabd 4a14 febd e8b5 02be
000000a0: a8ef 83bd 733a 8c3b f9d2 f43d d561 8bbd
000000b0: 49f7 2cbc ba4c d6bd 99f9 c3bd 4229 cebc
000000c0: 2998 2a3e 9a6d ea3d b968 273d 9891 47bd
000000d0: bd5a b63c 0661 cb3d 412d e1bc ca6c 00be
000000e0: 4de0 373d 0274 23be 319a 21bd 2c67 1b3d
000000f0: 741c 163d 0391 6b3c c8fe 8dbd 9053 01be
00000100: cb45 a639 2aca 99bd 9a4b 07bd 1d7f 173c
00000110: 049e 203d 0d9d ca3c a861 ae3d 026d 6ebd
00000120: de25 48bd 24ad 01be 380d af3d 9d1a 26bc
00000130: 03f3 bcbd a49e e33b c48b 16be f40a 153d
00000140: f12f 28bd 7c44 423d 662f fabd c70e de3d
00000150: 350a 113d 2b50 f5bb 42f0 4dbd edf3 463d
00000160: dcb1 5fbc d8a7 c73d d71b f4bd 049d 8a3d
00000170: ef56 95bd d2c5 113e 2054 d53c 131b 403b
00000180: 56ff 9dbd 49c4 a7bd 1c1e d23c 0943 8ebd
00000190: e636 413a 0041 233e da3c a43d 4b57 1f3c
000001a0: 295f a13d c71a 403d 4f30 9bbd 0012 40be
000001b0: 9cd4 cc3d 3afd 11be 94a6 12bd 9369 0ebe
000001c0: ba1b ddbc 8e34 4bbc 5cd3 f23c 8c7f 08be
000001d0: b309 2fbd 311d f0bb 6848 3f3d 8ae2 93bd
000001e0: b9a0 4abd 3d5a 03bd 9fc0 9bbd aa35 a7bc
000001f0: 2c40 813d 5dbf 46bd f915 bfbb a6ef b2bd

gating.net.7.bias f4 [4]
0.031691957 0.15737431 -0.093565226 0.18055452
00000000: 6dcf 013d bb26 213e 209f bfbd 49e3 383e

experts.0.net.0.weight f4 [64, 3]
0.29271215 0.06832324 -0.4858996 0.2867811 0.18352623 0.49236748 0.17896487 0.02396411
-0.34648356 -0.38258854 -0.44808313 -0.5851869 0.4271912 -0.43069944 0.19429265 0.20663093
0.12060724 0.2226518 -0.46060228 0.4740204 -0.40657893 0.06487462 -0.32440668 0.41680607
0.39721423 0.6250553 0.33879507 0.57433593 -0.11053631 -0.25362077 0.23004946 -0.3627063
0.22386833 0.5480486 -0.11575331 -0.11975789 0.099309824 -0.3641017 -0.50694835 0.14945057
0.3682044 0.385334 -0.27048653 0.115902066 0.13927883 0.32680857 0.37321037 0.578568
0.07878373 -0.3021672 -0.28248745 -0.119063586 0.23036194 0.12851842 -0.43962732 -0.16175425
0.059359383 -0.22103229 0.38183334 0.061595093 -0.40027362 -0.24792595 -0.2972231 0.15042923
-0.43433842 0.17966351 0.39331013 0.2030914 -0.50288224 0.060445525 -0.11618467 -0.27604282
0.23305531 -0.43574628 -0.1938362 -0.3903171 0.50384307 0.36755988 -0.39914322 -0.34392655
0.41999868 -0.10550726 0.039980385 0.34645528 0.26754546 -0.03893052 0.11367528 -0.18366158
0.26385227 -0.10696503 -0.21611828 -0.6260378 -0.46950796 -0.486361 -0.4075233 0.32742298
-0.20971438 -0.16733098 -0.12626295 -0.109405756 0.59988517 0.35895264 0.033284295 0.30113655
0.38418743 -0.27864894 0.30246496 -0.5592242 0.10765739 0.23243038 -0.33311275 0.594084
-0.09796425 -0.3708541 0.11081091 -0.10966367 0.51087445 0.4467678 -0.023024118 0.3291935
0.3845595 -0.2661263 -0.1546709 -0.4236646 0.5377079 0.31884775 -0.18737443 0.42079163
0.2578193 -0.48195192 0.501666 -0.2815277 -0.13409317 -0.07975322 0.45337507 0.18582615
-0.3141817 0.23541822 0.52151406 0.07351382 -0.290278 -0.61117893 -0.08777667 -0.28624555
-0.32582474 0.5401011 0.0057984395 0.24441838 -0.0019990136 -0.38878787 0.33185792 0.39411408
0.31043315 0.18126783 0.18942209 -0.381478 0.40546983 -0.5127298 0.09978813 -0.116563074
0.1678101 0.17108434 -0.21929194 -0.20761858 0.12271497 -0.26903898 0.22426204 -0.18242137
-0.27712092 -0.2390445 0.28127375 -0.2627567 -0.059401534 0.6325347 0.2588792 0.51906586
0.078211226 -0.43343732 -0.35033143 0.21060392 0.22270875 -0.04289507 -0.18223087 -0.5256195
0.4195826 -0.43301567 -0.47256368 0.08023342 -0.024263801 0.13841154 0.37999952 0.068313465
00000000: 5ede 953e 0eed 8b3d d5c7 f8be f9d4 923e
00000010: 4dee 3b3e 9717 fc3e 9142 373e 6250 c43c
00000020: 4b66 b1be a5e2 c3be 276b e5be cfce 15bf
00000030: ceb8 da3e a384 dcbe a7f4 463e 0f97 533e
00000040: ee00 f73d d5fe 633e 10d4 ebbe cdb2 f23e
00000050: 1d2b d0be fcdc 843d a218 a6be 9b67 d53e
00000060: aa5f cb3e a003 203f 8c76 ad3e ae07 133f
00000070: dc60 e2bd 95da 81be 1692 6b3e a4b4 b9be
00000080: bd3d 653e ea4c 0c3f 1210 edbd a043 f5bd
00000090: f362 cb3d 8a6b babe 5ec7 01bf 9209 193e
000000a0: 4a85 bc3e 804a c53e 367d 8abe 105e ed3d
000000b0: 1c9f 0e3e 7453 a73e 6e15 bf3e 081d 143f
000000c0: 5d59 a13d a9b5 9abe 32a2 90be 9cd7 f3bd
000000d0: 00e4 6b3e 559a 033e d516 e1be e8a2 25be
000000e0: d322 733d 4a56 62be a97f c33e 234b 7c3d
000000f0: aaf0 ccbe 4de0 7dbe a02d 98be 1f0a 1a3e
00000100: 9b61 debe b6f9 373e f25f c93e 31f7 4f3e
00000110: e4bc 00bf ba95 773d 3af2 edbd 7c55 8dbe
00000120: 0da6 6e3e 231a dfbe ff7c 46be a5d7 c7be
00000130: dcfb 003f cf30 bc3e 805c ccbe 2417 b0be
00000140: 110a d73e 3114 d8bd 79c2 233d 9662 b13e
00000150: b8fb 883e 9c75 1fbd 96ce e83d c811 3cbe
00000160: a517 873e 7b10 dbbd 1c4e 5dbe 0344 20bf
00000170: 5963 f0be 4f04 f9be e5a6 d0be fca3 a73e
00000180: 5ebf 56be d058 2bbe 134b 01be 2010 e0bd
00000190: 1392 193f a4c8 b73e 1d55 083d 922e 9a3e
000001a0: 37b4 c43e 13ab 8ebe b0dc 9a3e 5129 0fbf
000001b0: 7a7b dc3d 3b02 6e3e c18d aabe e415 183f
000001c0: 7ba1 c8bd 97e0 bdbe d5f0 e23d 5997 e0bd
000001d0: abc8 023f c0be e43e 139d bcbc 0d8c a83e
000001e0: fce4 c43e b541 88be 0c62 1ebe 91ea d8be
000001f0: 3aa7 093f 0340 a33e 15df 3fbe 0072 d73e
00000200: e400 843e 67c2 f6be 2f6d 003f 6624 90be
00000210: b84f 09be a855 a3bd c720 e83e 3649 3e3e
00000220: 6cdc a0be 7911 713e f281 053f 6a8e 963d
00000230: 519f 94be 3976 1cbf 41c4 b3bd c78e 92be
00000240: 80d2 a6be 1144 0a3f d600 be3b d048 7a3e
00000250: e201 03bb 340f c7be 48e9 a93e 52c9 c93e
00000260: 18f1 9e3e 469e 393e ddf7 413e 1651 c3be
00000270: be99 cf3e 4342 03bf b85d cc3d 9fb8 eebd
00000280: 69d6 2b3e bc30 2f3e 118e 60be f799 54be
00000290: fc51 fb3d 7abf 89be f3a4 653e abcc 3abe
000002a0: cbe2 8dbe 15c8 74be 1d03 903e 0c88 86be
000002b0: 064f 73bd cbed 213f d18b 843e 80e1 043f
000002c0: 352d a03d 7feb ddbe a45e b3be 8ea8 573e
000002d0: c30d 643e beb2 2fbd bb9a 3abe 008f 06bf
000002e0: 88d3 d63e 3bb4 ddbe def3 f1be 6b51 a43d
000002f0: e1c4 c6bc c1bb 0d3e 4c8f c23e eee7 8b3d

experts.0.net.0.bias f4 [64]
0.15349089 -0.41195652 0.10540802 -0.0868206 0.2230424 0.4216645 0.32601088 0.16039833
-0.57328063 -0.0742499 -0.5233848 -0.43019143 0.18688875 -0.20399839 0.07863916 -0.4596405
0.30927283 -0.17788288 0.25959033 -0.320918 0.14504044 0.2213948 0.33648792 0.20837314
0.20165539 -0.14272374 -0.42281467 0.1992513 0.2930206 0.35082868 -0.52669615 0.5591306
0.035644963 -0.14532483 0.058279235 0.138415 0.3186412 -0.053337667 -0.4794567 -0.038052488
0.1972748 0.2133773 0.48288092 0.28642306 0.042900983 -0.42788282 -0.14834988 0.64606327
-0.14752536 -0.34427753 0.4351391 0.41670802 0.16538931 -0.04934779 -0.26595226 0.019667314
0.16948068 -0.4235942 -0.43939915 0.4456185 -0.12167013 0.16852196 0.39337856 -0.12329906
00000000: b72c 1d3e f7eb d2be 29e0 d73d 00cf b1bd
00000010: 3a65 643e 69e4 d73e e6ea a63e 763f 243e
00000020: 85c2 12bf 5510 98bd 8cfc 05bf 0d42 dcbe
00000030: c45f 3f3e f4e4 50be 910d a13d 0056 ebbe
00000040: 0259 9e3e ee26 36be 06e9 843e 5d4f a4be
00000050: 7b85 143e 52b5 623e 2548 ac3e c55f 553e
00000060: c07e 4e3e 2c26 12be 2a7b d8be 8808 4c3e
00000070: cc06 963e d19f b33e 8fd5 06bf 2f23 0f3f
00000080: 7400 123d 08d0 14be 35b6 6e3d a9bc 0d3e
00000090: f024 a33e 9978 5abd 597b f5be eddc 1bbd
000000a0: 6802 4a3e 947f 5a3e 2b3c f73e 0ba6 923e
000000b0: f1b8 2f3d 7513 dbbe 08e9 17be 6764 253f
000000c0: e310 17be 2545 b0be 8dca de3e c15a d53e
000000d0: d15b 293e e920 4abd e52a 88be 591d a13c
000000e0: 588c 2d3e 57e1 d8be edf8 e0be 1c28 e43e
000000f0: 302e f9bd 0591 2c3e ea68 c93e 3884 fcbd

experts.0.net.1.weight f4 [64]
0.9874672 1.041179 0.8646956 1.2597312 0.92031217 0.9622184 1.0321937 0.9112533
1.1940277 1.1562009 1.1099753 1.0011395 0.9331618 1.0119919 0.88198364 1.1071031
1.0045111 0.9858579 1.085412 0.9110267 1.0545368 0.9721309 0.9449303 0.93880755
0.99862194 1.1953045 1.1966364 0.9006753 0.82771546 0.9492965 1.3158282 1.0527601
0.9323239 1.1028483 0.8679208 1.0379426 0.93238395 1.1656344 1.1579328 0.90840274
0.9724932 1.1112428 0.93441147 1.1172141 0.9783842 1.2227696 1.153377 1.1324755
1.0201269 0.9410099 0.90962815 0.9751282 0.9240084 0.991104 0.9991978 0.93965733
0.95600504 1.121713 1.1632096 1.0298263 0.9854073 1.1035615 1.3189361 1.0246987
00000000: a7ca 7c3f 5a45 853f b15c 5d3f df3e a13f
00000010: 9499 6b3f f253 763f ec1e 843f e547 693f
00000020: e6d5 983f 64fe 933f ac13 8e3f 5725 803f
00000030: b1e3 6e3f f388 813f aec9 613f 8eb5 8d3f
00000040: d293 803f 2f61 7c3f c8ee 8a3f 0c39 693f
00000050: 10fb 863f 92dd 783f f4e6 713f b155 703f
00000060: b0a5 7f3f bdff 983f 622b 993f a892 663f
00000070: 29e5 533f 1805 733f 0f6d a83f d8c0 863f
00000080: c7ac 6e3f 222a 8d3f 0f30 5e3f 4edb 843f
00000090: b7b0 6e3f 8233 953f 2437 943f 158d 683f
000000a0: 50f5 783f 343d 8e3f 9735 6f3f df00 8f3f
000000b0: 6377 7a3f b783 9c3f dca1 933f f5f4 903f
000000c0: 8593 823f 06e6 703f 64dd 683f 00a2 793f
000000d0: d18b 6c3f feb8 7d3f 6dcb 7f3f 628d 703f
000000e0: bfbc 743f 4b94 8f3f 0de4 943f 59d1 833f
000000f0: a743 7c3f 8141 8d3f e6d2 a83f 5429 833f

experts.0.net.1.bias f4 [64]
-0.03433263 0.0050662355 -0.070455156 0.08168103 -0.10876621 -0.04428044 -0.011828906 -0.02133182
0.024375279 -0.09619182 0.095821925 0.068668894 0.019890884 -0.0135124745 0.09267762 0.018348226
-0.033972383 0.016536947 0.036115445 0.06352142 0.026553515 -0.016200963 -0.09463618 -0.006243947
-0.019956801 0.057165127 0.03648726 -0.08884147 -0.13490023 -0.027100086 0.08382452 -0.013864012
0.14978264 0.00025896583 -0.10460534 0.06485475 -0.07482235 -0.07778151 -0.010028145 -0.089581944
-0.1044891 -0.019595457 -0.06512371 0.062495008 -0.029916873 0.039920982 -0.03324816 0.053252403
0.01269929 -0.045606162 -0.07317874 -0.07536976 -0.11514068 0.060798015 0.1588783 0.080377534
0.012453281 0.11270403 0.06491421 0.0077046403 -0.0021704233 0.03333322 0.018623201 -0.03133317
00000000: 5fa0 0cbd aa02 a63b cb4a 90bd 6248 a73d
00000010: d2c0 debd 685f 35bd 07ce 41bc 12c0 aebc
00000020: aaae c73c 3800 c5bd 493e c43d 47a2 8c3d
00000030: 35f2 a23c 6d63 5dbc c4cd bd3d 054f 963c
00000040: a026 0bbd 7e78 873c caed 133d 8517 823d
00000050: c286 d93c e2b7 84bc 9dd0 c1bd 069a ccbb
00000060: 727c a3bc fb25 6a3d aa73 153d 84f2 b5bd
00000070: 4923 0abe 0001 debc 31ac ab3d e225 63bc
00000080: 9f60 193e cec5 8739 533b d6bd 91d2 843d
00000090: 763c 99bd ea4b 9fbd 174d 24bc bd76 b7bd
000000a0: 62fe d5bd a786 a0bc 945f 85bd c4fa 7f3d
000000b0: 3b14 f5bc 2f84 233d 392f 08bd 311f 5a3d
000000c0: af10 503c 87cd 3abd bcde 95bd 765b 9abd
000000d0: e0ce ebbd 5707 793d feb0 223e fa9c a43d
000000e0: d908 4c3c 5fd1 e63d bef1 843d 3577 fc3b
000000f0: a93d 0ebb 6a88 083d af8f 983c 3657 00bd

experts.0.net.3.weight f4 [64, 64]
0.07722858 0.13953139 -0.10333373 0.07574034 -0.03873768 -0.0791009 0.02984345 0.027161049
-0.009219234 0.0064962 -0.106009625 -0.09955903 0.041193385 0.008628232 0.05697659 0.0656381
0.069885194 0.01847084 -0.05497723 -0.06266968 0.06589949 0.04755624 -0.034903165 0.04398578
0.055566642 -0.050307684 0.04193871 -0.009647974 -0.042507913 0.0186393 -0.043414608 -0.085393466
0.12226169 0.023407388 0.12698211 -0.13051969 0.10519099 -0.089880675 -0.06324534 -0.109776884
-0.009600935 -0.09759576 -0.058786105 -0.0055085416 0.11133099 -0.1477554 -0.07046063 -0.027340617
-0.10494008 0.011296328 -0.014949143 0.11954762 -0.11189476 -0.08909742 0.04204803 -0.13314493
0.087228626 -0.043356713 -0.034870327 0.09190247 0.032712914 0.026524745 0.035649095 -0.03564344
0.02931902 0.018438272 0.012144917 0.004751413 0.06952616 0.021794194 -0.07267437 0.021952204
-0.13087294 -0.12672837 0.06610143 -0.07602554 0.010930706 -0.04200306 0.12724999 -0.18909241
-0.05325318 0.10602111 0.0020307798 0.013777656 0.028059423 0.087105565 -0.017225785 -0.11383585
0.101643175 -0.05216115 -0.0044462285 0.0061069373 -0.10236548 0.16067293 -0.10816113 0.082368225
-0.059252262 0.060635567 0.075377315 -0.038090404 -0.008385545 0.11588198 -0.07338062 -0.014234915
0.044134535 -0.06358999 -0.11068211 -0.0041469825 -0.057594843 -0.07686376 0.08662253 0.1199756
-0.035010587 -0.1317729 0.016647045 0.121440776 0.0002566934 0.06252049 -0.09645307 -0.08108192
0.12604558 0.1466209 -0.046690155 -0.09367489 -0.058391973 -0.024419416 0.08811754 0.11548922
0.013987957 -0.0747052 -0.017155888 -0.04621412 -0.0720428 0.13321462 0.0772389 0.043537155
-0.061112054 -0.0890637 0.01675128 -0.137588 -0.078811295 -0.13248707 -0.041649196 -0.16645794
0.018218275 0.044182774 0.08927931 -0.09715891 -0.035200786 -0.08387055 0.07963565 -0.030987207
0.085279144 0.01109771 -0.07005278 0.055395544 -0.065847434 0.12375505 0.045395136 0.0936655
0.058352225 0.008930485 0.08287265 -0.12915349 0.11176316 0.07881579 -0.11342787 0.034384932
0.07507111 0.11322108 0.024864776 -0.012831183 -0.051702194 -0.14883156 -0.09402356 -0.07629148
-0.09520701 0.05997611 0.027368847 0.024634758 -0.07539984 -0.049813222 0.032001223 0.012501733
0.12076635 0.047116283 -0.10564027 0.088587165 0.03492962 0.060578965 0.10437173 -0.09996726
0.08504006 -0.13079897 -0.07625057 0.039675057 -0.10772751 0.038260043 -0.04271403 0.05962601
0.052746873 0.04133618 0.018105969 0.058053266 -0.02311692 0.0076510827 0.0009857176 0.08523949
-0.080391765 -0.11513513 0.028028551 -0.006561646 0.14856948 0.098114796 0.016467653 -0.108154215
0.10411822 -0.07724427 0.06915736 0.04512932 0.07748115 -0.05758682 -0.12723112 0.09464587
0.037890296 0.006356246 0.06647618 -0.09563664 0.017002294 0.07525757 -0.051743496 -0.121187955
-0.013463787 -0.0025685695 0.09303072 -0.022117125 -0.018018674 -0.12449619 -0.0033622317 0.030541308
0.10174316 0.13663502 -0.1329801 -0.05110164 0.037194256 -0.11632092 -0.04087657 -0.09144229
0.023122624 -0.037081428 -0.08996381 0.007378958 0.029776447 -0.08873402 0.15727532 0.06990999
00000000: 052a 9e3d 51e1 0e3e a2a0 d3bd c01d 9b3d
00000010: 67ab 1ebd a7ff a1bd 407a f43c d980 de3c
00000020: 450c 17bc 13de d43b 931b d9bd 9be5 cbbd
00000030: 65ba 283d 6e5d 0d3c 4960 693d 456d 863d
00000040: f81f 8f3d 2950 973c ce2f 61bd f658 80bd
00000050: 50f6 863d 55ca 423d 9ff6 0ebd 6f2a 343d
00000060: d999 633d 6e0f 4ebd edc7 2b3d 8912 1ebc
00000070: c71c 2ebd 72b1 983c 84d3 31bd c5e2 aebd
00000080: 5664 fa3d dac0 bf3c 9907 023e f4a6 05be
00000090: 606e d73d 5c13 b8bd c686 81bd b4d2 e0bd
000000a0: 3d4d 1dbc 49e0 c7bd b3c9 70bd ff80 b4bb
000000b0: 8101 e43d 314d 17be aa4d 90bd 6ef9 dfbc
000000c0: d3ea d6bd 3c14 393c 40ed 74bc 62d5 f43d
000000d0: 1429 e5bd b578 b6bd 8e3a 2c3d 2557 08be
000000e0: eca4 b23d cf96 31bd 30d4 0ebd 5d37 bc3d
000000f0: fafd 053d 6c4a d93c c904 123d dbfe 11bd
00000100: 712e f03c dc0b 973c 79fb 463c beb1 9b3b
00000110: bb63 8e3d bd89 b23c 4dd6 94bd 1cd5 b33c
00000120: 8e03 06be 15c5 01be 3060 873d 47b3 9bbd
00000130: b416 333c 670b 2cbd d24d 023e 71a1 41be
00000140: 0220 5abd 9921 d93d d516 053b adbb 613c
00000150: e0dc e53c 6764 b23d 171d 8dbc c522 e9bd
00000160: 4c2a d03d eea6 55bd abb1 91bb b41c c83b
00000170: fea4 d1bd 7287 243e 9583 ddbd acb0 a83d
00000180: 80b2 72bd 005d 783d 6c5f 9a3d af04 1cbd
00000190: 8663 09bc 8853 ed3d 9448 96bd 9039 69bc
000001a0: 6ac6 343d 783b 82bd 4dad e2bd 69e3 87bb
000001b0: 92e8 6bbd bf6a 9dbd 2767 b13d c4b5 f53d
000001c0: 4367 0fbd 7aef 06be 625f 883c f1b5 f83d
000001d0: ce94 8639 be0a 803d 3089 c5bd 470e a6bd
000001e0: 1812 013e ca23 163e 2d3e 3fbd 9fd8 bfbd
000001f0: 6c2c 6fbd 3a0b c8bc f876 b43d 9d85 ec3d
00000200: be2d 653c 0aff 98bd 818a 8cbc 044b 3dbd
00000210: 2d8b 93bd 6a69 083e 6e2f 9e3d 0454 323d
00000220: a250 7abd 0767 b6bd fb39 893c dee3 0cbe
00000230: d167 a1bd b1aa 07be 5998 2abd f373 2abe
00000240: 7e3e 953c fff8 343d 12d8 b63d 40fb c6bd
00000250: b32e 10bd 53c4 abbd 0418 a33d e2d8 fdbc
00000260: d5a6 ae3d 2bd3 353c d577 8fbd 70e6 623d
00000270: 05db 86bd 4a73 fd3d 40f0 393d b3d3 bf3d
00000280: be02 6f3d 2b51 123c 23b9 a93d d040 04be
00000290: 15e4 e43d 2c6a a13d df4c e8bd 37d7 0c3d
000002a0: e2be 993d 74e0 e73d 37b1 cb3c e239 52bc
000002b0: aec5 53bd 4d67 18be 6d8f c0bd b53e 9cbd
000002c0: e5fb c2bd 82a9 753d a234 e03c d5ce c93c
000002d0: 3b6b 9abd f308 4cbd b713 033d 12d4 4c3c
000002e0: 5954 f73d 01fd 403d ed59 d8bd 306d b53d
000002f0: 5c12 0f3d a621 783d d8c0 d53d a3bb ccbd
00000300: 7c29 ae3d 2af0 05be 4229 9cbd 5082 223d
00000310: 3ea0 dcbd 90b6 1c3d e8f4 2ebd 673a 743d
00000320: 1b0d 583d 2050 293d f852 943c 43c9 6d3d
00000330: b25f bdbc efb5 fa3b 3233 813a 0b92 ae3d
00000340: 70a4 a4bd f8cb ebbd 229c e53c 1303 d7bb
00000350: 9922 183e 69f0 c83d 2ce7 863c f57f ddbd
00000360: ef3b d53d 3e32 9ebd 60a2 8d3d 86d9 383d
00000370: 70ae 9e3d 28e0 6bbd e048 02be b2d5 c13d
00000380: db32 1b3d 0e48 d03b aa24 883d 25dd c3bd
00000390: 6548 8b3c a420 9a3d fdf0 53bd 6431 f8bd
000003a0: 3797 5cbc 7255 28bb e486 be3d f92e b5bc
000003b0: e69b 93bc dcf7 febd e358 5cbb c431 fa3c
000003c0: b85e d03d 0dea 0b3e ef2b 08be f44f 51bd
000003d0: 0159 183d aa39 eebd 316e 27bd 1846 bbbd
000003e0: a86b bd3c b2e2 17bd f23e b8bd 30cb f13b
000003f0: bced f33c 2fba b5bd c80c 213e f82c 8f3d

experts.0.net.3.bias f4 [64]
0.15336731 0.017257849 -0.062269285 -0.012428579 0.018989861 -0.037625793 0.12936738 0.08141769
-0.10741127 -0.11361879 0.03432034 -0.08345803 -0.03619017 0.07497296 0.06918067 0.018427163
-0.059709653 -0.056278225 -0.12838647 -0.050074715 -0.0047681048 -0.04527776 0.034901924 0.09921764
-0.1496393 0.14245068 -0.15881467 -0.054073688 0.07678046 0.05181152 -0.015927508 -0.034631573
0.10078074 0.053244993 -0.02283628 -0.06857917 -0.0041769412 0.08970694 -0.09848597 -0.07788688
0.024181481 0.14011161 0.0037044531 -0.054037783 -0.02670424 -0.060752243 -0.010255451 -0.05316102
-0.03476829 0.07192584 0.11195715 -0.10582102 0.15056527 0.08332623 -0.16292661 -0.001791643
0.02722144 -0.040935785 0.093331285 0.10139845 -0.062159937 0.116371654 0.10670957 0.03350216
00000000: 520c 1d3e 5560 8d3c 140e 7fbd 3da1 4bbc
00000010: a090 9b3c 811d 1abd e278 043e 51be a63d
00000020: 71fa dbbd f8b0 e8bd 7c93 0c3d 0bec aabd
00000030: 253c 14bd 6c8b 993d 98ae 8d3d 90f4 963c
00000040: 1c92 74bd ff83 66bd be77 03be 251b 4dbd
00000050: c33d 9cbb 2c75 39bd 52f5 0e3d 9e32 cb3d
00000060: 0b3b 19be 97de 113e 50a0 22be 5f7c 5dbd
00000070: 133f 9d3d 5138 543d 687a 82bc d6d9 0dbd
00000080: 2266 ce3d 6c17 5a3d 2613 bbbc 3c73 8cbd
00000090: b9de 88bb 46b8 b73d 03b3 c9bd 2883 9fbd
000000a0: 3e18 c63c 6b79 0f3e 69c6 723b b956 5dbd
000000b0: dac2 dabc 58d7 78bd 7b06 28bc 5fbf 59bd
000000c0: 3269 0ebd db4d 933d ca49 e53d b1b8 d8bd
000000d0: c82d 1a3e f1a6 aa3d 3cd6 26be 90d5 eaba
000000e0: 7fff de3c 48ac 27bd 7924 bf3d fea9 cf3d
000000f0: 6b9b 7ebd 4354 ee3d 8c8a da3d 9039 093d

experts.0.net.4.weight f4 [64]
1.0110086 0.90623957 0.96485627 0.89024806 0.91371596 0.9458355 1.1199859 0.8539015
0.854666 1.187002 0.862024 0.98653054 0.9583409 1.1096681 0.9741198 1.1229048
1.0913936 1.1518568 0.91463184 0.8829262 0.97840554 1.0289503 1.0079316 1.0050255
0.92216957 1.21787 1.0607764 1.0132788 1.1409779 1.0783278 0.97770226 1.0196881
1.1838944 0.9976036 0.9348124 0.9038032 0.9575071 0.83894056 0.7832178 0.96680504
1.0272272 1.1314073 0.89075804 1.0474082 0.95890313 1.044386 1.0057719 1.1240445
1.021114 1.0749584 1.0801902 1.0608424 0.9845538 1.107555 1.1609247 0.93405265
1.1059812 1.1817659 1.0774 1.0939891 0.81560206 1.2230146 0.9324791 1.0004845
00000000: bb68 813f 51ff 673f d200 773f 4ce7 633f
00000010: 4ae9 693f 4622 723f b35b 8f3f 4a99 5a3f
00000020: 64cb 5a3f aeef 973f 9bad 5c3f 448d 7c3f
00000030: d455 753f 9b09 8e3f ea5f 793f 58bb 8f3f
00000040: c9b2 8b3f 0b70 933f 5025 6a3f 7407 623f
00000050: c978 7a3f a5b4 833f e703 813f ada4 803f
00000060: 4e13 6c3f 2ae3 9b3f 85c7 873f 1fb3 813f
00000070: 900b 923f a506 8a3f b24a 7a3f 2485 823f
00000080: da89 973f f362 7f3f de4f 6f3f a65f 673f
00000090: 2f1f 753f cfc4 563f f680 483f 8980 773f
000000a0: 2e7c 833f f4d1 903f b808 643f 7911 863f
000000b0: ad7a 753f 71ae 853f 22bd 803f b1e0 8f3f
000000c0: ddb3 823f 3d98 893f ac43 8a3f afc9 873f
000000d0: b80b 7c3f 5dc4 8d3f 2e99 943f 131e 6f3f
000000e0: cb90 8d3f 1b44 973f 3ee8 893f d607 8c3f
000000f0: 4ccb 503f be8b 9c3f f3b6 6e3f e00f 803f

experts.0.net.4.bias f4 [64]
-0.053127807 -0.029574953 -0.007673439 -0.06010814 -0.0804108 -0.045869485 -0.03781644 -0.028119106
-0.06993852 -0.020624133 -0.051923852 -0.024119653 -0.028736152 0.0151562225 -0.06572206 -0.027187692
-0.058466375 -0.058260687 -0.05996248 -0.047098972 -0.025208404 -0.05698393 -0.043745983 -0.026949273
-0.043165673 0.0032571314 -0.051318724 -0.03751467 -0.033919472 0.0045713834 -0.011353064 -0.020895494
-0.027010541 -0.024992425 -0.020416573 -0.047883462 -0.0652777 -0.08144685 -0.084157266 -0.06261223
-0.057757873 -0.050139792 -0.034501795 -0.039870966 -0.02654927 0.031162333 -0.05929405 -0.061717357
-0.062509455 -0.03916551 -0.049655292 -0.034744192 -0.0324928 -0.00094343926 -0.055510733 -0.024494288
-0.037504163 -0.03731732 -0.031819556 -0.119436525 -0.05017104 -0.028338065 -0.04259607 -0.06338945
00000000: 8b9c 59bd 2c47 f2bc 7971 fbbb f433 76bd
00000010: 6bae a4bd a4e1 3bbd 69e5 1abd 0a5a e6bc
00000020: ed3b 8fbd f1f3 a8bc 1bae 54bd 9496 c5bc
00000030: 1468 ebbc ce51 783c 4a99 86bd b9b8 debc
00000040: 707a 6fbd c2a2 6ebd 389b 75bd daea 40bd
00000050: db81 cebc fb67 69bd fd2e 33bd b9c4 dcbc
00000060: 7dce 30bd 9975 553b 9533 52bd fca8 19bd
00000070: 25ef 0abd 8bcb 953b 3402 3abc 072d abbc
00000080: 3645 ddbc eabc ccbc a840 a7bc 7321 44bd
00000090: 51b0 85bd 9bcd a6bd a55a acbd d73a 80bd
000000a0: 8593 6cbd 625f 4dbd c151 0dbd bd4f 23bd
000000b0: db7d d9bc 2648 ff3c 51de 72bd 57cb 7cbd
000000c0: f504 80bd 046c 20bd 5963 4bbd ed4f 0ebd
000000d0: 2c17 05bd 2351 77ba 395f 63bd 3fa8 c8bc
000000e0: f79d 19bd 0cda 18bd 3955 02bd 239b f4bd
000000f0: 2680 4dbd 3b25 e8bc 3779 2ebd 54d2 81bd

experts.0.net.6.weight f4 [64, 64]
-0.09805027 -0.06444941 0.055965375 -0.09868697 -0.07701178 0.000737327 -0.10476744 -0.062533535
0.013606351 -0.038125318 -0.003242235 0.02184391 -0.056110833 -0.04247237 -0.085240565 -0.06110671
0.08142349 -0.07738883 0.00510871 0.109045 -0.009437003 -0.07966338 0.07632668 -0.0053213164
0.07965049 -0.09684915 0.110166304 0.12685715 0.1450178 0.10190653 -0.11643474 0.07961448
0.047288995 0.14512073 0.026266988 -0.057104416 0.064455375 -0.12377849 0.043711096 0.021472925
-0.113700114 0.07158456 0.07274471 0.010088836 -0.022032477 -0.0015604207 0.06301761 -0.019719284
0.018237108 -0.021357723 0.045669384 0.07542811 0.021862222 0.12751958 -0.051260464 0.035016384
0.10737886 -0.035046414 0.05580449 -0.043856528 -0.058259 -0.057492204 0.06612501 -0.11720583
-0.013526552 0.10465276 0.009223346 -0.05580315 -0.103166774 -0.05711969 0.10904933 0.05128458
-0.11314165 -0.15326495 0.075448446 -0.17784256 -0.10017406 -0.1076707 -0.1057347 0.14236277
-0.09051379 0.066504404 -0.07517373 -0.05426219 -0.008455509 -0.109163366 -0.12396952 -0.070479125
-0.13329963 0.11269742 0.0953376 -0.07194506 0.14950119 -0.11032035 0.08127032 -0.07726934
-0.12987153 -0.15089403 0.13731812 0.07773069 -0.06529385 0.060354486 -0.07760992 0.07288429
0.070368476 0.22846317 0.077995904 0.007749709 0.03438538 -0.05875969 -0.05223012 0.07545905
-0.027669568 -0.016275002 -0.08442534 0.06350655 0.058474854 0.036454976 0.046623405 -0.088879004
-0.16201295 0.15729633 0.06787441 0.14195457 -0.04455894 0.32063213 0.11922474 0.084128805
0.10888156 0.07922616 -0.06224908 -0.008715775 0.09193878 0.052120768 0.13099378 0.054374944
-0.044614576 -0.1727559 0.016168525 0.019709546 0.022084912 -0.09775159 -0.033821028 -0.13632424
-0.016087558 -0.037013654 0.03412834 -0.033613786 0.00198588 0.008358568 0.019517345 -0.07861722
-0.09619639 0.14720464 -0.075037435 -0.034760844 -0.05159332 0.1136508 -0.045404017 -0.0761324
-0.04750309 0.11198451 -0.04062955 -0.055725466 -0.0060119526 -0.04894253 0.006160331 0.04671216
-0.010741201 -0.011170637 -0.044916272 -0.14122629 0.13719454 0.05158688 -0.07496011 0.07524348
0.03257731 -0.022893636 0.028943483 0.058219902 0.12408264 -0.0013050959 -0.0035291912 0.035471953
-0.05227417 0.08819767 -0.08826556 0.07380957 0.024979962 0.028348286 0.10337581 0.03861932
-0.03784992 0.06307044 0.078443594 -0.025964133 -0.17187156 0.099111296 0.03426415 -0.15220328
0.006046408 0.13855736 0.10394299 0.013408337 0.04605199 0.17097521 0.105284065 -0.14355019
-0.059083622 -0.15546781 0.06713741 -0.04856631 0.027682975 0.10483545 0.15707348 -0.0439916
-0.08750946 -0.11949161 -0.0074967537 0.06857462 -0.08717996 0.013671996 -0.0003512166 0.07446697
0.059199437 0.2470494 0.08242914 0.03630023 0.15072666 -0.05869813 0.051451474 -0.056872036
-0.20560509 -0.21787953 -0.022870483 -0.020034797 -0.14026429 0.14116716 0.030892577 -0.19530277
-0.032604847 -0.05580632 0.28794095 0.105386436 0.017352458 -0.005100487 0.04046523 0.080949605
0.22668709 0.007881659 -0.14771505 -0.11862723 -0.037489656 -0.092916325 0.005020619 -0.12419818
00000000: 94ce c8bd 0dfe 83bd f33b 653d 651c cabd
00000010: 5ab8 9dbd 2d49 413a 5090 d6bd 9511 80bd
00000020: 2ced 5e3c 4b29 1cbd ad7b 54bb 00f2 b23c
00000030: 79d4 65bd 82f7 2dbd 9b92 aebd 084b 7abd
00000040: 5cc1 a63d 097e 9ebd f766 a73b fc52 df3d
00000050: a99d 1abc 8e26 a3bd 2a51 9c3d 705e aebb
00000060: cc1f a33d d958 c6bd df9e e13d d7e6 013e
00000070: 8c7f 143e 5fb4 d03d 5675 eebd eb0c a33d
00000080: 1bb2 413d 879a 143e de2d d73c 52e6 69bd
00000090: 2e01 843d 947f fdbd 680a 333d fde7 af3c
000000a0: 9bdb e8bd ed9a 923d 2efb 943d a54b 253c
000000b0: 747d b4bc 0887 ccba 600f 813d 568a a1bc
000000c0: fd65 953c 64f6 aebc d20f 3b3d 0e7a 9a3d
000000d0: 6718 b33c 7e94 023e 7ef6 51bd 576d 0f3d
000000e0: 73e9 db3d d48c 0fbd 4093 643d e7a2 33bd
000000f0: fda0 6ebd f27c 6bbd 8d6c 873d 9c09 f0bd
00000100: 799e 5dbc 3054 d63d 841d 173c d891 64bd
00000110: 1a49 d3bd 56f6 69bd 4155 df3d c80f 523d
00000120: cfb6 e7bd 7df1 1cbe b784 9a3d 5c1c 36be
00000130: 0f28 cdbd 7582 dcbd 6f8b d8bd 8cc7 113e
00000140: 4b5f b9bd 7633 883d aff4 99bd 0842 5ebd
00000150: fa88 0abc 0b91 dfbd bbe3 fdbd 5c57 90bd
00000160: b37f 08be e8cd e63d 5c40 c33d ee57 93bd
00000170: d716 193e a3ef e1bd 0e71 a63d 633f 9ebd
00000180: 0bfd 04be f783 1abe 1f9d 0c3e 4531 9f3d
00000190: c8b8 85bd 4436 773d f3f1 9ebd 5c44 953d
000001a0: 591d 903d 40f2 693e 51bc 9f3d 45f1 fd3b
000001b0: afd7 0c3d 00ae 70bd 40ef 55bd 468a 9a3d
000001c0: 4aab e2bc 2753 85bc 31e7 acbd b90f 823d
000001d0: 5483 6f3d d051 153d 2ff8 3e3d 3206 b6bd
000001e0: b9e6 25be 4a12 213e bd01 8b3d 8a5c 113e
000001f0: 6f83 36bd e529 a43e 1a2c f43d b94b ac3d
00000200: 4cfd de3d 5341 a23d e4f8 7ebd 9ccc 0ebc
00000210: 664a bc3d 967c 553d 3c23 063e 43b8 5e3d
00000220: c6bd 36bd ece6 30be db73 843c ea75 a13c
00000230: 6beb b43c fc31 c8bd eb87 0abd 9598 0bbe
00000240: 0eca 83bc a19b 17bd 29ca 0b3d 9cae 09bd
00000250: 8a25 023b 60f2 083c d7e2 9f3c 1102 a1bd
00000260: 9d02 c5bd d0bc 163e 3aad 99bd 6361 0ebd
00000270: 8453 53bd c0c1 e83d 90f9 39bd 4eeb 9bbd
00000280: 9a92 42bd 2358 e53d 2c6b 26bd 6340 64bd
00000290: eaff c4bb f677 48bd 9adc c93b 4055 3f3d
000002a0: ddfb 2fbc 0c05 37bc 20fa 37bd a09d 10be
000002b0: ba7c 0c3e c44c 533d b084 99bd 4119 9a3d
000002c0: c96f 053d 6f8b bbbc e21a ed3c fe77 6e3d
000002d0: 0a1f fe3d c00f abba 014a 67bb 0a4b 113d
000002e0: 711d 56bd fba0 b43d 93c4 b4bd 7929 973d
000002f0: c7a2 cc3c aa3a e83c b2b6 d33d 4b2f 1e3d
00000300: 8508 1bbd 132b 813d 09a7 a03d bcb2 d4bc
00000310: 19ff 2fbe ddfa ca3d 9158 0c3d 2ddb 1bbe
00000320: f220 c63b fbe1 0d3e 10e0 d43d a4ae 5b3c
00000330: 03a1 3c3d 2014 2f3e 2c9f d73d d2fe 12be
00000340: ab01 72bd f432 1fbe 577f 893d 78ed 46bd
00000350: 68c7 e23c f8b3 d63d dfd7 203e 8930 34bd
00000360: 2938 b3bd 04b8 f4bd 54a7 f5bb da70 8c3d
00000370: 688b b2bd 8200 603c 7e23 b8b9 2482 983d
00000380: 1c7b 723d 85fa 7c3e 9cd0 a83d 8daf 143d
00000390: 1758 1a3e 736d 70bd c8be 523d a7f2 68bd
000003a0: 248a 52be d01b 5fbe e15a bbbc 0420 a4bc
000003b0: 71a1 0fbe 208e 103e 6e12 fd3c 73fd 47be
000003c0: a98c 05bd 2b95 64bd ff6c 933e d8d4 d73d
000003d0: be26 8e3c fc21 a7bb debe 253d e8c8 a53d
000003e0: a920 683e 1322 013c 9d42 17be d5f2 f2bd
000003f0: c18e 19bd ea4a bebd 0184 a43b 9e5b febd

experts.0.net.6.bias f4 [64]
0.058086388 -0.051637035 0.038801532 0.09531036 0.0049243513 -0.039455447 -0.08350674 -0.056422763
0.0396487 0.013488912 -0.064395614 -0.10382906 0.019797364 0.043922108 0.03477959 -0.079905696
-0.034056097 -0.020101998 0.03815958 0.107002184 -0.071735024 -0.014965374 0.018132634 -0.08947448
-0.028400447 -0.08953689 -0.013731449 -0.015908714 -0.088578396 -0.061076827 -0.031548895 -0.0915214
-0.09258602 0.034941416 0.045309678 -0.025638523 0.060474467 -0.055033322 -0.072797954 0.071412385
0.058298904 -0.11376855 0.043367244 -0.05900872 -0.048499607 -0.12558633 -0.048155874 -0.04317854
-0.013733962 0.076204 -0.06277348 0.08021864 0.03877539 -0.015849972 0.07969466 -0.069105126
-0.0827555 -0.08338639 -0.019783894 -0.096549034 -0.020628396 -0.045885436 -0.039565958 0.040222447
00000000: feeb 6d3d 5b81 53bd 5bee 1e3d 1432 c33d
00000010: 745c a13b 099c 21bd 9505 abbd 8e1b 67bd
00000020: ad66 223d 9900 5d3c d9e1 83bd 55a4 d4bd
00000030: 152e a23c abe7 333d 0b75 0e3d 99a5 a3bd
00000040: 687e 0bbd f2ac a4bc 384d 1c3d f623 db3d
00000050: d0e9 92bd 5431 75bc e48a 943c 653e b7bd
00000060: 0ea8 e8bc 1e5f b7bd dff9 60bc fe52 82bc
00000070: 9768 b5bd b22b 7abd 6a39 01bd 926f bbbd
00000080: bd9d bdbd bb1e 0f3d a496 393d e107 d2bc
00000090: 13b4 773d 9f6a 61bd 1817 95bd a840 923d
000000a0: d5ca 6e3d 7cff e8bd daa1 313d 21b3 71bd
000000b0: 86a7 46bd b499 00be 183f 45bd fbdb 30bd
000000c0: 6904 61bc d810 9c3d 628f 80bd ac49 a43d
000000d0: f1d2 1e3d cdd7 81bc f436 a33d fd86 8dbd
000000e0: b77b a9bd 7cc6 aabd d511 a2bc 80bb c5bd
000000f0: e2fc a8bc 5ef2 3bbd ea0f 22bd 4bc0 243d

experts.0.net.7.weight f4 [64]
0.9781275 1.4784224 1.0757135 0.92111796 1.0170206 1.0807513 0.9824573 1.0113157
0.88004655 1.1334844 0.9865392 1.0754145 1.0127561 0.962336 1.145301 0.97847015
1.318554 1.0839839 0.9693255 1.128407 1.0345026 0.9499451 0.974823 1.0976366
0.99603724 1.0356343 0.9263454 0.9312215 1.111036 1.1974863 1.0313052 0.97180367
1.0215297 1.024395 1.14436 1.0722284 0.9440961 0.94663936 1.058367 1.0338637
1.0215404 1.1966677 0.9853005 0.9296288 1.2029797 1.1845275 1.007706 0.9409452
1.046423 0.9565844 0.9491706 0.96722984 1.0498439 1.1174495 0.9828947 0.96520704
0.9514789 0.9717523 1.0601358 0.9771376 1.1025505 1.1754535 0.86086154 1.3187125
00000000: 9066 7a3f f23c bd3f fbb0 893f 63ce 6b3f
00000010: bb2d 823f 0f56 8a3f 5282 7b3f cb72 813f
00000020: bb4a 613f 0416 913f d58d 7c3f 2fa7 893f
00000030: fea1 813f a75b 763f 3999 923f 057d 7a3f
00000040: 61c6 a83f fcbf 8a3f b725 783f a46f 903f
00000050: 956a 843f 9a2f 733f 008e 793f 5b7f 8c3f
00000060: 4cfc 7e3f aa8f 843f f924 6d3f 8864 6e3f
00000070: 6d36 8e3f 3b47 993f cf01 843f 20c8 783f
00000080: 7cc1 823f 601f 833f 637a 923f c83e 893f
00000090: 48b0 713f f556 723f 9278 873f a555 843f
000000a0: d6c1 823f 682c 993f a73c 7c3f 27fc 6d3f
000000b0: 3dfb 993f 999e 973f 83fc 803f c9e1 703f
000000c0: 30f1 853f b7e2 743f d8fc 723f 609c 773f
000000d0: 4961 863f 9608 8f3f fd9e 7b3f cf17 773f
000000e0: 1f94 733f c2c4 783f 88b2 873f b125 7a3f
000000f0: 6020 8d3f 4375 963f 6c61 5c3f 92cb a83f

experts.0.net.7.bias f4 [64]
-0.00432601 0.03471348 -0.027140351 -0.100810856 0.010954199 -0.022402173 -0.025153019 -0.021362776
-0.10494845 -0.0053691296 -0.003530923 -0.022596309 0.028393392 -0.027542356 -0.0034436488 0.09443092
0.041233808 -0.016259499 -0.011813175 -0.010823862 -0.030665133 -0.032896757 -0.027064547 -0.010832489
-0.001705659 -0.0024757874 -0.032115243 -0.035080146 -0.004894143 -0.023208225 0.0018277501 -0.05889025
-0.025415005 0.0068942355 -0.0050272094 -0.015077033 -0.061965417 -0.012675203 -0.014280355 0.001978308
-0.038732648 -0.029277837 -0.008973522 -0.03393703 0.003605653 -0.0033754276 0.0065990277 -0.0514152
-0.025973387 -0.025434788 -0.008953248 -0.022561552 -0.03760013 -0.0017143615 -0.00452506 0.031736057
0.0032844555 -0.039036665 0.0055579077 -0.0117550315 0.012418915 -0.02069087 -0.11598008 0.012662513
00000000: 34c1 8dbb b92f 0e3d 7155 debc ec75 cebd
00000010: 3e79 333c c384 b7bc b40d cebc fd00 afbc
00000020: 37ef d6bd 86ef afbb 0f67 67bb e51b b9bc
00000030: 4299 e83c 82a0 e1bc d7ae 61bb 0065 c13d
00000040: c8e4 283d a432 85bc 0c8c 41bc 9156 31bc
00000050: 7235 fbbc c0be 06bd 78b6 ddbc c07a 31bc
00000060: 6b90 dfba d240 22bb 468b 03bd 33b0 0fbd
00000070: 0c5f a0bb 2d1f bebc 1e91 ef3a e736 71bd
00000080: 2133 d0bc 0ae9 e13b 4abb a4bb a905 77bc
00000090: 73cf 7dbd a8ab 4fbc 26f8 69bc 80a6 013b
000000a0: 20a6 1ebd 13d8 efbc ae05 13bc 8e01 0bbd
000000b0: d24c 6c3b 4736 5dbb a83c d83b bf98 52bd
000000c0: 24c6 d4bc 9e5c d0bc a5b0 12bc 01d3 b8bc
000000d0: 9802 1abd 6db4 e0ba f446 94bb abfd 013d
000000e0: 0540 573b e9e4 1fbd 1c1f b63b 2d98 40bc
000000f0: b478 4b3c e67f a9bc f786 edbd 6e76 4f3c
