checkpoints/checkpoint_0.pt (torch, 173806 bytes, 66 tensors)

gating.net.0.weight f4 [32, 3]
-0.33599183 -0.16292599 -0.20028013 -0.20165928 -0.12371688 -0.2894135 -0.51373893 0.032803565
-0.26952806 0.2585465 -0.30688977 0.231085 0.45038456 0.06982386 -0.3414509 0.5232644
-0.17536195 0.507203 0.010949622 0.08935077 0.05542687 0.392348 -0.42323503 -0.061905753
-0.21217513 0.47634348 -0.21578231 -0.08278787 0.19636655 0.16327769 -0.56626683 -0.38162473
-0.3794447 0.003554626 -0.53036046 -0.06889823 -0.106991164 -0.45759583 -0.18404621 0.26278126
0.50096405 0.011424176 0.39354575 -0.21669956 0.18533105 -0.3705672 0.010578031 -0.14821853
-0.43370318 0.30527106 0.38214883 0.50929993 0.11403524 0.42158744 0.40569547 -0.40415618
-0.56384295 0.4302962 0.30984458 0.24761544 0.3029939 0.2663971 -0.08598671 0.043759026
-0.42510608 0.3028917 -0.46359974 0.43884784 -0.33652672 0.43058065 -0.5705616 0.13056451
-0.5397831 -0.028030882 0.30211687 -0.32649577 -0.24518397 -0.36301675 0.36825114 0.13967536
-0.26547307 -0.52070737 -0.08864247 -0.1261497 0.34470758 -0.43545708 0.44127262 -0.34337768
0.2660898 0.44976082 -0.007371308 -0.33651662 -0.5394164 -0.11429719 -0.039875884 0.01245683
00000000: 1f07 acbe 12d6 26be 3c16 4dbe c57f 4ebe
00000010: 475f fdbd 022e 94be 6584 03bf 085d 063d
00000020: 95ff 89be 3560 843e a820 9dbe 8ca1 6c3e
00000030: ce98 e63e d0ff 8e3d a7d2 aebe a8f4 053f
00000040: 1592 33be 0ed8 013f 0b66 333c 89fd b63d
00000050: 4907 633d d6e1 c83e 43b2 d8be e390 7dbd
00000060: 7044 59be 4be3 f33e 0af6 5cbe b08c a9bd
00000070: 5014 493e 4432 273e ddf6 10bf 5164 c3be
00000080: 9346 c2be baf4 683b b4c5 07bf 841a 8dbd
00000090: 2f1e dbbd 004a eabe 9c76 3cbe 448b 863e
000000a0: 2e3f 003f 782c 3b3c d47e c93e 7de6 5dbe
000000b0: 6cc7 3d3e fcba bdbe 7a4f 2d3c 99c6 17be
000000c0: 580e debe 7d4c 9c3e 03a9 c33e 7b61 023f
000000d0: 4f8b e93d 4fda d73e 51b7 cf3e 8fed cebe
000000e0: 0358 10bf c94f dc3e f3a3 9e3e e78e 7d3e
000000f0: 0422 9b3e 3365 883e cd19 b0bd aa3c 333d
00000100: 81a7 d9be 9f14 9b3e f25c edbe aab0 e03e
00000110: 3b4d acbe 1175 dc3e 5310 12bf b4b2 053e
00000120: 3a2f 0abf 05a1 e5bc 10af 9a3e 742a a7be
00000130: 8211 7bbe 55dd b9be 6a8b bc3e 0f07 0f3e
00000140: 16ec 87be 144d 05bf 2f8a b5bd 632d 01be
00000150: 837d b03e 3bf4 debe 7cee e13e 33cf afbe
00000160: ec3c 883e 0d47 e63e 038b f1bb e84b acbe
00000170: 3117 0abf a514 eabd e554 23bd bb17 4c3c

gating.net.0.bias f4 [32]
0.14510925 0.11358051 -0.49051225 0.17905071 0.10270484 0.3210615 -0.00917317 -0.4809122
-0.30684048 -0.50885177 -0.28172392 0.24106884 0.42498553 0.35222533 -0.28765118 0.2204646
-0.074780874 -0.49174318 -0.28500417 0.4391635 -0.07734408 -0.053979885 0.42661443 0.46466365
0.048958033 -0.09785161 -0.472253 0.23679435 0.45092916 0.25384465 -0.3179134 0.31705606
00000000: 8597 143e e69c e83d 6c24 fbbe 1259 373e
00000010: ea56 d23d 2c62 a43e 104b 16bc 203a f6be
00000020: 321a 9dbe 1c44 02bf 1e3e 90be c0da 763e
00000030: b497 d93e e156 b43e 0447 93be 79c1 613e
00000040: b726 99bd c3c5 fbbe 11ec 91be 0ada e03e
00000050: 9366 9ebd 031a 5dbd 356d da3e 65e8 ed3e
00000060: 3888 483d 6d66 c8bd 25cb f1be 387a 723e
00000070: 30e0 e63e edf7 813e 8cc5 a2be 2c55 a23e

gating.net.1.weight f4 [32]
0.999 1.001 1.0009996 1.001 1.001 0.999 1.001 1.0009999
0.999 1.0009981 0.999 0.99900115 1.001 1.001 1.0009999 0.999
0.999 0.999 1.0009999 0.999 1.001 0.999 0.999 0.999
0.999 1.0009999 1.001 1.001 1.001 0.999 0.999 0.999
00000000: 77be 7f3f c520 803f c120 803f c520 803f
00000010: c520 803f 77be 7f3f c520 803f c420 803f
00000020: 77be 7f3f b520 803f 77be 7f3f 8abe 7f3f
00000030: c520 803f c520 803f c420 803f 77be 7f3f
00000040: 77be 7f3f 77be 7f3f c420 803f 77be 7f3f
00000050: c520 803f 77be 7f3f 77be 7f3f 77be 7f3f
00000060: 77be 7f3f c420 803f c520 803f c520 803f
00000070: c520 803f 77be 7f3f 77be 7f3f 77be 7f3f

gating.net.1.bias f4 [32]
-0.0009999754 0.0009999971 0.0009999597 0.0009999948 0.0009999976 -0.0009999975 0.0009999981 0.0009999936
-0.0009999976 -0.0009998771 -0.0009999941 0.0009998862 0.0009999918 0.0009999982 0.0009999685 -0.0009999985
-0.0009999971 -0.0009999953 0.0009999955 -0.0009999408 0.0009999981 -0.000999996 -0.0009999985 -0.0009999983
-0.0009999956 0.0009999557 0.000999997 0.000999995 0.0009999985 -0.0009999963 -0.0009999954 -0.0009999989
00000000: 9b11 83ba 5612 833a 1411 833a 4212 833a
00000010: 5a12 833a 5912 83ba 5e12 833a 3812 833a
00000020: 5a12 83ba 4f0e 83ba 3c12 83ba 9d0e 833a
00000030: 2812 833a 5f12 833a 6011 833a 6212 83ba
00000040: 5612 83ba 4612 83ba 4812 833a 7210 83ba
00000050: 5e12 833a 4c12 83ba 6212 83ba 6012 83ba
00000060: 4912 83ba f210 833a 5512 833a 4412 833a
00000070: 6212 833a 4f12 83ba 4712 83ba 6512 83ba

gating.net.4.weight f4 [32, 32]
0.00455411 -0.16946246 0.027093874 0.1446111 -0.12992829 0.012103144 -0.17343779 0.07153786
-0.13601267 -0.06791234 -0.04530626 0.1123427 -0.12418345 0.14148082 0.10758626 -0.074980386
-0.13512808 -0.11275839 0.101217784 0.08293568 0.13292463 -0.1423763 -0.034533884 -0.15575974
-0.09496844 0.16752172 -0.09121779 -0.022936543 0.07440504 -0.050591685 0.09855645 -0.16645677
-0.026530238 0.16184367 -0.04689914 -0.12071498 0.03695908 -0.17284952 0.1451199 0.097833365
-0.07796883 -0.03552619 -0.11578633 -0.11215878 0.14444193 0.14080733 -0.124105155 -0.17422761
0.062751174 -0.15385678 0.12196289 0.032527696 -0.028693447 0.038973942 0.15976037 -0.15111725
0.033213757 0.11311139 -0.07941474 0.131991 -0.040803228 -0.10279776 -0.09882432 -0.077214666
0.10493376 0.034909055 0.08660318 0.17111397 0.093597524 -0.06475288 -0.09562936 0.15509903
-0.04722745 0.1471057 -0.0008012231 -0.12037576 -0.09501333 -0.14657333 -0.052653532 -0.13158245
-0.1453924 0.12310319 0.09157726 0.111891374 -0.14997235 -0.10951584 0.019054206 -0.13666129
-0.01671663 -0.15403906 -0.063962154 0.0751918 0.019459875 -0.10028845 -0.036784794 0.072402574
0.060217936 -0.10252339 -0.15049717 0.12859266 -0.09332273 -0.0025780536 0.12593104 0.1055499
-0.10700596 0.11578314 0.07159809 -0.10330264 0.1611941 -0.13331068 0.07071588 -0.14082226
-0.08035383 0.046700943 0.06870684 -0.106604554 -0.06576113 -0.034151398 0.10557689 -0.040111553
0.17456925 0.14824668 0.14301468 0.15440239 -0.12234818 -0.08565091 -0.036612026 -0.16588469
-0.117861785 -0.07823148 -0.033686765 -0.14175813 0.10907901 0.15462409 -0.12328247 0.13250245
-0.011886589 0.0411824 0.04884801 -0.10404184 0.059782438 0.1049824 -0.14276901 -0.15151735
-0.062469635 -0.15348424 0.09295258 -0.06431831 -0.09080184 -0.012621729 0.15957941 0.013699643
-0.049180623 0.1368877 0.012016788 0.048788518 -0.0942867 -0.02932346 0.03912823 -0.017151892
0.13622409 0.08428806 0.009454119 -0.1232165 -0.133254 -0.13134508 -0.12326472 -0.051954962
0.08257893 -0.05867666 -0.11410044 0.1372461 -0.0015952606 -0.034124155 0.0034524724 0.0006239832
0.072174385 0.033495236 -0.14414543 0.1597285 0.049543828 0.09577626 0.07653108 -0.030631488
0.11878316 0.10113547 -0.098735414 -0.08655719 0.0066781654 0.09100459 -0.12408367 0.044603374
-0.17394707 0.011167891 0.11830091 -0.034434587 -0.06288632 -0.014256578 0.07459078 0.15321207
0.08235241 0.04607592 0.1485855 0.112376414 -0.10013588 -0.12374396 0.04248777 -0.06135107
0.08837555 0.05530362 -0.11345609 -0.023455149 -0.11041357 0.0067852316 -0.14163479 0.17552866
-0.03829378 -0.033429954 0.080551036 0.15594286 0.08917423 -0.0025087495 -0.17495087 -0.07187401
0.11886884 -0.14140894 -0.025844535 0.007928052 -0.120882876 0.16880846 -0.08603084 0.09363558
-0.016385175 0.05065996 0.14355034 0.089610346 -0.092588514 0.15637119 -0.06678876 0.1605775
-0.04435528 -0.14015248 -0.006136401 -0.14856425 0.07999391 0.11710462 -0.14975974 -0.15156469
0.12928785 0.02297085 -0.11877611 0.05903645 -0.10728038 0.076029114 -0.037684195 0.13763814
00000000: a53a 953b 9187 2dbe f9f3 dd3c ef14 143e
00000010: ec0b 05be 444c 463c ad99 31be 7182 923d
00000020: e846 0bbe a015 8bbd 0f93 39bd ee13 e63d
00000030: e553 febd 59e0 103e 2f56 dc3d 518f 99bd
00000040: 045f 0abe dfed e6bd 454b cf3d 2fda a93d
00000050: 651d 083e 18cb 11be 6773 0dbd 7b7f 1fbe
00000060: d07e c2bd d08a 2b3e 65d0 babd 6be5 bbbc
00000070: ab61 983d 3a39 4fbd f7d7 c93d a573 2abe
00000080: f155 d9bc 59ba 253e 5019 40bd 6a39 f7bd
00000090: 6762 173d 77ff 30be 509a 143e dc5c c83d
000000a0: 1fae 9fbd e983 11bd 6221 edbd 81b3 e5bd
000000b0: 96e8 133e cc2f 103e d82a febd b968 32be
000000c0: b083 803d a28c 1dbe aec7 f93d c33b 053d
000000d0: 850e ebbc 24a3 1f3d 3998 233e 7bbe 1abe
000000e0: 260b 083d f2a6 e73d 32a4 a2bd a628 073e
000000f0: 4921 27bd a287 d2bd 6864 cabd b922 9ebd
00000100: 83e7 d63d ccfc 0e3d 025d b13d 8038 2f3e
00000110: 0fb0 bf3d 289d 84bd 53d9 c3bd 48d2 1e3e
00000120: 9271 41bd e0a2 163e 2c09 52ba 9187 f6bd
00000130: 5996 c2bd 5217 16be 3bab 57bd 8dbd 06be
00000140: bfe1 14be 861d fc3d dc8c bb3d 4e27 e53d
00000150: 5a92 19be d749 e0bd 9117 9c3c f0f0 0bbe
00000160: 50f1 88bc 6abc 1dbe 97fe 82bd 29fe 993d
00000170: 516a 9f3c 0864 cdbd a7ab 16bd cd47 943d
00000180: 15a7 763d c8f7 d1bd ee1b 1abe cbad 033e
00000190: fd1f bfbd 90f4 28bb 11f4 003e 8c2a d83d
000001a0: f125 dbbd b61f ed3d 05a2 923d 5690 d3bd
000001b0: 1110 253e 9882 08be 7dd3 903d b633 10be
000001c0: 8c90 a4bd 7d49 3f3d 2cb6 8c3d 7d53 dabd
000001d0: c5ad 86bd 56e2 0bbd b238 d83d 034c 24bd
000001e0: 48c2 323e facd 173e 7172 123e a91b 1e3e
000001f0: af91 fabd bf69 afbd 7ef6 15bd addd 29be
00000200: 8561 f1bd d437 a0bd 22fb 09bd 0b29 11be
00000210: d164 df3d c755 1e3e 857b fcbd b9ae 073e
00000220: f8bf 42bc e0ae 283d da14 483d e313 d5bd
00000230: 6ede 743d 0301 d73d 0a32 12be 5d27 1bbe
00000240: 29e0 7fbd f92a 1dbe ec5d be3d 51b9 83bd
00000250: 51f6 b9bd 5ecb 4ebc c968 233e 7874 603c
00000260: 9f71 49bd 4a2c 0c3e 10e2 443c 78d6 473d
00000270: 6319 c1bd c137 f0bc ec44 203d 2082 8cbc
00000280: 547e 0b3e 389f ac3d 73e5 1a3c ef58 fcbd
00000290: bd73 08be 537f 06be 3772 fcbd bace 54bd
000002a0: 241f a93d f056 70bd 7ead e9bd 3e8a 0c3e
000002b0: 1018 d1ba c5c5 0bbd e042 623b ce92 233a
000002c0: 2ad0 933d 4d32 093d dc9a 13be de8f 233e
000002d0: 78ee 4a3d 5826 c43d 54bc 9c3d e3ee fabc
000002e0: 9644 f33d 1d20 cf3d cb35 cabd e544 b1bd
000002f0: 83d4 da3b 9d60 ba3d 941f febd 07b2 363d
00000300: 2e1f 32be 88f9 363c bf47 f23d 480b 0dbd
00000310: 8bca 80bd 6c94 69bc 0dc3 983d a0e3 1c3e
00000320: 61a8 a83d 1bba 3c3d cc26 183e 9b25 e63d
00000330: 0a14 cdbd 796d fdbd a807 2e3d 424b 7bbd
00000340: 3efe b43d 0c86 623d ab5b e8bd 0325 c0bc
00000350: 8320 e2bd a656 de3b b608 11be c9bd 333e
00000360: f0d9 1cbd d9ed 08bd f1f7 a43d 7caf 1f3e
00000370: fba0 b63d d569 24bb 5226 33be ae32 93bd
00000380: 8271 f33d 81cd 10be ebb7 d3bc a9e4 013c
00000390: 7191 f7bd 20dc 2c3e f030 b0bd 03c4 bf3d
000003a0: 343a 86bc d180 4f3d dcfe 123e a185 b73d
000003b0: 0c9f bdbd c51f 203e 8cc8 88bd 6e6e 243e
000003c0: e2ad 35bd 2284 0fbe dd13 c9bb 3a21 18be
000003d0: d9d3 a33d 8cd4 ef3d 9e5a 19be c633 1bbe
000003e0: 0964 043e 5d2d bc3c e440 f3bd 34d0 713d
000003f0: d1b5 dbbd 27b5 9b3d be5a 1abd 03f1 0c3e

gating.net.4.bias f4 [32]
-0.10116486 -0.07246336 0.15393949 -0.1219699 -0.1510659 -0.05363545 -0.07020838 0.06285011
0.12124097 0.06367255 -0.06361 -0.026188133 -0.08499142 -0.029017558 -0.09801097 -0.1288278
0.050109062 0.058982745 -0.10987462 0.13709734 -0.114746585 -0.0065435553 -0.13466786 -0.07349431
-0.060038287 0.14524549 -0.14429851 -0.0091627855 0.09263414 -0.16719443 -0.1112333 -0.11883414
00000000: 862f cfbd ac67 94bd 50a2 1d3e 5bcb f9bd
00000010: 05b1 1abe d8b0 5bbd 69c9 8fbd 8fb7 803d
00000020: 304d f83d c166 823d f645 82bd 7f88 d6bc
00000030: fb0f aebd 3bb6 edbc fab9 c8bd 6feb 03be
00000040: 293f 4d3d e497 713d f205 e1bd 3f63 0c3e
00000050: 4200 ebbd 526b d6bb 5fe6 09be 2f84 96bd
00000060: b5ea 75bd 3cbb 143e fdc2 13be 821f 16bc
00000070: f8b6 bd3d 0435 2bbe 49ce e3bd 505f f3bd

gating.net.5.weight f4 [32]
1.001 1.001 1.0009999 1.0009999 0.999 0.999 1.0009999 0.999
0.999 0.999 1.001 0.999 0.999 0.9990253 0.999 1.0009999
1.001 1.001 1.001 1.001 1.0009993 0.9990005 0.999 0.999
1.001 0.999 1.0009999 1.001 0.999 0.999 0.999 0.999
00000000: c520 803f c520 803f c420 803f c420 803f
00000010: 77be 7f3f 77be 7f3f c420 803f 77be 7f3f
00000020: 77be 7f3f 77be 7f3f c520 803f 77be 7f3f
00000030: 77be 7f3f 1fc0 7f3f 77be 7f3f c420 803f
00000040: c520 803f c520 803f c520 803f c520 803f
00000050: bf20 803f 7fbe 7f3f 77be 7f3f 77be 7f3f
00000060: c520 803f 77be 7f3f c420 803f c520 803f
00000070: 77be 7f3f 77be 7f3f 77be 7f3f 77be 7f3f

gating.net.5.bias f4 [32]
0.0009999988 0.0009999987 0.0009999922 0.0009999775 -0.0009999967 -0.0009999996 -0.0009999906 -0.0009999988
-0.0009999911 -0.0009999957 0.000999999 -0.0009999943 -0.0009999977 -0.0009996345 -0.0009999927 0.0009999895
0.0009999973 0.000999996 0.0009999946 0.0009999987 0.0009998763 0.0009999829 -0.000999997 -0.0009999966
0.0009999987 -0.000999999 0.0009999829 0.000999997 -0.0009999799 -0.0009999917 -0.0009999918 -0.0009999983
00000000: 6412 833a 6312 833a 2c12 833a ad11 833a
00000010: 5212 83ba 6b12 83ba 1e12 83ba 6412 83ba
00000020: 2212 83ba 4a12 83ba 6612 833a 3e12 83ba
00000030: 5b12 83ba 2b06 83ba 3012 83ba 1412 833a
00000040: 5712 833a 4c12 833a 4012 833a 6312 833a
00000050: 480e 833a dc11 833a 5512 83ba 5112 83ba
00000060: 6312 833a 6612 83ba dc11 833a 5512 833a
00000070: c211 83ba 2712 83ba 2812 83ba 6012 83ba

gating.net.7.weight f4 [4, 32]
-0.1391653 -0.14669065 0.13858864 0.040734652 0.107388414 0.14821032 0.015376879 -0.17708942
-0.13958031 -0.13284233 -0.020093052 0.064816035 -0.1722286 -0.16650496 -0.12644596 -0.02341103
-0.00872971 0.10281002 -0.06707419 -0.13582031 -0.05722545 -0.15530248 -0.026718594 -0.051762167
-0.1030755 0.11909592 -0.038762454 0.024891652 -0.041383397 0.043196175 0.116843924 0.042287007
0.14128962 0.041357692 0.09682394 0.03089113 0.014423645 -0.1652299 -0.08343323 -0.12434025
-0.03138941 0.011454059 0.17321269 -0.15042892 -0.05546504 -0.10877616 -0.08424575 -0.050472513
0.08848609 0.10586273 0.048768412 -0.041853674 0.10001632 0.013671552 -0.051867027 -0.13929816
0.069462374 -0.16020148 -0.027628794 0.06668471 0.10725821 0.0016640861 -0.09394382 -0.16322565
-0.011654361 -0.090148866 -0.033098765 -0.026590874 0.040231176 0.048783608 0.083269686 -0.10350991
-0.018971158 -0.14124744 0.11571102 0.033096842 -0.09126511 -1.8062186e-05 -0.1424459 0.07026632
-0.058407225 0.04564946 -0.14599371 0.10625396 -0.05667245 -0.0818013 -0.09881398 0.07165167
-0.05205473 0.09388782 -0.13968384 0.0445181 -0.15632303 0.12879431 0.035800762 0.0063688364
-0.06455785 -0.1403061 -0.024230413 -0.05359924 0.013695743 0.15165679 0.04719745 0.1107178
0.09162566 0.034769062 -0.10750304 -0.13827965 0.1076081 -0.10110674 -0.032689538 -0.13642925
0.032898415 -0.035855778 0.024297738 -0.13630168 -0.0050769057 0.07582482 0.117944136 -0.075773165
-0.03747171 -0.034204718 -0.062138785 -0.019852515 0.04548886 0.016825 -0.014942365 -0.03244359
00000000: 5981 0ebe 1336 16be 2eea 0d3e 61d9 263d
00000010: 75ee db3d 72c4 173e 4eef 7b3c ee56 35be
00000020: 24ee 0ebe d207 08be 2f9a a4bc 45be 843d
00000030: b25c 30be 4780 2abe 0d7b 01be 7dc8 bfbc
00000040: 0f07 0fbc 0f8e d23d 315e 89bd 7b14 0bbe
00000050: 3c65 6abd 9d07 1fbe f4e0 dabc 9104 54bd
00000060: 3f19 d3bd 90e8 f33d 61c5 1ebd 94e9 cb3c
00000070: a381 29bd 79ee 303d de4b ef3d 2435 2d3d
00000080: 3aae 103e af66 293d a14b c63d 650f fd3c
00000090: 2751 6c3c 0732 29be 0bdf aabd 1aa6 febd
000000a0: 2f92 00bd cea9 3b3c ab5e 313e 0a0a 1abe
000000b0: 4f2f 63bd 09c6 debd 0989 acbd 44bc 4ebd
000000c0: 3238 b53d 8fce d83d 63c1 473d c26e 2bbd
000000d0: 5bd5 cc3d a5fe 5f3c 8572 54bd 2da4 0ebe
000000e0: 4a42 8e3d db0b 24be c855 e2bc fe91 883d
000000f0: 31aa db3d 771d da3a 9e65 c0bd a024 27be
00000100: eff1 3ebc f89f b8bd 9292 07bd 1bd5 d9bc
00000110: 72c9 243d 52d1 473d 4c89 aa3d 01fd d3bd
00000120: 6769 9bbc 2ba3 10be e6f9 ec3d 8e90 073d
00000130: 34e9 babd 4084 97b7 57dd 11be cae7 8f3d
00000140: 6a3c 6fbd eefa 3a3d 607f 15be ad9b d93d
00000150: 5f21 68bd 7187 a7bd fc5e cabd 1cbe 923d
00000160: 5737 55bd 4248 c03d 4809 0fbe 9c58 363d
00000170: 2513 20be a8e2 033e d2a3 123d acb1 d03b
00000180: e836 84bd 67ac 0fbe dc7e c6bc e08a 5bbd
00000190: 1c64 603c eb4b 1b3e 1d52 413d 04c0 e23d
000001a0: 3ca6 bb3d 016a 0e3d 8e2a dcbd 2e99 0dbe
000001b0: a361 dc3d 0d11 cfbd 77e5 05bd 1cb4 0bbe
000001c0: 7dc0 063d 82dd 12bd 0d0c c73c ab92 0bbe
000001d0: 2c5c a6bb 0b4a 9b3d b28c f13d f62e 9bbd
000001e0: f07b 19bd 3f1a 0cbd 3d85 7ebd bea1 a2bc
000001f0: 8752 3a3d 95d4 893c d2d0 74bc 92e3 04bd

gating.net.7.bias f4 [4]
0.01914927 0.17734556 -0.11575413 0.17311488
00000000: eede 9c3c 139a 353e 8010 edbd 0745 313e

experts.0.net.0.weight f4 [64, 3]
0.27855238 0.15084332 -0.48027563 0.26721773 0.09903445 0.51036584 0.12829486 0.14219642
-0.4417094 -0.35540134 -0.34562105 -0.49181023 0.50101054 -0.41923547 0.27813277 0.2905106
0.15723488 0.29070017 -0.3533321 0.5078531 -0.43015772 0.113357514 -0.3656618 0.49500093
0.2609912 0.5687266 0.33668536 0.5130623 -0.037227966 -0.1760813 0.114297815 -0.30442747
0.07380472 0.33116895 -0.13306318 -0.2248141 0.06569984 -0.42601496 -0.55889267 0.19469
0.3311997 0.40104735 -0.4823455 0.17097321 0.09493958 0.30525538 0.28280735 0.5599293
0.07172641 -0.28531557 -0.2750176 -0.1876464 0.19251212 0.035208482 -0.42751756 -0.16790414
0.06240179 -0.5071272 0.39228743 -0.089622766 -0.37031415 -0.21283089 -0.32395107 0.17131025
-0.43333384 0.20855848 0.4437821 0.26678926 -0.47620633 0.055355985 -0.11581754 -0.34714577
0.14830951 -0.49215573 -0.21248423 -0.42200264 0.3842462 0.30185992 -0.50017047 -0.29083002
0.38830733 -0.009568156 0.031194577 0.4370313 0.49805936 -0.015772015 0.29028156 -0.13565457
0.3857265 -0.11541299 -0.29307276 -0.5143733 -0.49053207 -0.39002055 -0.4280383 0.3229735
-0.45211655 -0.20424595 -0.19484624 -0.082590096 0.5254404 0.3469315 0.15699674 0.3734256
0.46174678 -0.29915357 0.28983912 -0.5614555 0.14250581 0.3129963 -0.3081897 0.55039424
-0.027565688 -0.31554934 0.095083386 -0.089962624 0.52326214 0.51592803 0.00968096 0.42976773
0.39473692 -0.23026295 -0.07038465 -0.30951434 0.49452892 0.30613676 -0.04546238 0.5329297
0.31628746 -0.42221883 0.49401355 -0.3012648 -0.04887971 -0.06606545 0.4746891 0.172138
-0.23686558 0.18570553 0.44884866 0.10431838 -0.28129905 -0.57449067 -0.20495698 -0.3607619
-0.40361118 0.5074461 -0.023564305 0.12886912 -0.029679926 -0.49141747 0.4644277 0.50182205
0.38594744 0.18832564 0.25737748 -0.33988827 0.41540745 -0.54070556 0.18540369 -0.13809499
0.10114896 0.11111944 -0.49980247 -0.104936294 0.051949054 -0.3699867 0.124560855 -0.29837504
-0.2877879 -0.3281003 0.25588375 -0.4070602 -0.013121144 0.495282 0.15082598 0.4064757
0.05474323 -0.40318948 -0.3460064 0.2327483 0.11136991 -0.05661012 -0.23386383 -0.49905932
0.36519304 -0.47978747 -0.3185003 0.045689926 -0.049872447 0.17395334 0.34565285 0.08709054
00000000: 6b9e 8e3e ac76 1a3e b0e6 f5be c3d0 883e
00000010: 93d2 ca3d 56a7 023f ba5f 033e f09b 113e
00000020: bc27 e2be 2af7 b5be 3ef5 b0be 8dce fbbe
00000030: 3a42 003f 08a6 d6be 6b67 8e3e cebd 943e
00000040: 2e02 213e a7d6 943e f2e7 b4be a902 023f
00000050: a23d dcbe fc27 e83d 0638 bbbe c370 fd3e
00000060: a3a0 853e 1198 113f 0662 ac3e 0d58 033f
00000070: 5a7c 18bd a84e 34be f914 ea3d ebdd 9bbe
00000080: ee26 973d fa8e a93e b741 08be ab35 66be
00000090: a38d 863d a21e dabe 9713 0fbf d15c 473e
000000a0: 0293 a93e 1456 cd3e fdf5 f6be 9a13 2f3e
000000b0: af6f c23d 6f4a 9c3e 20cc 903e 8757 0f3f
000000c0: 4ce5 923d e214 92be 1bcf 8cbe 6126 40be
000000d0: e621 453e c536 103d 95e3 dabe 10ef 2bbe
000000e0: 0599 7f3d 17d3 01bf e6d9 c83e 248c b7bd
000000f0: d199 bdbe 57f0 59be eadc a5be f46b 2f3e
00000100: efdd ddbe 5b90 553e 6837 e33e 9a98 883e
00000110: 51d1 f3be f5bc 623d bf31 edbd 17bd b1be
00000120: 73de 173e d6fb fbbe 7795 59be bb10 d8be
00000130: ebbb c43e 628d 9a3e 2c0b 00bf ace7 94be
00000140: 38d0 c63e c1c3 1cbc c58b ff3c 91c2 df3e
00000150: a301 ff3e 5034 81bc c99f 943e 08e9 0abe
00000160: f27d c53e a55d ecbd a20d 96be f8ad 03bf
00000170: 0527 fbbe c6b0 c7be d627 dbbe c85c a53e
00000180: d27b e7be da25 51be c685 47be ff24 a9bd
00000190: 4383 063f 01a1 b13e c1c3 203e a431 bf3e
000001a0: 136a ec3e a82a 99be cb65 943e 8cbb 0fbf
000001b0: 0bed 113e 0d41 a03e 0acb 9dbe a3e6 0c3f
000001c0: 70d1 e1bc af8f a1be 14bb c23d 533e b8bd
000001d0: 82f4 053f dc13 043f e49c 1e3c 840a dc3e
000001e0: f51a ca3e 0dca 6bbe d425 90bd aa78 9ebe
000001f0: e532 fd3e f5bd 9c3e c336 3abd 156e 083f
00000200: 6ef0 a13e 112d d8be 58ef fc3e 613f 9abe
00000210: 1736 48bd 534d 87bd 730a f33e f244 303e
00000220: e48c 72be 9729 3e3e 7ecf e53e e0a4 d53d
00000230: 6e06 90be d211 13bf 3ee0 51be c9b5 b8be
00000240: 20a6 cebe fde7 013f ee09 c1bc 44f6 033e
00000250: 5123 f3bc 129b fbbe 78c9 ed3e 6977 003f
00000260: e79a c53e 70d8 403e fbc6 833e d605 aebe
00000270: 49b0 d43e ae6b 0abf 77da 3d3e c668 0dbe
00000280: 3027 cf3d 9792 e33d 1ce6 ffbe d7e8 d6bd
00000290: 88c8 543d e66e bdbe c319 ff3d 9dc4 98be
000002a0: f058 93be c3fc a7be 3203 833e 326a d0be
000002b0: 11fa 56bc 9a95 fd3e 2072 1a3e 951d d03e
000002c0: 703a 603d da6e cebe c027 b1be 9255 6e3e
000002d0: e815 e43d 03e0 67bd 007a 6fbe b484 ffbe
000002e0: 95fa ba3e b4a6 f5be 7912 a3be 5c25 3b3d
000002f0: 0d47 4cbd d320 323e 69f9 b03e 865c b23d

experts.0.net.0.bias f4 [64]
0.17471546 -0.38872287 0.111888155 -0.1386778 0.30894932 0.44153917 0.33184937 0.19634154
-0.5526943 0.0065887026 -0.57529706 -0.55925846 0.14469136 -0.15605418 -0.055390052 -0.44786814
0.31125033 -0.23937951 0.20667273 -0.47803378 0.12969428 0.22113758 0.37891445 0.12574644
0.16082385 -0.1916091 -0.4309263 0.28608954 0.5154122 0.33020505 -0.5554234 0.5383627
-0.13862151 -0.12779449 0.11544534 0.06531909 0.3500144 -0.015003995 -0.40625948 0.035493493
0.27854273 0.2152532 0.5054917 0.23577277 0.09885983 -0.391143 -0.14411199 0.5639464
-0.21153918 -0.40374243 0.5198417 0.44639075 0.2477449 -0.103409685 -0.43214348 -0.16381645
0.15952587 -0.47709772 -0.4771542 0.42302537 -0.17398068 0.08114718 0.31897628 -0.06540381
00000000: 9ce8 323e af06 c7be 9e25 e53d 8e01 0ebe
00000010: 9b2e 9e3e 6c11 e23e 29e8 a93e c20d 493e
00000020: 607d 0dbf 0be6 d73b ab46 13bf 902b 0fbf
00000030: f929 143e abcc 1fbe aee0 62bd f94e e5be
00000040: 345c 9f3e e71f 75be 04a2 533e d8c0 f4be
00000050: 94ce 043e e471 623e 1301 c23e adc3 003e
00000060: 02af 243e 2d35 44be 5fa2 dcbe 547a 923e
00000070: 0ef2 033f a310 a93e 3a30 0ebf 23d2 093f
00000080: ccf2 0dbe 8fdc 02be 9b6e ec3d 04c6 853d
00000090: 1635 b33e 51d3 75bc 3e01 d0be a061 113d
000000a0: 279d 8e3e 566b 5c3e e767 013f 6b6e 713e
000000b0: 0677 ca3d e543 c8be 1892 13be cb5e 103f
000000c0: ba9d 58be 54b7 cebe 5814 053f 548d e43e
000000d0: d7b0 7d3e 75c8 d3bd e941 ddbe 80bf 27be
000000e0: c05a 233e 2746 f4be 8e4d f4be c896 d83e
000000f0: fe27 32be 7e30 a63d dc50 a33e 6ff2 85bd

experts.0.net.1.weight f4 [64]
1.001 1.0009993 0.999 1.0009999 0.999 1.001 0.999 1.001
1.001 0.999 1.001 1.0009999 1.001 0.999 0.999 1.001
1.001 1.001 1.001 0.999 0.9990004 1.001 0.999 0.999
1.001 1.001 0.999 0.999 1.001 0.999 1.0009999 1.001
0.999 1.001 0.999 0.999 0.999 0.999 1.001 0.999
1.001 0.999 0.999 1.001 1.001 1.001 1.001 0.999
0.999 0.999 1.001 1.001 0.999 1.001 0.999 1.001
0.999 1.001 0.999 1.001 1.0009998 0.9990001 1.001 1.001
00000000: c520 803f bf20 803f 77be 7f3f c420 803f
00000010: 77be 7f3f c520 803f 77be 7f3f c520 803f
00000020: c520 803f 77be 7f3f c520 803f c420 803f
00000030: c520 803f 77be 7f3f 77be 7f3f c520 803f
00000040: c520 803f c520 803f c520 803f 77be 7f3f
00000050: 7dbe 7f3f c520 803f 77be 7f3f 77be 7f3f
00000060: c520 803f c520 803f 77be 7f3f 77be 7f3f
00000070: c520 803f 77be 7f3f c420 803f c520 803f
00000080: 77be 7f3f c520 803f 77be 7f3f 77be 7f3f
00000090: 77be 7f3f 77be 7f3f c520 803f 77be 7f3f
000000a0: c520 803f 77be 7f3f 77be 7f3f c520 803f
000000b0: c520 803f c520 803f c520 803f 77be 7f3f
000000c0: 77be 7f3f 77be 7f3f c520 803f c520 803f
000000d0: 77be 7f3f c520 803f 77be 7f3f c520 803f
000000e0: 77be 7f3f c520 803f 77be 7f3f c520 803f
000000f0: c320 803f 78be 7f3f c520 803f c520 803f

experts.0.net.1.bias f4 [64]
0.0009999946 -0.0009999954 -0.0009999982 -0.0009999955 -0.0009999988 0.0009999995 -0.0009999995 0.0009999988
-0.0009999921 -0.0009999968 -0.0009999984 -0.0009999934 0.0009999993 0.0009999987 0.0009999989 -0.0009999902
0.0009999946 -0.0009999976 0.0009999992 0.0009999964 0.0009999962 0.0009999995 -0.0009999963 -0.0009999963
0.0009999988 -0.0009999983 0.000999998 -0.0009999984 0.0009999988 -0.0009999982 -0.0009999925 0.0009999982
-0.0009999896 -0.0009999966 0.0009999988 -0.0009999996 -0.0009999989 -0.0009999991 -0.0009999982 -0.0009999996
0.0009999987 -0.0009999948 -0.0009999988 0.0009999991 0.0009999982 -0.0009999978 0.0009999934 -0.0009999989
0.0009999987 0.0009999942 0.0009999987 0.0009999971 -0.0009999977 -0.000999998 0.0009999971 -0.0009998698
-0.0009999984 -0.0009999884 0.0009999966 0.0009999993 0.0009999995 -0.0009999942 0.0009999989 0.0009998702
00000000: 4012 833a 4712 83ba 5f12 83ba 4812 83ba
00000010: 6412 83ba 6a12 833a 6a12 83ba 6412 833a
00000020: 2b12 83ba 5312 83ba 6112 83ba 3612 83ba
00000030: 6912 833a 6312 833a 6512 833a 1a12 83ba
00000040: 4012 833a 5a12 83ba 6812 833a 5012 833a
00000050: 4e12 833a 6a12 833a 4f12 83ba 4f12 83ba
00000060: 6412 833a 6012 83ba 5d12 833a 6112 83ba
00000070: 6412 833a 5f12 83ba 2e12 83ba 5f12 833a
00000080: 1512 83ba 5112 83ba 6412 833a 6b12 83ba
00000090: 6512 83ba 6712 83ba 5f12 83ba 6b12 83ba
000000a0: 6312 833a 4212 83ba 6412 83ba 6712 833a
000000b0: 5f12 833a 5c12 83ba 3612 833a 6512 83ba
000000c0: 6312 833a 3d12 833a 6312 833a 5612 833a
000000d0: 5b12 83ba 5d12 83ba 5612 833a 100e 83ba
000000e0: 6112 83ba 0b12 83ba 5112 833a 6912 833a
000000f0: 6a12 833a 3d12 83ba 6512 833a 140e 833a

experts.0.net.3.weight f4 [64, 64]
0.08622038 0.114022925 -0.09630053 0.012611965 -0.04665393 -0.08990723 0.03272183 0.016679417
-0.041190606 0.017924245 -0.10161108 -0.0993489 0.044663887 -0.026814993 0.070413165 0.017268676
0.066900745 0.03610531 -0.09856891 -0.035783645 0.028456714 0.03942239 -0.04047479 0.04614855
0.049308073 -0.028834458 0.03163046 -0.030541902 -0.051142816 0.001191642 -0.11798922 -0.10816297
0.099753074 0.003448058 0.09829404 -0.12221668 0.09783833 -0.07237868 -0.057491343 -0.11770701
-0.013889628 -0.12511623 -0.08599046 0.0076015517 0.09506093 -0.119182296 -0.036035337 -0.05091024
-0.071800396 0.00452595 -0.030101199 0.11140761 -0.115354314 -0.0866114 0.040831152 -0.12581606
0.057352345 -0.02254131 -0.0387976 0.06786364 0.04061124 0.045514494 0.011771377 -0.031409495
0.0023591486 0.0984138 -0.014963809 0.065223396 0.089558095 0.021370169 -0.1029799 0.052327834
-0.06469823 -0.11378365 0.09393406 -0.04870517 0.026428308 0.0014419041 0.09956991 -0.094109215
-0.04993384 0.0986217 -0.056000855 0.008782644 0.051714234 0.1146074 -0.035936553 -0.122853465
0.118198924 -0.08176369 -0.031257655 0.014774198 -0.10068788 0.12445341 -0.05031767 0.08183281
-0.05116094 0.09731973 0.08555887 -0.04203928 -0.034549598 0.11463828 -0.015443038 0.012429721
0.056950044 -0.077881835 -0.12214294 -0.041690025 -0.02975007 -0.014936384 0.07413154 0.0974976
-0.04375371 -0.11302423 0.0149836065 0.1010205 0.02718712 0.049784906 -0.10098858 -0.077293135
0.123031914 0.12206206 -0.041784283 -0.10152034 -0.043837283 -0.02448311 0.04309685 0.11728057
0.030908901 -0.041326676 0.003123004 0.024680711 -0.093911484 0.10701772 0.08763442 -0.0035205863
0.016867932 -0.06583715 0.05563649 -0.081452705 -0.06417619 -0.119006746 -0.060266677 -0.110662356
0.0058409604 0.061971407 0.03585502 -0.06975539 0.001632233 -0.122711085 0.08444999 -0.015599873
0.07239707 -0.012184907 -0.06715417 0.011798024 -0.09224357 0.1126873 0.12141716 -0.00041178998
0.08818222 0.03199279 0.06464001 -0.10212966 0.11322379 0.10727675 -0.09956137 0.01611233
0.06414707 0.09759707 -0.0015950591 -0.0018077125 -0.11090713 -0.11313284 -0.04583382 -0.11768089
-0.092590414 0.11469209 0.0063307025 0.019798983 -0.09729223 -0.063514136 0.05233955 0.049214236
0.034744248 0.03424598 -0.037701 -0.015257757 0.09351765 0.0824539 0.014690538 -0.07892028
0.091083765 -0.12152745 -0.07463391 0.02021713 -0.113018736 0.047090586 -0.02343917 0.05467966
0.092389375 0.043575715 0.035786826 0.060790602 -0.02273363 0.03281403 0.0067202477 0.10086374
-0.09248978 -0.112199575 -0.006751619 -0.0061060013 0.12505817 0.089033544 0.023968203 -0.111231476
0.10178481 -0.036844503 0.08186203 0.04985192 0.07749596 -0.042960484 -0.12195581 0.07310386
0.028722692 0.04104932 0.08945186 -0.10717513 0.026681898 0.07718432 -0.043375533 -0.11418309
-0.014016989 0.026242886 0.10893494 0.006810915 -0.015922721 -0.109704435 0.0030888137 -0.008852649
0.12225065 0.11484528 -0.11967377 -0.044054348 0.027298866 -0.11076434 -0.038117286 -0.103943214
0.001747401 -0.022147624 -0.05365972 -0.019992698 0.022699278 -0.09933615 0.11845216 0.11043913
00000000: 5094 b03d da84 e93d 3639 c5bd 6aa2 4e3c
00000010: 3118 3fbd 4821 b8bd 5307 063d 46a3 883c
00000020: 7bb7 28bd ded5 923c 7819 d0bd 7077 cbbd
00000030: 7bf1 363d 1eab dbbc c734 903d 0a77 8d3c
00000040: 4203 893d 29e3 133d 7fde c9bd df91 12bd
00000050: 0e1e e93c 5f79 213d e5c8 25bd 4306 3d3d
00000060: 43f7 493d 3e36 ecbc f18e 013d 0333 fabc
00000070: 217b 51bd df30 9c3a 55a4 f1bd 8c84 ddbd
00000080: 574b cc3d d0f8 613b 634e c93d bd4c fabd
00000090: 765f c83d 463b 94bd 0b7c 6bbd 5f10 f1bd
000000a0: 5391 63bc 781e 00be c41b b0bd 7016 f93b
000000b0: 4eaf c23d d915 f4bd ca99 13bd 4187 50bd
000000c0: 160c 93bd 6c4e 943b ca96 f6bc ac29 e43d
000000d0: e23e ecbd 5161 b1bd 913e 273d edd5 00be
000000e0: 4bea 6a3d 8ea8 b8bc 3bea 1ebd 18fc 8a3d
000000f0: f957 263d 686d 3a3d bcdc 403c 3ea7 00bd
00000100: f29b 1a3b 2d8d c93d c42a 75bc d893 853d
00000110: 3c6a b73d 7e10 af3c 20e7 d2bd b655 563d
00000120: 8180 84bd 6707 e9bd 8060 c03d 137f 47bd
00000130: 2e80 d83c 46fe bc3a 4feb cb3d 55bc c0bd
00000140: 6d87 4cbd 2dfa c93d 2761 65bd 14e5 0f3c
00000150: 4ed2 533d 49b7 ea3d 3532 13bd 999a fbbd
00000160: 4712 f23d b973 a7bd 0708 00bd 7a0f 723c
00000170: 7235 cebd 6ee1 fe3d e719 4ebd f697 a73d
00000180: 228e 51bd 914f c73d 7d39 af3d 6131 2cbd
00000190: e183 0dbd 79c7 ea3d cc04 7dbc 07a6 4b3c
000001a0: 7344 693d 8380 9fbd 1426 fabd 29c3 2abd
000001b0: 6bb6 f3bc bcb7 74bc 47d2 973d d2ac c73d
000001c0: 1737 33bd 3f79 e7bd cd7d 753c d6e3 ce3d
000001d0: 86b7 de3c 42eb 4b3d 1ad3 cebd dd4b 9ebd
000001e0: 28f8 fb3d acfb f93d ff25 2bbd e5e9 cfbd
000001f0: b98e 33bd ce90 c8bc 5386 303d cc30 f03d
00000200: aa34 fd3c 2946 29bd 50ab 4c3b 342f ca3c
00000210: aa54 c0bd 1b2c db3d ad79 b33d a3b9 66bb
00000220: 9e2e 8a3c a1d5 86bd 17e3 633d add0 a6bd
00000230: ce6e 83bd cfb9 f3bd 31da 76bd f2a2 e2bd
00000240: 8765 bf3b bbd5 7d3d b7dc 123d eadb 8ebd
00000250: a7f0 d53a f34f fbbd 1ef4 ac3d 9c96 7fbc
00000260: ea44 943d 34a3 47bc 2088 89bd 804c 413c
00000270: 32ea bcbd 99c8 e63d 8fa9 f83d 84e5 d7b9
00000280: e198 b43d df0a 033d fb61 843d 5b29 d1bd
00000290: e0e1 e73d eab3 db3d d5e6 cbbd 01fe 833c
000002a0: 8a5f 833d f9e0 c73d 4d11 d1ba c4f0 ecba
000002b0: 4723 e3bd 31b2 e7bd 3ebc 3bbd ae02 f1bd
000002c0: 0ba0 bdbd b0e3 ea3d c871 cf3b 7a31 a23c
000002d0: 2641 c7bd b313 82bd ff61 563d de94 493d
000002e0: fc4f 0e3d 8345 0c3d 5d6c 1abd acfb 79bc
000002f0: 2f86 bf3d 97dd a83d 95b0 703c f5a0 a1bd
00000300: 208a ba3d 62e3 f8bd aad9 98bd 659e a53c
00000310: 5e76 e7bd 0fe2 403d 8103 c0bc c7f7 5f3d
00000320: a436 bd3d 737c 323d 3595 123d 91ff 783d
00000330: e13b babc 0168 063d 8635 dc3b a691 ce3d
00000340: 486b bdbd e4c8 e5bd af3c ddbb da14 c8bb
00000350: 400f 003e 3857 b63d f758 c43c 54cd e3bd
00000360: 8e74 d03d 43ea 16bd 48a7 a73d 8731 4c3d
00000370: 34b6 9e3d 55f7 2fbd f8c3 f9bd 7ab7 953d
00000380: da4b eb3c 5523 283d 8932 b73d a27e dbbd
00000390: ff93 da3c d012 9e3d 8baa 31bd d3d8 e9bd
000003a0: 83a7 65bc 52fb d63c 4819 df3d 192e df3b
000003b0: 5e70 82bc b8ac e0bd b26d 4a3b b30a 11bc
000003c0: 8c5e fa3d 0134 eb3d 8617 f5bd 5572 34bd
000003d0: dfa1 df3c 6ad8 e2bd df20 1cbd 2ee0 d4bd
000003e0: 0c09 e53a ef6e b5bc 4bca 5bbd bac7 a3bc
000003f0: d6f3 b93c c070 cbbd 0c97 f23d e92d e23d

experts.0.net.3.bias f4 [64]
0.12175773 0.03787477 -0.065936044 0.008761686 0.03137348 -0.029198863 0.104537904 0.062902644
-0.10287264 -0.12039475 0.025310893 -0.10772735 -0.013491201 0.027136754 0.078621686 -0.02922788
0.013019902 -0.027102938 -0.105876535 -0.099768385 0.018210122 -0.07704244 0.051466208 0.12096637
-0.12542415 0.101933226 -0.10637679 -0.025206951 0.07393786 0.050213225 -0.027289523 -0.0058532776
0.10275082 0.0695045 -0.06539512 -0.101292044 -0.004854885 0.07352152 -0.10879774 -0.050072026
-0.02236202 0.12391658 -0.016331848 -0.085145846 -0.061939638 -0.08104715 0.041992012 -0.005530065
-0.060531057 0.05588847 0.1144063 -0.04960603 0.12194598 0.08407824 -0.10090701 -0.019049263
-0.015084452 -0.07214269 0.062973924 0.10079039 -0.06019116 0.07494989 0.11460288 0.013730335
00000000: 1e5c f93d 9322 1b3d 7a09 87bd 2d8d 0f3c
00000010: 7a81 003d 7432 efbc f817 d63d 1ad3 803d
00000020: e4ae d2bd 8691 f6bd ca58 cf3c 28a0 dcbd
00000030: 330a 5dbc e64d de3c 6804 a13d 4f6f efbc
00000040: 6d51 553c fb06 debc ccd5 d8bd 5e53 ccbd
00000050: 652d 953c 6dc8 9dbd 3bce 523d 37bd f73d
00000060: 306f 00be 5ec2 d03d 13dc d9bd cf7e cebc
00000070: bc6c 973d 62ac 4d3d 478e dfbc dacc bfbb
00000080: 066f d23d 6058 8e3d e0ed 85bd 3472 cfbd
00000090: ba15 9fbb 7392 963d 59d1 debd 5318 4dbd
000000a0: 8e30 b7bc fac7 fd3d 5eca 85bc f260 aebd
000000b0: 6bb4 7dbd 0cfc a5bd d1ff 2b3d 8c35 b5bb
000000c0: 6aef 77bd 4feb 643d da4d ea3d b12f 4bbd
000000d0: d0be f93d 3631 ac3d 56a8 cebd 330d 9cbc
000000e0: c724 77bc 8cbf 93bd 79f8 803d 316b ce3d
000000f0: 018b 76bd 547f 993d eab4 ea3d 33f5 603c

experts.0.net.4.weight f4 [64]
1.001 1.001 0.999 1.001 0.999 1.001 1.001 0.999
1.001 1.001 0.999 0.999 1.001 0.999 0.999 0.999
1.001 0.999 1.001 0.999 1.0009999 1.0009999 1.001 1.001
0.999 0.999 0.999 0.999 1.001 1.001 1.001 0.999
1.001 1.001 0.999 1.001 0.999 0.999 1.001 0.999
0.999 1.0009998 0.99900055 1.001 1.001 1.001 0.999 1.0009999
0.999 0.999 1.001 1.001 0.999 1.001 0.999 0.9990001
0.999 0.999 0.999 0.999047 1.001 0.999 1.001 1.001
00000000: c520 803f c520 803f 77be 7f3f c520 803f
00000010: 77be 7f3f c520 803f c520 803f 77be 7f3f
00000020: c520 803f c520 803f 77be 7f3f 77be 7f3f
00000030: c520 803f 77be 7f3f 77be 7f3f 77be 7f3f
00000040: c520 803f 77be 7f3f c520 803f 77be 7f3f
00000050: c420 803f c420 803f c520 803f c520 803f
00000060: 77be 7f3f 77be 7f3f 77be 7f3f 77be 7f3f
00000070: c520 803f c520 803f c520 803f 77be 7f3f
00000080: c520 803f c520 803f 77be 7f3f c520 803f
00000090: 77be 7f3f 77be 7f3f c520 803f 77be 7f3f
000000a0: 77be 7f3f c320 803f 80be 7f3f c520 803f
000000b0: c520 803f c520 803f 77be 7f3f c420 803f
000000c0: 77be 7f3f 77be 7f3f c520 803f c520 803f
000000d0: 77be 7f3f c520 803f 77be 7f3f 78be 7f3f
000000e0: 77be 7f3f 77be 7f3f 77be 7f3f 8bc1 7f3f
000000f0: c520 803f 77be 7f3f c520 803f c520 803f

experts.0.net.4.bias f4 [64]
0.0009999987 0.0009999983 -0.0009999946 0.0009999991 0.0009999839 0.0009999963 0.0009999992 -0.000999999
0.0009999991 -0.0009999987 -0.0009999921 0.0009999995 0.0009999991 0.0009999982 -0.0009999992 0.0009999922
0.0009999991 0.0009999967 0.0009999996 0.0009999987 0.0009999969 0.0009999834 0.0009999988 0.0009999969
-0.0009999693 0.0009999992 0.0009999952 -0.0009999985 -0.0009999982 0.0009999966 -0.0009999993 -0.0009999982
-0.0009999946 -0.0009999961 0.000999998 -0.0009999981 -0.0009999978 0.0009999862 -0.0009998637 -0.0009999987
0.0009999952 -0.0009999991 -0.000999988 0.000999999 -0.0009999989 0.0009999987 -0.0009999928 0.0009999968
0.0009999952 0.0009999983 0.0009999978 0.0009999989 -0.0009999996 -0.0009999992 0.0009999982 0.0009999968
0.0009999961 0.0009999984 0.0009999892 0.000999996 0.0009999981 0.0009999987 0.0009999984 -0.0009999978
00000000: 6312 833a 6012 833a 4012 83ba 6712 833a
00000010: e411 833a 4f12 833a 6812 833a 6612 83ba
00000020: 6712 833a 6312 83ba 2b12 83ba 6a12 833a
00000030: 6712 833a 5f12 833a 6812 83ba 2c12 833a
00000040: 6712 833a 5212 833a 6b12 833a 6312 833a
00000050: 5412 833a e011 833a 6412 833a 5412 833a
00000060: 6711 83ba 6812 833a 4512 833a 6212 83ba
00000070: 5f12 83ba 5112 833a 6912 83ba 5f12 83ba
00000080: 4012 83ba 4d12 83ba 5d12 833a 5e12 83ba
00000090: 5c12 83ba f811 833a dc0d 83ba 6312 83ba
000000a0: 4512 833a 6712 83ba 0812 83ba 6612 833a
000000b0: 6512 83ba 6312 833a 3112 83ba 5312 833a
000000c0: 4512 833a 6012 833a 5c12 833a 6512 833a
000000d0: 6b12 83ba 6812 83ba 5f12 833a 5312 833a
000000e0: 4d12 833a 6112 833a 1212 833a 4c12 833a
000000f0: 5e12 833a 6312 833a 6112 833a 5c12 83ba

experts.0.net.6.weight f4 [64, 64]
-0.093918175 -0.07004091 0.059016574 -0.09654294 -0.07751648 0.004411521 -0.05966979 -0.036760125
-0.008261973 -0.075941846 -0.0006613111 0.033422608 -0.049490254 -0.071385555 -0.06698494 -0.046665024
0.050832737 -0.07612623 0.009374339 0.105197825 -0.019091722 -0.042179693 0.07636608 -0.0062839068
0.077879116 -0.0055244635 0.11045786 0.10796031 0.1255285 0.09749988 -0.09267531 0.06358458
-0.0104548065 0.12195021 0.04976971 -0.0525903 0.07727325 -0.11261 0.054038476 0.04496414
-0.05827323 0.11292397 0.06355445 0.019306649 0.008488488 -0.00790025 0.064812645 -0.021817302
0.06427911 -0.01979232 0.020105768 0.051819 0.074157834 0.059879374 -0.094981246 0.021745127
0.09105523 -0.057018045 0.08133563 -0.0025698035 -0.07016982 -0.043332566 0.08018553 -0.086761594
0.040601052 0.111563094 0.04112186 -0.030457456 -0.12074237 0.02854493 0.08889538 0.055029202
-0.019957686 -0.10537219 0.08962471 -0.12298536 -0.0806239 -0.08357739 -0.06918309 0.049569868
-0.055571526 0.014502964 -0.09372818 -0.054256815 -0.06619346 -0.11219146 -0.089444295 -0.10165764
-0.097239904 0.008215421 0.034920793 -0.0582229 0.040804245 -0.026420182 0.05210825 -0.014559928
-0.11341558 -0.07234036 0.123742096 0.1237902 -0.0122165 0.10282203 -0.09850339 0.058056142
0.014393309 0.048046507 0.005893789 0.052575402 -0.042324938 -0.026329614 -0.0984158 0.040219363
-0.083394654 -0.11550888 0.031390194 0.09717952 0.06468516 0.0396136 0.0051322486 -0.12007982
-0.11360232 -0.036985703 0.050955012 0.11770373 -0.10601247 0.11343949 0.08971637 0.1104167
0.117196515 0.09378551 -0.08346845 -0.005739483 0.063454464 0.03667992 0.122933865 0.035620954
-0.05791632 -0.10356744 0.0074067838 -0.008419922 0.015124975 -0.07451308 -0.051603515 -0.12337433
-0.017082397 -0.069269165 0.026245337 -0.05345347 -0.031645913 -0.0068136128 0.017394139 -0.10632099
-0.11635707 0.09397076 -0.09185744 -0.026641728 -0.0071432265 0.10484864 -0.0660682 -0.062851354
0.046772916 0.11393212 -0.030025302 -0.08135091 -0.007063123 -0.049069148 -0.0023593253 0.025689108
-0.049397554 0.009456997 -0.041642535 -0.12299569 0.11757012 0.03632125 -0.098313764 0.05830914
-0.021006716 -0.019824592 0.038939442 0.065049514 0.09337351 0.09282479 -0.00021245773 0.071607545
-0.043730404 0.121694535 -0.089501254 0.008382137 -0.010213784 0.06024659 0.08668488 -0.009660971
-0.10601502 -0.012286324 0.0008249548 -0.058992524 -0.12386122 0.033389147 0.010760691 -0.123629056
-0.09426589 0.08558367 0.075076774 -0.023116766 0.0043981792 0.019975355 0.033451628 -0.10220318
-0.07524558 -0.015995946 0.10118642 -0.08835045 0.05135248 0.08386225 0.08417715 -0.031551305
-0.10435891 -0.09851941 0.082464814 0.034923714 -0.025235754 -0.10677673 0.031233883 -0.020238627
0.09118894 0.11898714 0.10001573 -0.0046492624 0.055507343 -0.014057901 0.06776981 0.036224123
-0.05909511 -0.109165944 -0.043360893 -0.0788764 -0.11216461 0.06379442 0.09633248 -0.11215617
0.05022717 -0.030523773 0.122248 0.12548724 0.051410984 0.0026230407 0.091313176 0.030965004
0.1058963 0.02810647 -0.002248377 -0.03031703 -0.028342512 0.022070367 0.041732427 0.012968604
00000000: 2c58 c0bd 9c71 8fbd 5dbb 713d 4eb8 c5bd
00000010: f6c0 9ebd 858e 903b 4f68 74bd c991 16bd
00000020: 3a5d 07bc 6687 9bbd d65b 2dba 25e6 083d
00000030: 4bb6 4abd 9732 92bd 662f 89bd d323 3fbd
00000040: fd35 503d 12e8 9bbd d496 193c f571 d73d
00000050: 3e66 9cbc 9dc4 2cbd d265 9c3d 3be9 cdbb
00000060: 167f 9f3d 8f06 b5bb bb37 e23d 4c1a dd3d
00000070: 8b8a 003e 04ae c73d 8ecc bdbd a238 823d
00000080: a34a 2bbc 08c1 f93d 53db 4b3d ed68 57bd
00000090: 7041 9e3d 12a0 e6bd 7357 5d3d 512c 383d
000000a0: e9af 6ebd af44 e73d d628 823d fa28 9e3c
000000b0: 4d13 0b3c 0d70 01bc 7ebc 843d 33ba b2bc
000000c0: c4a4 833d 8123 a2bc dab4 a43c 2940 543d
000000d0: 10e0 973d 1344 753d 8785 c2bd d622 b23c
000000e0: 2a7b ba3d c18b 69bd 4b93 a63d 266a 28bb
000000f0: 32b5 8fbd 7d7d 31bd 5038 a43d 10b0 b1bd
00000100: 4a4d 263d 317b e43d 656f 283d ea81 f9bc
00000110: c747 f7bd 0fd7 e93c c80e b63d 4d66 613d
00000120: 4d7e a3bc 60cd d7bd 298d b73d c0df fbbd
00000130: 251e a5bd 9f2a abbd ddaf 8dbd c609 4b3d
00000140: f89e 63bd d79d 6d3c 8ff4 bfbd 653c 5ebd
00000150: 7090 87bd a3c4 e5bd 922e b7bd e131 d0bd
00000160: b725 c7bd f999 063c 1b09 0f3d 237b 6ebd
00000170: 5a22 273d 236f d8bc 766f 553d c48c 6ebc
00000180: 6d46 e8bd 2f27 94bd 7f6c fd3d b785 fd3d
00000190: b727 48bc 5b94 d23d 25bc c9bd 47cc 6d3d
000001a0: ead1 6b3c 6acc 443d b020 c13b 4e59 573d
000001b0: ea5c 2dbd 34b1 d7bc 398e c9bd 0fbd 243d
000001c0: d1ca aabd eb8f ecbd 0193 003d 0e06 c73d
000001d0: a779 843d df41 223d 6c2c a83b 69ec f5bd
000001e0: 55a8 e8bd 527e 17bd 34b6 503d a70e f13d
000001f0: 111d d9bd f752 e83d 37bd b73d 2722 e23d
00000200: ba04 f03d 9e12 c03d 82f1 aabd 4612 bcbb
00000210: 6af4 813d af3d 163d c0c4 fb3d 47e7 113d
00000220: aa39 6dbd 2a1b d4bd 9bb4 f23b b6f3 09bc
00000230: bece 773c 509a 98bd 355e 53bd aeab fcbd
00000240: 62f0 8bbc fedc 8dbd 7600 d73c 07f2 5abd
00000250: 259f 01bd ba44 dfbb 277e 8e3c d2be d9bd
00000260: 9e4c eebd be73 c03d c11f bcbd c13f dabc
00000270: ba11 eabb e2ba d63d c44e 87bd 36b8 80bd
00000280: f594 3f3d 3e55 e93d 9ff7 f5bc 4e9b a6bd
00000290: c571 e7bb bbfc 48bd e99e 1abb f771 d23c
000002a0: 1755 4abd 85f1 1a3c 5d91 2abd 2ae5 fbbd
000002b0: 9ac8 f03d 97c5 143d ba58 c9bd 91d5 6e3d
000002c0: 4716 acbc 2f67 a2bc f77e 1f3d ae38 853d
000002d0: 9c3a bf3d ec1a be3d 30c7 5eb9 faa6 923d
000002e0: a71e 33bd fc3a f93d 6f4c b7bd 3b55 093c
000002f0: b757 27bc 21c5 763d d887 b13d 0d49 1ebc
00000300: 671e d9bd 944c 49bc c841 583a 25a2 71bd
00000310: f4aa fdbd 0fc3 083d 9c4d 303c 3b31 fdbd
00000320: 7a0e c1bd 7e46 af3d dac1 993d 5f5f bdbc
00000330: 9a1e 903b 5ba3 a33c 9304 093d e74f d1bd
00000340: 5b1a 9abd ee09 83bc d33a cf3d 15f1 b4bd
00000350: fa56 523d f9bf ab3d 1265 ac3d f13b 01bd
00000360: 20ba d5bd 8bc4 c9bd 50e3 a83d 2b0c 0f3d
00000370: 36bb cebc c2ad dabd 33de ff3c 7acb a5bc
00000380: 44c1 ba3d 88af f33d 0cd5 cc3d d758 98bb
00000390: ab5b 633d 1c53 66bc e6ca 8a3d bf5f 143d
000003a0: b70d 72bd 6592 dfbd 319b 31bd f389 a1bd
000003b0: 8fb6 e5bd a6a6 823d f749 c53d 22b2 e5bd
000003c0: 01bb 4d3d fe0c fabc 295d fa3d ba7f 003e
000003d0: 5394 523d 52e7 2b3b 6702 bb3d 52aa fd3c
000003e0: 29e0 d83d 8a3f e63c 8259 13bb 6c5b f8bc
000003f0: 8e2e e8bc eacc b43c 9fef 2a3d 457a 543c

experts.0.net.6.bias f4 [64]
0.05821373 -0.06536057 0.034436192 0.033941444 -0.024592431 -0.006479946 -0.07931016 -0.07693429
-0.04645178 0.027166309 -0.069976434 -0.11679599 -0.0063453084 0.06991378 0.060229216 -0.0256475
0.023887057 -0.0025674875 0.028085874 0.091170624 -0.06669323 -0.045420248 0.04813594 -0.09099911
-0.028491272 -0.089346856 -0.0020211302 -0.013114074 -0.09470919 -0.036826547 0.00579049 -0.07315389
-0.08697645 0.016288785 0.044583756 -0.027980687 0.047498416 -0.05463883 -0.08120459 0.060651045
0.08850281 -0.084851295 0.049235683 -0.07505761 -0.0454376 -0.12398866 -0.041171785 -0.0790011
0.026389705 0.07989961 -0.06296816 0.09600617 0.08597574 -0.014703359 0.064867735 -0.09120472
-0.12372467 -0.11703194 -0.022577675 -0.10803284 -0.01904143 -0.023824487 -0.081822194 0.052154604
00000000: 8571 6e3d c3db 85bd f70c 0d3d 2f06 0b3d
00000010: 1176 c9bc ba55 d4bb 5d6d a2bd ba8f 9dbd
00000020: 3944 3ebd e18b de3c ce4f 8fbd bc32 efbd
00000030: 4eec cfbb f52e 8f3d e9b2 763d b51a d2bc
00000040: caae c33c 4b43 28bb 5914 e63c aab7 ba3d
00000050: 7696 88bd 950a 3abd 312a 453d be5d babd
00000060: 8766 e9bc 7cfb b6bd f074 04bb 6adc 56bc
00000070: e4f6 c1bd 6fd7 16bd 27be bd3b b5d1 95bd
00000080: b620 b2bd 0f70 853c 759d 363d c137 e5bc
00000090: b38d 423d f7cc 5fbd 984e a6bd 3b6d 783d
000000a0: f640 b53d 84c6 adbd 5bab 493d ceb7 99bd
000000b0: c71c 3abd c4ed fdbd bfa3 28bd 54cb a1bd
000000c0: 392f d83c 68a2 a33d 73f5 80bd e29e c43d
000000d0: 0c14 b03d 5ce6 70bc 60d9 843d 8ac9 babd
000000e0: 5c63 fdbd 71ae efbd d1f4 b8bc 5240 ddbd
000000f0: c6fc 9bbc 922b c3bc 6592 a7bd 11a0 553d

experts.0.net.7.weight f4 [64]
0.999 0.999 1.001 1.0009999 1.001 1.001 0.999 0.999
0.999 1.001 1.001 1.001 1.001 1.001 1.0009999 1.001
1.001 0.999 0.999 0.999 0.999 0.999 0.999 1.001
0.999 1.001 0.999 0.999 1.001 1.001 0.999 0.999
0.999 1.001 1.001 0.999 1.001 0.999 0.999 1.001
0.999 0.999 1.0009999 0.999 0.999 1.001 0.999 0.999
0.999 0.999 1.0009999 0.999 1.0009999 1.001 1.001 0.999
0.999 0.999 1.001 0.999 1.001 0.999 0.999 1.001
00000000: 77be 7f3f 77be 7f3f c520 803f c420 803f
00000010: c520 803f c520 803f 77be 7f3f 77be 7f3f
00000020: 77be 7f3f c520 803f c520 803f c520 803f
00000030: c520 803f c520 803f c420 803f c520 803f
00000040: c520 803f 77be 7f3f 77be 7f3f 77be 7f3f
00000050: 77be 7f3f 77be 7f3f 77be 7f3f c520 803f
00000060: 77be 7f3f c520 803f 77be 7f3f 77be 7f3f
00000070: c520 803f c520 803f 77be 7f3f 77be 7f3f
00000080: 77be 7f3f c520 803f c520 803f 77be 7f3f
00000090: c520 803f 77be 7f3f 77be 7f3f c520 803f
000000a0: 77be 7f3f 77be 7f3f c420 803f 77be 7f3f
000000b0: 77be 7f3f c520 803f 77be 7f3f 77be 7f3f
000000c0: 77be 7f3f 77be 7f3f c420 803f 77be 7f3f
000000d0: c420 803f c520 803f c520 803f 77be 7f3f
000000e0: 77be 7f3f 77be 7f3f c520 803f 77be 7f3f
000000f0: c520 803f 77be 7f3f 77be 7f3f c520 803f

experts.0.net.7.bias f4 [64]
-0.0009999993 -0.0009999855 0.0009999992 0.0009999899 0.0009999996 -0.0009999989 -0.0009999982 0.0009999988
-0.0009999936 -0.000999999 0.0009999949 0.0009999988 -0.000999988 -0.0009999954 -0.0009999984 -0.0009999967
-0.0009999848 0.0009999985 -0.0009999992 -0.0009999995 0.0009999982 -0.0009999871 -0.0009999982 -0.0009999991
-0.0009999989 0.0009999991 -0.000999997 -0.0009999982 -0.000999999 -0.0009999987 -0.0009999981 -0.0009999692
0.0009999989 0.0009999995 -0.0009999985 0.0009999984 0.0009999968 -0.0009999992 0.0009999988 0.0009999989
-0.0009999982 -0.000999999 0.0009999988 -0.0009999989 -0.0009999991 -0.0009999993 -0.0009999992 -0.0009999987
-0.0009999991 -0.0009999991 0.0009999409 -0.0009999991 -0.000999999 -0.0009999969 0.000999999 -0.0009999987
-0.0009999992 -0.0009999984 0.0009999993 -0.0009999992 -0.0009999975 0.0009999977 0.0009999559 -0.0009999921
00000000: 6912 83ba f211 83ba 6812 833a 1812 833a
00000010: 6b12 833a 6512 83ba 5f12 83ba 6412 833a
00000020: 3812 83ba 6612 83ba 4312 833a 6412 833a
00000030: 0812 83ba 4712 83ba 6112 83ba 5212 83ba
00000040: ec11 83ba 6212 833a 6812 83ba 6a12 83ba
00000050: 5f12 833a 0012 83ba 5f12 83ba 6712 83ba
00000060: 6512 83ba 6712 833a 5512 83ba 5f12 83ba
00000070: 6612 83ba 6312 83ba 5e12 83ba 6611 83ba
00000080: 6512 833a 6a12 833a 6212 83ba 6112 833a
00000090: 5312 833a 6812 83ba 6412 833a 6512 833a
000000a0: 5f12 83ba 6612 83ba 6412 833a 6512 83ba
000000b0: 6712 83ba 6912 83ba 6812 83ba 6312 83ba
000000c0: 6712 83ba 6712 83ba 7310 833a 6712 83ba
000000d0: 6612 83ba 5412 83ba 6612 833a 6312 83ba
000000e0: 6812 83ba 6112 83ba 6912 833a 6812 83ba
000000f0: 5912 83ba 5b12 833a f410 833a 2b12 83ba

experts.0.net.9.weight f4 [2, 64]
-0.06718293 0.07647769 0.08860321 0.0061457134 0.11748439 -0.09064573 -0.06969244 0.011516365
-0.008031117 -0.052667897 -0.06672384 0.09538123 0.04066791 -0.073375896 -0.06896332 0.0031003081
-0.023522092 0.062696666 -0.08398259 -0.11318343 0.0442891 -0.060475122 -0.07337372 -0.057066586
-0.08648077 0.01977673 -0.06866002 0.01340696 -0.052557047 -0.08237815 -0.023655254 -0.07493098
0.072095245 0.11170256 -0.09374493 0.12097712 0.0010752655 -0.08300069 0.12395033 0.0962619
-0.06285064 -0.061991487 0.06420687 -0.0706598 -0.052720014 -0.10661213 -0.017375486 -0.04111569
-0.03992245 -0.08747101 0.038559783 -0.062293816 -0.09773576 -0.023073463 0.09478183 -0.003211523
-0.06943466 -0.040957604 0.06301433 -0.08514054 -0.108688906 -0.025432942 -0.014043284 0.06678292
-0.07371439 -0.07505173 0.044017326 0.005211544 0.11448094 -0.012213123 0.0041539855 0.101064175
-0.006527784 -0.095316336 0.101497546 -0.004678371 -0.0963071 0.04364538 -0.035462033 -0.049957555
-0.060225915 0.0689653 -0.055201743 -0.116416946 0.052470434 0.069624886 0.0316461 -0.08928658
-0.02276398 0.1132403 0.034955133 -0.06833631 -0.072341815 -0.06350477 -0.037711848 0.10687795
0.07603215 0.066202745 -0.12410161 -0.039264124 0.035242926 -0.052369554 -0.011124341 -0.009258079
-0.023103831 -0.030120956 0.042400423 0.00083262974 -0.06930697 -0.088721976 -0.11530444 -0.02438672
-0.062144477 -0.0047349352 -0.052514326 -0.037085835 -0.0003308683 -0.11741035 -0.013651507 -0.07831098
-0.07400839 -0.01606916 0.077549666 -0.0543135 -0.03028795 0.1223945 0.019091846 -0.099000484
00000000: 3497 89bd 56a0 9c3d 9a75 b53d fb61 c93b
00000010: a89b f03d 78a4 b9bd e9ba 8ebd 23af 3c3c
00000020: f294 03bc 4bba 57bd 82a6 88bd 3c57 c33d
00000030: 6593 263d 1a46 96bd a43c 8dbd 8a2e 4b3b
00000040: 67b1 c0bc 1c67 803d 10ff abbd b7cc e7bd
00000050: 7d68 353d c3b4 77bd f644 96bd a7be 69bd
00000060: d41c b1bd cf02 a23c a09d 8cbd dea8 5b3c
00000070: 0f46 57bd e0b5 a8bd aac8 c1bc 6a75 99bd
00000080: aca6 933d 50c4 e43d 58fd bfbd dac2 f73d
00000090: ecef 8c3a 44fc a9bd acd9 fd3d f624 c53d
000000a0: d6b7 80bd c9ea 7dbd e47e 833d 16b6 90bd
000000b0: f1f0 57bd 7657 dabd 0957 8ebc ed68 28bd
000000c0: b985 23bd 0024 b3bd ddf0 1d3d cd27 7fbd
000000d0: b029 c8bd 8f04 bdbc fa1c c23d 6a78 52bb
000000e0: c233 8ebd 29c3 27bd a80d 813d 2a5e aebd
000000f0: 4a98 debd bf58 d0bc cd15 66bc 7cc5 883d
00000100: 92f7 96bd b9b4 99bd 834b 343d 9ac5 aa3b
00000110: fc74 ea3d 8d19 48bc 281e 883b bcfa ce3d
00000120: 05e7 d5bb 3635 c3bd f2dd cf3d 054d 99bb
00000130: a83c c5bd 7fc5 323d a340 11bd 4ba0 4cbd
00000140: 73af 76bd ae3d 8d3d 391b 62bd 026c eebd
00000150: 3deb 563d 7e97 8e3d 579f 013d e2db b6bd
00000160: 877b babc 88ea e73d 1d2d 0f3d e8f3 8bbd
00000170: f227 94bd ca0e 82bd bd77 1abd d4e2 da3d
00000180: beb6 9b3d 4e95 873d fc28 febd 6bd3 20bd
00000190: e35a 103d 7581 56bd de42 36bc 33af 17bc
000001a0: 3f44 bdbc 39c0 f6bc 11ac 2d3d d644 5a3a
000001b0: d0f0 8dbd deb3 b5bd bc24 ecbd a9c6 c7bc
000001c0: 358b 7ebd 8427 9bbb 4319 57bd 51e7 17bd
000001d0: 6478 adb9 d674 f0bd 92aa 5fbc 8261 a0bd
000001e0: b691 97bd 79a3 83bc 5cd2 9e3d d577 5ebd
000001f0: 6f1e f8bc f8a9 fa3d 8166 9c3c c4c0 cabd

experts.0.net.9.bias f4 [2]
0.015548272 0.007878182
00000000: 2ebe 7e3c 7e13 013c
