checkpoints/checkpoint_6000.pt (torch, 38432 bytes, 8 tensors)

net.0.weight f4 [64, 3]
0.09264932 -0.018225912 -0.007283279 0.7899207 -0.23586029 0.06899066 0.087836854 -0.008514727
0.038757335 0.24702452 -0.02809562 0.039354566 -0.18875115 0.43755245 0.2810012 -0.521622
-1.4319024 0.5480023 -0.22182913 -0.075885385 -0.12619968 1.285681 -0.9015384 -0.55324364
0.05233147 -0.025163326 -0.0484615 -0.002453475 0.012146162 0.024694776 0.009972854 0.0071134917
7.3613715e-05 0.7664381 -0.07109817 0.012938758 0.6520023 0.06576066 0.28334254 0.89585453
0.025235923 0.33238208 -0.80599004 0.9079892 0.02109254 0.72892344 0.15378766 0.8051986
-0.4630391 -0.047466997 -0.14687079 0.39965805 0.86429656 0.92578727 -0.8082074 0.2713149
1.230608 0.06675928 -0.023349399 -0.007652842 -1.3899366 0.10907495 1.1479579 -0.049847335
0.22532013 0.07430621 -0.2124525 0.7974147 -0.20370698 -0.091499805 0.0057203793 -0.0023215176
0.37291142 -0.122897886 -0.20214143 -0.90947706 0.8202806 -0.7017007 0.01026528 -0.021314103
-0.07748335 0.6905705 0.097111546 0.029238436 -0.9788794 -1.5629584 1.1144053 -1.0381495
0.081525825 -0.023975857 0.6963306 -0.68352693 0.1926335 -1.0104718 0.65225977 -0.6383605
0.23351653 0.13313478 -0.18995711 0.06988118 0.0019764183 0.040523462 1.117814 -0.5145686
-0.539578 0.74406224 0.14962852 -0.12465643 -0.20471609 -0.51599425 -0.11773522 1.3730567
-0.06814671 -0.70635563 0.64026076 0.39618188 0.32606766 -0.44660404 -0.6961038 -0.9935348
0.012226942 0.011241542 0.05180765 -0.1897328 0.029934108 0.26229355 0.39213085 -0.029369188
-0.014305653 -0.83291364 -0.07550432 -0.04940257 -0.29643014 0.032205813 -0.010592162 0.1257687
-0.61536384 -0.9707581 0.4538499 0.1701399 0.07729095 -1.2738401 0.68648237 1.6052251
0.36745626 -0.17554308 0.20962127 0.7270699 -0.42492703 -0.04374488 -0.45480064 0.35994267
-1.034284 0.5353327 -0.5162613 0.3066109 -0.32927004 0.021261148 -0.011122119 0.22013356
-0.012858414 0.0016431663 -0.10535057 0.24088763 -1.1103344 1.0776755 -0.17706479 0.97226435
-0.92256105 0.08124198 -0.05299647 0.623643 -0.018517269 0.0060821194 -0.67935234 0.7076785
-0.07934583 0.67276263 -0.6921861 0.3932401 0.7326835 0.038114563 -0.12801178 -0.26587152
-2.371974 0.22339673 0.8853481 0.3131698 1.0719353 0.3356249 -0.5794608 -0.6759903
00000000: edbe bd3d 824e 95bc 93a8 eebb 3e38 4a3f
00000010: 5c85 71be fa4a 8d3d cfe3 b33d 5a81 0bbc
00000020: 03c0 1e3d fff3 7c3e c928 e6bc 4132 213d
00000030: fb47 41be e006 e03e 64df 8f3e 0589 05bf
00000040: 9448 b7bf e149 0c3f 2d27 63be cc69 9bbd
00000050: 7d3a 01be 3291 a43f 38cb 66bf 60a1 0dbf
00000060: 8659 563d 5223 cebc 917f 46bd 7bca 20bb
00000070: b200 473c b34c ca3c 2e65 233c 4b18 e93b
00000080: 1061 9a38 4a35 443f eb9b 91bd 16fd 533c
00000090: 9fe9 263f 86ad 863d 4612 913e b956 653f
000000a0: 91bb ce3c fc2d aa3e 5d55 4ebf fb71 683f
000000b0: 43ca ac3c ba9a 3a3f 837a 1d3e 7f21 4e3f
000000c0: 7613 edbe c16c 42bd 4c65 16be fb9f cc3e
000000d0: 8a42 5d3f 6500 6d3f aee6 4ebf c9e9 8a3e
000000e0: 9084 9d3f 17b9 883d 3d47 bfbc b1c4 fabb
000000f0: 71e9 b1bf b062 df3d 49f0 923f b82c 4cbd
00000100: 52ba 663e db2d 983d 268d 59be 5f23 4c3f
00000110: 9098 50be 4064 bbbd 0572 bb3b 9a24 18bb
00000120: 3fee be3e e3b1 fbbd 2afe 4ebe 7dd3 68bf
00000130: e9fd 513f a8a2 33bf b42f 283c ea9a aebc
00000140: 97af 9ebd 3ac9 303f 6be2 c63d 7285 ef3c
00000150: d797 7abf 050f c8bf d5a4 8e3f 15e2 84bf
00000160: 03f7 a63d 0469 c4bc b942 323f 9ffb 2ebf
00000170: b741 453e 2457 81bf 7ffa 263f 986b 23bf
00000180: f51e 6f3e 7c54 083e 1e84 42be dd1d 8f3d
00000190: cc86 013b eefb 253d 8714 8f3f c5ba 03bf
000001a0: c921 0abf dd7a 3e3f 3838 193e df4b ffbd
000001b0: 18a1 51be 3318 04bf 2a1f f1bd 52c0 af3f
000001c0: 8190 8bbd b9d3 34bf 21e8 233f 5ad8 ca3e
000001d0: 57f2 a63e 49a9 e4be dc33 32bf 4c58 7ebf
000001e0: 8353 483c 722e 383c 4234 543d 5149 42be
000001f0: 6038 f53c 574b 863e 60c5 c83e a797 f0bc
00000200: 4262 6abc d439 55bf 02a2 9abd 595a 4abd
00000210: b1c5 97be 3eea 033d bf8a 2dbc 83c9 003e
00000220: 7c88 1dbf 9a83 78bf 045f e83e 2739 2e3e
00000230: b84a 9e3d 310d a3bf 4fbd 2f3f 0478 cd3f
00000240: 3a23 bc3e 91c1 33be f5a6 563e 4121 3a3f
00000250: 0990 d9be d52d 33bd a1db e8be 684a b83e
00000260: 6b63 84bf 900b 093f b329 04bf 1bfc 9c3e
00000270: 1596 a8be dc2b ae3c 8c39 36bc b16a 613e
00000280: 19ac 52bc 835f d73a 0ac2 d7bd 3fab 763e
00000290: 701f 8ebf 45f1 893f 7950 35be 51e6 783f
000002a0: f62c 6cbf 3262 a63d d412 59bd 11a7 1f3f
000002b0: 87b1 97bc 844c c73b 09ea 2dbf 6b2a 353f
000002c0: 1180 a2bd 2c3a 2c3f 1c33 31bf c456 c93e
000002d0: 2591 3b3f 041e 1c3d 8515 03be 5020 88be
000002e0: 6cce 17c0 1dc2 643e 2ca6 623f cb57 a03e
000002f0: 2d35 893f 07d7 ab3e 8b57 14bf b30d 2dbf

net.0.bias f4 [64]
-0.06079605 -0.58223325 -0.033102963 -0.22889532 -0.331768 -0.19930513 0.28180572 -0.6595515
-0.061965715 0.012027521 0.03375629 -0.66570777 -0.69050574 -0.89817053 -0.41223907 -0.74076927
0.510296 -0.79807043 -0.014286828 -0.018855171 0.62189674 -0.20128484 -0.6773759 0.058077313
-0.20587397 -0.10992489 -0.023714477 -0.67914015 0.076511614 0.87892413 0.09933377 0.8415643
-0.15972112 -0.027600123 -0.68779933 -0.68979126 0.11651786 -0.8011935 -0.9402678 0.3032224
0.025489973 0.03108917 -0.32824516 0.74020773 0.27909243 -0.057083994 -0.614124 -0.059154894
-0.30483884 -0.41200146 -0.2998553 0.0010037792 0.290825 -0.2071712 -0.47911012 -0.6456395
0.7711767 -0.5742566 -0.2238248 0.09756351 -0.64471143 -0.6433781 -0.900463 0.35173613
00000000: 4705 79bd 3d0d 15bf f996 07bd 8963 6abe
00000010: 7fdd a9be a516 4cbe d748 903e 5ed8 28bf
00000020: c3cf 7dbd 140f 453c 0944 0a3d d36b 2abf
00000030: fcc4 30bf 81ee 65bf 0011 d3be 0ea3 3dbf
00000040: c2a2 023f 584e 4cbf 4d13 6abc 2976 9abc
00000050: a034 1f3f 9d1d 4ebe 8268 2dbf 7ae2 6d3d
00000060: a0d0 52be 4d20 e1bd dd44 c2bc 21dc 2dbf
00000070: 1fb2 9c3d 2c01 613f 816f cb3d c270 573f
00000080: ef8d 23be a719 e2bc 9e13 30bf 2996 30bf
00000090: eaa0 ee3d 041b 4dbf 64b5 70bf f73f 9b3e
000000a0: 59d0 d03c b7ae fe3c c00f a8be 417e 3d3f
000000b0: 34e5 8e3e e8d0 69bd 3b37 1dbf 674c 72bd
000000c0: d613 9cbe dbf1 d2be a286 99be 3e91 833a
000000d0: 04e7 943e b024 54be ec4d f5be a148 25bf
000000e0: d66b 453f 7b02 13bf 5432 65be 61cf c73d
000000f0: cf0b 25bf 6db4 24bf be84 66bf c216 b43e

net.2.weight f4 [64, 64]
0.073937334 -0.15911813 -0.24812627 -0.07341431 0.024498746 0.11437779 0.08885492 -0.14112243
-0.1418527 -0.15732919 0.09589027 -0.05082903 0.023655301 0.03845973 -0.010934381 -0.06738103
0.017864421 0.052814376 0.011198981 0.109535955 -0.011904256 -0.03657203 0.07412936 0.119869225
0.07512852 0.08446525 0.0100503955 0.051519476 -0.02068789 0.03502933 -0.09568182 -0.044567045
0.15574443 -0.280068 -0.028585931 0.010032876 -0.08042701 -0.04116939 -0.07082904 -0.0018118945
-0.15958399 0.068566486 -0.052198373 0.05383857 -0.09142561 -0.0076719397 0.03496743 -0.021366918
0.08693339 -0.030329887 -0.03950286 0.060388412 0.0077408175 0.0029889303 -0.08334112 0.10622602
0.10015288 0.23128244 -0.07795679 0.09448817 -0.031927183 -0.08633954 -0.0349894 0.05841029
-0.107305944 -1.0827792 0.03785106 -0.09177378 1.0696027 0.20775 -0.28145158 -0.47997016
0.020736936 0.056980655 0.026853189 -0.088751145 0.1546171 0.0097143985 2.128449 -0.12735236
-0.22749035 0.72218245 0.4679701 -0.14625868 0.02293741 0.64506024 1.7619292 -0.043193143
-0.098818906 1.1979367 -0.012894705 0.32772097 -0.07492021 -0.005700813 -2.0379589 0.34982568
0.16491897 0.04880177 -0.2747126 0.3411165 0.070213735 -0.3047651 0.8775128 0.059291698
0.017122315 0.16567428 -0.015249302 -0.26005098 -0.036183346 -0.07412617 0.58638585 1.3461666
-0.50447536 -1.3672376 0.6256453 -1.585127 -0.06789519 0.054974534 0.68209124 -1.1265875
0.21093531 -0.012060038 1.7835748 -2.1286025 0.18072222 0.18721473 0.19854708 -1.0711868
-0.0594122 -0.037842974 0.007211459 0.15674968 -0.118584774 -0.080849946 0.052332874 0.006945128
-0.23762849 0.15675694 0.051803764 -0.051561847 0.081858724 0.042617295 -0.12409156 0.080083914
0.048839055 -0.023158778 0.071427725 0.09425875 0.012583569 0.0036516325 0.09904204 0.09471192
-0.17583144 -0.062633865 -0.11882712 -0.012292858 -0.06489729 0.052934855 -0.0063094664 0.10740993
-0.06094929 -0.042745944 -0.15850948 -0.04063032 0.020036938 -0.07492529 0.03768256 0.05307313
0.01803913 -0.075483486 0.06710185 -0.057417836 -0.044704534 -0.02644643 -0.089355774 -0.09903665
0.08049525 0.07064866 -0.05635272 0.08991555 0.032884102 -0.057983957 -0.06282113 -0.008709833
-0.11491866 0.13893847 -0.036063418 -0.08134224 0.007593789 0.0045826416 -0.014898308 -0.13543993
-0.028904678 0.112765506 0.035437934 -0.014989294 -0.07694433 0.14604239 -0.080936246 0.03581469
0.065534934 0.11437632 -0.032850213 0.2038559 0.13967279 0.105075926 -0.040308055 0.055011895
-0.10783541 -0.010231209 -0.053895127 0.053334076 -0.21734595 0.015281254 0.0961271 -0.030587843
-0.0027681447 0.00034079002 0.14081223 -0.03525075 -0.15190762 -0.10409621 -0.03149853 -0.12425719
-0.003903374 0.03235005 0.124654785 -0.014303191 -0.09278246 -0.1424116 -0.12097122 -0.0052741836
-0.054580133 -0.07640258 0.1721843 -0.0041855443 -0.11562685 -0.014435794 -0.04143104 0.099083096
0.08069842 -0.0030234416 0.06631333 -0.09630307 -0.07578579 0.09623088 0.0020872257 -0.007939396
-0.037230007 -0.009782255 -0.038976647 0.0626694 0.08211234 0.10633115 -0.0045192535 -0.0075997114
00000000: 756c 973d ddef 22be d014 7ebe 3e5a 96bd
00000010: 98b1 c83c e73e ea3d 91f9 b53d 6682 10be
00000020: d641 11be e71a 21be 1e62 c43d 1a32 50bd
00000030: c3c8 c13c f387 1d3d 1e26 33bc 11ff 89bd
00000040: 6858 923c e353 583d ee7b 373c 6354 e03d
00000050: 120a 43bc 8ecc 15bd 22d1 973d ff7d f53d
00000060: fbdc 993d 1efc ac3d 6aaa 243c 1606 533d
00000070: a679 a9bc ea7a 0f3d d4f4 c3bd ef8b 36bd
00000080: 787b 1f3e 1365 8fbe 0b2d eabc ef60 243c
00000090: ebb6 a4bd 3ca1 28bd d10e 91bd 177d edba
000000a0: fc69 23be 966c 8c3d f6cd 55bd d585 5c3d
000000b0: 5a3d bbbd e564 fbbb 023a 0f3d ad09 afbc
000000c0: 220a b23d 6276 f8bc c0cd 21bd d759 773d
000000d0: afa6 fd3b eee1 433b c0ae aabd 078d d93d
000000e0: f41c cd3d 4ed5 6c3e cfa7 9fbd 0483 c13d
000000f0: 14c6 02bd c9d2 b0bd 0c51 0fbd a13f 6f3d
00000100: 38c3 dbbd 8298 8abf b709 1b3d e4f3 bbbd
00000110: bee8 883f 6abc 543e 6c1a 90be a6be f5be
00000120: 82e0 a93c 8c64 693d 38fb db3c 29c3 b5bd
00000130: f253 1e3e 2429 1f3c 8238 0840 a868 02be
00000140: 3bf3 68be f3e0 383f c799 ef3e d6c4 15be
00000150: 3ce7 bb3c ab22 253f e586 e13f 4beb 30bd
00000160: 9161 cabd fd55 993f 5044 53bc 0bcb a73e
00000170: c46f 99bd e3cd babb eb6d 02c0 5a1c b33e
00000180: 85e0 283e 5de4 473d 21a7 8cbe d2a6 ae3e
00000190: 38cc 8f3d 2c0a 9cbe aea4 603f dadb 723d
000001a0: 1944 8c3c 85a6 293e 35d8 79bc 6725 85be
000001b0: fd34 14bd 76cf 97bd 621d 163f 304f ac3f
000001c0: 4c25 01bf a401 afbf 4a2a 203f 71e5 cabf
000001d0: a20c 8bbd fa2c 613d 889d 2e3f 0534 90bf
000001e0: 6dff 573e 7797 45bc 2e4c e43f 063b 08c0
000001f0: 3f0f 393e 38b5 3f3e ed4f 4b3e a61c 89bf
00000200: 355a 73bd 3c01 1bbd 1a4e ec3b fd82 203e
00000210: 93dc f2bd a894 a5bd ff5a 563d f593 e33b
00000220: e254 73be e484 203e 2f30 543d 8432 53bd
00000230: 8ca5 a73d 798f 2e3d b723 febd 0903 a43d
00000240: 760b 483d 7ab7 bdbc b348 923d bb0a c13d
00000250: 502b 4e3c 3a50 6f3b 8ed6 ca3d 53f8 c13d
00000260: 280d 34be 2f46 80bd a25b f3bd fc67 49bc
00000270: dfe8 84bd 38d2 583d a4bf cebb bdf9 db3d
00000280: f6a5 79bd 5f16 2fbd 4f50 22be fa6b 26bd
00000290: 8124 a43c 6e72 99bd 0759 1a3d 3663 593d
000002a0: ccc6 933c 1697 9abd b26c 893d f72e 6bbd
000002b0: 1a1c 37bd 2fa6 d8bc 2900 b7bd bad3 cabd
000002c0: b2da a43d 3fb0 903d 1cd2 66bd a525 b83d
000002d0: 7bb1 063d 9680 6dbd 5da8 80bd b0b3 0ebc
000002e0: 795a ebbd e345 0e3e 3cb7 13bd c396 a6bd
000002f0: 52d5 f83b fc29 963b 0818 74bc c4b0 0abe
00000300: 81c9 ecbc 9af1 e63d 5e27 113d a895 75bc
00000310: fd94 9dbd 238c 153e e7c1 a5bd 6db2 123d
00000320: 2e37 863d 223e ea3d f28d 06bd 9abf 503e
00000330: 6206 0f3e 0c32 d73d 0f1a 25bd 2754 613d
00000340: d0d8 dcbd cda0 27bc 23c1 5cbd d574 5a3d
00000350: f08f 5ebe 3a5e 7a3c 49de c43d 5b93 fabc
00000360: c369 35bb 10ac b239 1531 103e 1763 10bd
00000370: ac8d 1bbe 6530 d5bd 9a04 01bd 8e7a febd
00000380: c0cf 7fbb 7c81 043d 024b ff3d ee57 6abc
00000390: bb04 bebd 59d4 11be c2bf f7bd 0fd3 acbb
000003a0: 6b8f 5fbd f578 9cbd 1551 303e e426 89bb
000003b0: c5cd ecbd 1c84 6cbc 98b3 29bd 14ec ca3d
000003c0: 3745 a53d ef24 46bb 48cf 873d 8b3a c5bd
000003d0: 9535 9bbd b214 c53d d6c9 083b 3e14 02bc
000003e0: 7e7e 18bd c045 20bc faa5 1fbd d058 803d
000003f0: 842a a83d 25c4 d93d 3f16 94bb 0007 f9bb

net.2.bias f4 [64]
-0.08082278 -0.5405456 -0.08441045 -0.13956775 -0.24920358 -0.63434714 -0.09982079 -0.58147013
0.4793509 0.10034616 -0.18065476 -0.97632754 -0.6457048 -0.8744799 -0.04812749 -0.9710332
-0.15865068 -0.037342366 0.48552048 -0.18650426 -0.1648151 -0.6817405 0.18376641 -0.19018924
-0.055389028 -0.09711796 -0.045513052 -0.03065899 -0.37339157 0.02203712 -0.46841446 -0.22996336
-0.04288552 0.22862439 -0.6449079 -0.12839937 -0.053860042 0.16414158 -0.07736756 -0.82695603
-0.07330737 0.0153431315 -0.086072475 -0.09560892 0.004230833 -0.24271505 -0.07964475 0.08918704
0.06776757 -0.06500411 -0.011366231 -0.039225463 -0.025685312 -0.16778985 -0.53512585 0.098895736
0.071683764 0.058964822 -0.5562283 -0.4027933 -0.10883936 -0.74824965 -0.3448179 -0.24046114
00000000: 6a86 a5bd 3261 0abf 63df acbd d9ea 0ebe
00000010: 392f 7fbe 9364 22bf d86e ccbd 3adb 14bf
00000020: 7b6d f53e 4a82 cd3d 90fd 38be 9af0 79bf
00000030: e94c 25bf eadd 5fbf 5521 45bd a295 78bf
00000040: 5375 22be 4ff4 18bd 2496 f83e f9fa 3ebe
00000050: 4ac5 28be 8c86 2ebf 432d 3c3e f8c0 42be
00000060: 9bdf 62bd c8e5 c6bd e56b 3abd 9028 fbbc
00000070: 2e2d bfbe 3187 b43c 05d4 efbe 847b 6bbe
00000080: baa8 2fbd 831c 6a3e af18 25bf 207b 03be
00000090: 599c 5cbd bb14 283e e272 9ebd 64b3 53bf
000000a0: 2d22 96bd c261 7b3c c446 b0bd 9cce c3bd
000000b0: cda2 8a3b 4b8a 78be c91c a3bd b2a7 b63d
000000c0: b9c9 8a3d e020 85bd 6e39 3abc e1aa 20bd
000000d0: 016a d2bc 1ad1 2bbe 02fe 08bf d989 ca3d
000000e0: f0ce 923d 1985 713d fa64 0ebf ec3a cebe
000000f0: 2ce7 debd 4a8d 3fbf f98b b0be 723b 76be

net.4.weight f4 [64, 64]
0.06687561 0.15972312 0.034835897 -0.05685555 -0.057315078 -0.5344925 0.018922642 -1.5256333
-0.36161914 -0.018075194 -0.014354761 0.7615053 -0.01402293 0.20653853 -0.0018172644 0.58015454
0.012939938 -0.013772742 -1.0969836 -0.014600271 -0.041669685 0.34754544 -0.00995266 0.05444556
0.020720016 0.0023959791 -0.035175443 -0.05631872 -0.3324354 -0.040641356 0.5786578 0.35545674
0.0044906656 -0.50633276 0.06718435 0.008863314 0.009255485 -0.0015462941 -0.06468531 0.5399936
-1.0665838 -0.024714848 0.076132916 0.022317793 -0.023832142 -0.041286424 -0.037710864 -0.01064574
0.0024974383 -0.05379003 -3.3716636 0.047714107 0.02041324 -0.5245285 0.2754134 0.07057059
-0.023666209 -0.0035307205 0.51989734 -0.38422135 0.0063475217 0.981162 0.13770686 -0.02740043
0.061636142 0.03636672 -0.002575363 -0.0025293487 0.049557757 -0.020148216 0.044621985 -0.0037653889
-0.04727852 -0.005802425 0.31478816 -0.026879406 -0.066817485 -0.022978345 0.039517947 -0.013665108
0.058325462 -0.10436725 -0.045935947 -0.06518834 0.004724603 -0.011637092 0.047194317 -0.07901813
0.07708349 -0.075904965 -0.11156811 -0.038572922 -0.10680437 0.17753962 0.026834259 -0.14370996
-0.11590387 0.025088368 -0.13763894 -0.04115367 0.001208723 -0.0897278 0.12286468 0.14412543
0.03963956 0.16100602 0.08468997 -0.050217837 0.13466205 0.11109079 0.033567004 -0.03172382
-0.01149755 0.09310312 -0.085589714 0.107439585 0.020754606 -0.044999722 -0.055054978 -0.047911666
0.07948149 0.28324306 0.16395466 -0.006344462 -0.015688328 0.14534533 -0.058637675 -0.0010039678
-0.017275825 -0.047266044 -0.08338812 -0.03690889 0.089498356 -0.16883788 -0.062072206 0.0022464679
-0.10926163 -0.11359016 -0.26918694 -0.011553968 0.07087247 -0.2351278 -0.04031453 0.1599984
-0.04415187 -0.0055275992 -0.15243101 -0.041585837 0.02002434 0.062252644 -0.004925687 -0.10140258
-0.06454859 -0.121418424 0.057967827 -0.06698842 0.036020216 -0.09296332 0.08596589 0.04954995
-0.00018852553 -0.050605416 -0.006828283 -0.15756735 0.0071351654 -0.07533622 0.06946666 0.28790668
0.021277238 -0.106474444 -0.2534072 -0.17994985 -0.27568263 -0.124946035 0.0067057647 -0.102769904
-0.08124444 0.21969637 -0.12843098 -0.06421352 -0.28360662 -0.05951659 0.1723361 -0.04618405
0.17637682 -0.17515214 0.07112734 -0.17001787 -0.27579048 0.09508496 0.10855864 0.018800309
-0.019969396 -0.28164884 -0.055472396 0.28073058 -0.0055544884 0.019515524 0.043894205 -0.057969697
-0.023079515 0.036692545 0.06192921 0.03904604 -0.028981768 -0.029230751 0.15079977 0.28678378
0.046709172 0.09587328 -0.03556382 0.23885646 0.15517172 -0.15933494 0.0034311267 0.001812808
-0.08827008 0.13388205 0.095565125 -0.01524578 -0.097078964 0.20939544 -0.22463098 0.15338252
0.07960273 -0.12729758 -0.09037454 -0.02479196 0.12212393 0.0060002604 0.03368935 0.07233748
-0.21108782 0.10978727 -0.061586533 0.03310197 0.065023914 -0.12547863 0.055535715 0.033182118
-0.024272569 -0.15896367 -0.013571797 0.030943416 -0.0729359 -0.114098996 0.16907807 0.04939103
-0.040575735 0.05460889 0.20572701 -0.1265505 0.03081642 -0.010618377 -0.15145458 0.15099429
00000000: 14f6 883d 758e 233e 16b0 0e3d 5de1 68bd
00000010: 37c3 6abd 80d4 08bf a803 9b3c f447 c3bf
00000020: 2526 b9be 6e12 94bc 3b30 6bbc 03f2 423f
00000030: 6ec0 65bc d67e 533e 4631 eeba 0285 143f
00000040: 0902 543c 11a7 61bc f569 8cbf fa35 6fbc
00000050: d5ad 2abd 7af1 b13e 7b10 23bc 4f02 5f3d
00000060: 06bd a93c dc05 1d3b 2014 10bd 75ae 66bd
00000070: f934 aabe 8d77 26bd eb22 143f 6dfe b53e
00000080: 6f26 933b 069f 01bf f397 893d 6f37 113c
00000090: 51a4 173c 05ad caba bb79 84bd 053d 0a3f
000000a0: d185 88bf cb76 cabc 93eb 9b3d ced3 b63c
000000b0: a03b c3bc f41b 29bd b576 1abd 786b 2ebc
000000c0: 10ac 233b ef52 5cbd 56c9 57c0 de6f 433d
000000d0: ab39 a73c 8047 06bf fc02 8d3e 5087 903d
000000e0: a3df c1bc a963 67bb fe17 053f a9b8 c4be
000000f0: dffe cf3b 6f2d 7b3f 0703 0d3e de76 e0bc
00000100: 2e76 7c3d 45f5 143d 6cc7 28bb 6ec3 25bb
00000110: 13fd 4a3d df0d a5bc 8bc5 363d bec4 76bb
00000120: 1fa7 41bd 4522 bebb ea2b a13e 3332 dcbc
00000130: 9bd7 88bd 153d bcbc 92dd 213d 9ee3 5fbc
00000140: aee6 6e3d 7fbe d5bd 5527 3cbd 7781 85bd
00000150: d8d0 9a3b 80a9 3ebc d44e 413d 42d4 a1bd
00000160: f3dd 9d3d 1074 9bbd d27d e4bd a4fe 1dbd
00000170: 40bc dabd f2cc 353e 85d3 db3c b428 13be
00000180: 025f edbd 1f86 cd3c 39f1 0cbe c090 28bd
00000190: 046e 9e3a 35c3 b7bd 7aa0 fb3d 9e95 133e
000001a0: 175d 223d c3de 243e ef71 ad3d 38b1 4dbd
000001b0: d9e4 093e 9183 e33d 8e7d 093d d6f0 01bd
000001c0: 3860 3cbc d9ac be3d a949 afbd 4909 dc3d
000001d0: 9005 aa3c a151 38bd 5481 61bd 063f 44bd
000001e0: 31c7 a23d 3c05 913e bbe3 273e 34e5 cfbb
000001f0: cf84 80bc 68d5 143e 0f2e 70bd 9297 83ba
00000200: 0886 8dbc 0a9a 41bd 64c7 aabd c72d 17bd
00000210: ea4a b73d d6e3 2cbe 6d3f 7ebd 7a39 133b
00000220: 90c4 dfbd f5a1 e8bd dfd2 89be db4c 3dbc
00000230: 9625 913d 58c5 70be d920 25bd 9fd6 233e
00000240: 97d8 34bd dd20 b5bb e016 1cbe e955 2abd
00000250: 160a a43c a1fc 7e3d a867 a1bb 28ac cfbd
00000260: 0d32 84bd 39aa f8bd ac6f 6d3d 3a31 89bd
00000270: ef89 133d 8e63 bebd e20e b03d e3f4 4a3d
00000280: f0ae 45b9 a047 4fbd cabf dfbb 5659 21be
00000290: 1bce e93b e049 9abd 8944 8e3d 8168 933e
000002a0: 9a4d ae3c 460f dabd 97be 81be c644 38be
000002b0: 4626 8dbe b5e3 ffbd 08bc db3b 0779 d2bd
000002c0: 7c63 a6bd 16f8 603e 6983 03be 6182 83bd
000002d0: e334 91be abc7 73bd e078 303e 7d2b 3dbd
000002e0: 209c 343e 155b 33be 36ab 913d 2a19 2ebe
000002f0: 6934 8dbe e7bb c23d fe53 de3d 1b03 9a3c
00000300: dc96 a3bc 4734 90be 0637 63bd ebbb 8f3e
00000310: 6d02 b6bb 05df 9f3c 69ca 333d a271 6dbd
00000320: 4011 bdbc ec4a 163d 7ca9 7d3d beee 1f3d
00000330: 2c6b edbc 5475 efbc 416b 1a3e 53d5 923e
00000340: 1e52 3f3d 3659 c43d 5eab 11bd ca96 743e
00000350: 56e5 1e3e b328 23be c1dc 603b be9b ed3a
00000360: f2c6 b4bd 6018 093e a6b7 c33d 70c9 79bc
00000370: 56d1 c6bd c26b 563e aa05 66be 4f10 1d3e
00000380: c206 a33d 4c5a 02be 4916 b9bd 8218 cbbc
00000390: 1c1c fa3d d59d c43b d8fd 093d ac25 943d
000003a0: 6827 58be 26d8 e03d 2942 7cbd ee95 073d
000003b0: 422b 853d 787d 00be 6b79 633d f9e9 073d
000003c0: 44d7 c6bc 5fc7 22be 3e5c 5ebc 0c7d fd3c
000003d0: 6b5f 95bd bcac e9bd cd22 2d3e 404e 4a3d
000003e0: be32 26bd 92ad 5f3d 1aaa 523e 7496 01be
000003f0: b872 fc3c b3f8 2dbc e916 1bbe 3f9e 1a3e

net.4.bias f4 [64]
-0.7237885 -0.06874087 -0.34252796 -0.29780337 -0.47381616 -0.16364829 -0.89252144 -0.30639946
-0.25673154 -0.87342477 -0.013428551 -0.22534552 0.091570765 -0.21515353 -0.09825659 -0.08825127
-0.20564185 -0.19229524 -0.22986284 -0.022143517 -0.0077116988 -0.40497667 -0.18039599 -0.16823183
-0.093688354 -0.3021212 -0.22319943 -0.31534302 -0.56257164 -0.5367058 -0.32271916 -0.09167383
-0.033538982 -0.1261878 -0.33503783 -0.057052176 -0.5683546 -0.6483682 -0.33752933 -0.22063749
-0.40328696 -0.13057064 -0.927262 -0.20956641 -0.12917392 -0.646728 -0.17163892 -0.27088425
-0.09053477 -0.505327 -0.25555262 -0.055996384 -0.19874239 -0.19642691 -0.5050011 -0.10689641
-0.14748968 -0.84250844 -0.62223077 -0.22565953 -0.4179532 -0.14040008 -0.1531006 -0.20813257
00000000: 344a 39bf 03c8 8cbd d35f afbe af79 98be
00000010: 0898 f2be 6b93 27be 497c 64bf 64e0 9cbe
00000020: 5172 83be c498 5fbf 6d03 5cbc fac0 66be
00000030: 7489 bb3d 3551 5cbe c03a c9bd 15bd b4bd
00000040: c793 52be 0be9 44be 2a61 6bbe 5266 b5bc
00000050: 6bb2 fcbb 1a59 cfbe bab9 38be f744 2cbe
00000060: aedf bfbd a1af 9abe 648e 64be a474 a1be
00000070: b204 10bf 8d65 09bf 723b a5be 7dbf bbbd
00000080: 2c60 09bd 6037 01be 148a abbe 8baf 69bd
00000090: b07f 11bf 75fb 25bf a5d0 acbe cbee 61be
000000a0: a17b cebe 4fb4 05be 0b61 6dbf 9498 56be
000000b0: 2b46 04be f78f 25bf 1dc2 2fbe 57b1 8abe
000000c0: 4b6a b9bd 1c5d 01bf cbd7 82be 775c 65bd
000000d0: 2083 4bbe 2324 49be c147 01bf 81ec dabd
000000e0: 8907 17be a2ae 57bf 844a 1fbf 4b13 67be
000000f0: f6fd d5be 0ac5 0fbe 67c6 1cbe b420 55be

net.6.weight f4 [2, 64]
-0.26427665 -0.00015722256 -0.001080045 -0.013948311 0.11997034 0.020284105 -0.28661618 -0.0068396265
-0.0010780738 -0.08467777 -0.0063213166 -0.022773301 0.020524982 0.0069572763 0.0029596768 -0.0076015964
0.012009674 -0.0037827855 0.004268303 0.0037335479 0.006538572 0.085938655 -0.013679774 0.0075133434
0.0019940264 0.010441214 -0.012097641 0.00987071 -0.07883076 0.13038144 0.0949459 0.002462523
-0.0023690346 -0.004340722 -0.04556137 0.0037467615 0.0029039988 0.040896017 0.107248604 -0.023489825
-0.10990433 0.014728469 -0.31641224 -0.0026767843 0.020635674 0.113790445 -0.0067935237 -0.013223609
0.004829715 -0.062788315 0.0017069092 0.008633665 -0.011153569 -0.021378 -0.22035511 -0.009304613
0.0061892834 0.28450564 -0.06439145 0.0019025649 -0.0021779502 0.001045958 0.0017992107 0.008507787
-0.013358619 0.0039828536 -0.006391025 0.014720808 0.019426748 0.03519061 -0.11731865 0.009272054
-2.5850488e-05 -0.20628412 0.0019417643 -0.0009258685 0.12959343 -0.0045025093 -0.0021690105 -0.011646964
0.01614885 -0.0011125951 -0.0006043023 0.0005662072 0.0033883601 0.026436921 -0.00014554476 0.0024225495
-0.0074236477 -0.00035965978 0.008961651 0.0039230958 -0.1459449 -0.12574236 0.12031222 -0.002967112
0.005711757 0.0014140229 0.23476104 -0.011745957 -0.046547342 -0.02780299 -0.11005597 0.008241388
0.06484024 -0.0029503596 -0.1106909 0.002218284 0.0074340953 -0.063357994 0.0050673373 -0.0075725135
0.031620834 0.055893667 0.002530189 -0.0032740363 -0.008783188 0.010518797 0.06426027 -0.002120571
0.0027640355 -0.010431304 0.01084866 -0.0036368268 0.0019894862 0.003797884 0.0045709065 0.00038960145
00000000: 454f 87be 1cdc 24b9 4c90 8dba 7587 64bc
00000010: 02b3 f53d da2a a63c 5bbf 92be f21e e0bb
00000020: 274e 8dba 8a6b adbd 0c23 cfbb 138f babc
00000030: 0224 a83c ddf9 e33b 23f7 413b d016 f9bb
00000040: 39c4 443c 9ce8 77bb 1fdd 8b3b 8aae 743b
00000050: 8441 d63b 9b00 b03d 2121 60bc 7e32 f63b
00000060: 36ae 023b a011 2b3c 2f35 46bc c2b8 213c
00000070: 0672 a1bd b682 053e ff72 c23d 4862 213b
00000080: ce41 1bbb 9e3c 8ebb 8f9e 3abd 3a8c 753b
00000090: 0451 3e3b 9582 273d 28a5 db3d bc6d c0bc
000000a0: 8515 e1bd ad4f 713c c900 a2be fd6c 2fbb
000000b0: 250c a93c f70a e93d 359c debb d6a7 58bc
000000c0: 9642 9e3b 2997 80bd 5eba df3a 3774 0d3c
000000d0: 76bd 36bc ea20 afbc c5a4 61be 6072 18bc
000000e0: 79cf ca3b b9aa 913e aadf 83bd 7c5f f93a
000000f0: f1bb 0ebb 8718 893a 7ed3 eb3a 3f64 0b3c
00000100: 1cde 5abc 9982 823b ce6b d1bb 8b2f 713c
00000110: d824 9f3c 0724 103d c344 f0bd d0e9 173c
00000120: 80d9 d8b7 253c 53be cc82 fe3a fcb5 72ba
00000130: 24b4 043e c989 93bb f525 0ebb e8d2 3ebc
00000140: 984a 843c 7fd4 91ba 0a6a 1eba 866d 143a
00000150: 400f 5e3b 3e92 d83c 609d 18b9 a3c3 1e3b
00000160: 1242 f3bb b890 bcb9 e3d3 123c 508d 803b
00000170: 9472 15be 9bc2 00be 4166 f63d e173 42bb
00000180: b129 bb3b bc56 b93a 3365 703e 1d72 40bc
00000190: 6da8 3ebd 19c3 e3bc 0665 e1bd e306 073c
000001a0: f6ca 843d d25a 41bb e9b1 e2bd a160 113b
000001b0: b699 f33b d6c1 81bd e80b a63b d922 f8bb
000001c0: d984 013d c2f0 643d 87d1 253b 3791 56bb
000001d0: 5ce7 0fbc 0857 2c3c e39a 833d 47f9 0abb
000001e0: d224 353b 0fe8 2abc 94be 313c d457 6ebb
000001f0: 0a62 023b ece5 783b 8bc7 953b 6c43 cc39

net.6.bias f4 [2]
-0.14748281 0.011928304
00000000: bc05 17be ef6e 433c
