checkpoints/checkpoint_5000.pt (torch, 38432 bytes, 8 tensors)

net.0.weight f4 [64, 3]
0	0x3e24f454	0.16108829
1	0xbd704a14	-0.058664396
2	0xbdafcf3e	-0.0858445
3	0x3f49094a	0.785298
4	0xbe657688	-0.22408497
5	0x3e28af37	0.16473089
6	0x3e0f6615	0.14003785
7	0xbc88d81a	-0.016704608
8	0xbb0fa3a7	-0.0021917613
9	0x3e87a6b1	0.26494363
10	0xba84c5e5	-0.0010129778
11	0x3e1bdd6d	0.15221186
12	0xbe6c1558	-0.23055017
13	0x3eedecc5	0.46469703
14	0x3eac86a2	0.33696467
15	0xbf03d3aa	-0.5149485
16	0xbfb0421c	-1.3770175
17	0x3f11bcc2	0.56928647
18	0xbe388c43	-0.18022256
19	0xbe37000f	-0.17871116
20	0xbe655e10	-0.22399163
21	0x3f999ebb	1.2001566
22	0xbf585d71	-0.8451758
23	0xbf13a3fb	-0.5767209
24	0x3df658dd	0.12028668
25	0xbc35b4ce	-0.0110904705
26	0x3b15ff9e	0.0022887955
27	0xbc71b57b	-0.014752741
28	0xbca1f252	-0.019768868
29	0xbc27f5f5	-0.010251512
30	0xbd1fd509	-0.039021526
31	0xbc26d22d	-0.010181946
32	0xbc0d206c	-0.008613687
33	0x3f426b88	0.7594533
34	0xbdd2d4f3	-0.10294523
35	0x3d3155a4	0.043294564
36	0x3f22e0c1	0.636242
37	0x3dc338a1	0.095322855
38	0x3eab3df1	0.33445695
39	0x3f5f14c8	0.87141085
40	0x3d191c4c	0.0373805
41	0x3ebb3f81	0.36571887
42	0xbf4cd849	-0.80017525
43	0x3f5da8eb	0.86585873
44	0xbb5fa242	-0.0034123813
45	0x3f33865f	0.7012691
46	0x3e2a7428	0.16645873
47	0x3f59e984	0.8512194
48	0xbed5eeb4	-0.4178368
49	0xbdcf7ef2	-0.10131635
50	0xbe8285c7	-0.2549269
51	0x3ee4ede3	0.44712743
52	0x3f53c713	0.8272564
53	0x3f6067df	0.87658495
54	0xbf463a87	-0.77433056
55	0x3e7accd2	0.24492195
56	0x3f9bc8d9	1.2170669
57	0x3e035d06	0.12828454
58	0xbda4ce05	-0.080471076
59	0xbd3f6544	-0.046727434
60	0xbfaa6751	-1.331278
61	0x3db12d3e	0.086512074
62	0x3f904a0b	1.1272596
63	0xbde87a76	-0.113514826
64	0x3ea09b9b	0.31368718
65	0x3d9baa01	0.07600785
66	0xbe736e09	-0.23772444
67	0x3f402af1	0.75065523
68	0xbe880c72	-0.26571995
69	0xbe4ec890	-0.20193696
70	0x3c128f5e	0.008945314
71	0xbc2109a8	-0.009828962
72	0x3ec2644a	0.3796714
73	0xbe7b164c	-0.24520224
74	0xbea50fbb	-0.32238564
75	0xbf669b6c	-0.90080905
76	0x3f48ddb4	0.7846329
77	0xbf3b4329	-0.73149353
78	0x3917ed50	0.00014488888
79	0xbcf4e9c7	-0.02989663
80	0x3cc154b2	0.023599956
81	0x3f2fcf74	0.68675923
82	0x3ddc1402	0.10746004
83	0x3cad1ea9	0.021132784
84	0xbf6e231f	-0.9302234
85	0xbfbd491d	-1.4787937
86	0x3f905dc4	1.1278615
87	0xbf805ab4	-1.002768
88	0x3da5719e	0.080783114
89	0xbcdc47cc	-0.026889704
90	0x3f378156	0.71681726
91	0xbf2920b5	-0.6606553
92	0x3e65c13c	0.22436994
93	0xbf75381c	-0.9578874
94	0x3f0dd99e	0.5541018
95	0xbf2800b8	-0.65626097
96	0x3e8851b6	0.2662484
97	0x3e365fb2	0.17809942
98	0xbea2d45e	-0.31802648
99	0x3e0f9ca6	0.140246
100	0xbc71260b	-0.014718543
101	0x3bb55807	0.0055341753
102	0x3f854f17	1.0414761
103	0xbf0c4dcb	-0.548062
104	0xbf0dce19	-0.55392605
105	0x3f3da3ca	0.7407805
106	0x3e22f952	0.1591542
107	0xbe209c99	-0.15684737
108	0xbe89b1ef	-0.26893565
109	0xbf203559	-0.625814
110	0xbde059d5	-0.10954634
111	0x3fa972c0	1.3238144
112	0xbd997ea1	-0.07494856
113	0xbf2e059b	-0.67977303
114	0x3f20f1de	0.6286906
115	0x3ed63737	0.41839
116	0x3e8f0b2e	0.27938217
117	0xbefd0a0e	-0.49421734
118	0xbf327c05	-0.6972049
119	0xbf7c2b9d	-0.9850405
120	0x3d810f97	0.06301802
121	0x3d4ea731	0.050452415
122	0x3db36b94	0.08760753
123	0xbe7d38c6	-0.24728689
124	0x3d60ab19	0.05485067
125	0x3ef76dd9	0.48325995
126	0x3edbc603	0.42924508
127	0xbd82f22e	-0.06393848
128	0xbd0b72af	-0.034044918
129	0xbf5144be	-0.8174552
130	0xbdd92675	-0.10603038
131	0xbc067e9d	-0.008208898
132	0xbebe9280	-0.37221146
133	0x3ccdb5ff	0.025111197
134	0x3b7a8794	0.0038227784
135	0x3d895876	0.06706326
136	0xbf27f64d	-0.656102
137	0xbf7d7640	-0.9900856
138	0x3ed50b32	0.41610104
139	0x3e52f326	0.20600566
140	0x3d95a6b8	0.0730719
141	0xbf9e033a	-1.2344735
142	0x3f1e01f2	0.6172172
143	0x3fc3843d	1.5274731
144	0x3eb2836c	0.34865892
145	0xbe43bc46	-0.1911479
146	0x3ec0bb49	0.37642887
147	0x3f3b201f	0.7309589
148	0xbed818d3	-0.4220644
149	0x3d0d2b8d	0.03446536
150	0xbef474f8	-0.4774549
151	0x3eb7d513	0.3590475
152	0xbf8aba5b	-1.0838121
153	0x3f10d1c5	0.5657008
154	0xbf019cfc	-0.50630164
155	0x3ec638e3	0.38715276
156	0xbecd218d	-0.4006466
157	0x3c1946dd	0.009355274
158	0xbca09569	-0.019602494
159	0x3e8fbe1a	0.28074723
160	0x3c13d83f	0.009023725
161	0x3d1afa2a	0.03783623
162	0xbe14b8af	-0.14523576
163	0x3e754e5e	0.23955676
164	0xbf933adf	-1.1502341
165	0x3f83dbf6	1.0301502
166	0xbe30e726	-0.17275676
167	0x3f7941e6	0.9736618
168	0xbf63637b	-0.8882367
169	0x3d9e007b	0.077149354
170	0xbd59c39b	-0.05316506
171	0x3f20bab5	0.6278489
172	0xbcda94ec	-0.02668234
173	0xbc43b583	-0.011945131
174	0xbf2f16b1	-0.68394
175	0x3f2d32b4	0.6765549
176	0xbddcd7c2	-0.1078334
177	0x3f3056e6	0.68882596
178	0xbf28a352	-0.6587421
179	0x3edce7e4	0.43145669
180	0x3f3c0593	0.73446006
181	0x3cfe76f1	0.031062575
182	0xbe22a14c	-0.15881842
183	0xbe8c908a	-0.27454025
184	0xc00d5b98	-2.2087154
185	0x3e890970	0.26765013
186	0x3f59e681	0.85117346
187	0x3e961f88	0.2932093
188	0x3f85eda0	1.0463142
189	0x3ead470f	0.33843276
190	0xbf1c339e	-0.6101626
191	0xbf2f7456	-0.6853689

net.0.bias f4 [64]
0	0xbd5c23d7	-0.053745117
1	0xbf09d518	-0.5384078
2	0xbe15764f	-0.14595912
3	0xbe832e7f	-0.2562141
4	0xbeb34d46	-0.35019892
5	0xbe2f70aa	-0.17132822
6	0x3e9d6e69	0.307483
7	0xbf23c815	-0.63977176
8	0xbe03afef	-0.12860082
9	0xbc08b28a	-0.008343348
10	0x3b383b38	0.002811147
11	0xbf293247	-0.6609234
12	0xbf2fe881	-0.6871415
13	0xbf61393a	-0.87977946
14	0xbeccd158	-0.40003467
15	0xbf3115aa	-0.6917368
16	0x3f089c0b	0.533631
17	0xbf398ab4	-0.7247727
18	0xbc62dfc5	-0.013847296
19	0x3b626361	0.0034544098
20	0x3f17bcc5	0.59272414
21	0xbe7683b1	-0.24073674
22	0xbf2869f6	-0.65786684
23	0x3e31ceda	0.17364064
24	0xbe2fe139	-0.1717576
25	0xbdf3f94f	-0.11912786
26	0xbca19fae	-0.019729462
27	0xbf2b5729	-0.6692987
28	0x3e027b18	0.12742269
29	0x3f54b787	0.8309254
30	0x3e1fdf00	0.15612411
31	0x3f517a90	0.8182764
32	0xbe05d8b3	-0.13070945
33	0xbe09ffbe	-0.13476464
34	0xbf2ae5a2	-0.6675664
35	0xbf285775	-0.6575845
36	0x3d9e94b7	0.07743209
37	0xbf3bb7fc	-0.7332761
38	0xbf697687	-0.91196483
39	0x3e85b34e	0.2611336
40	0x3d18ec98	0.03733501
41	0xbce07d4e	-0.0274035
42	0xbeaf24fa	-0.34207898
43	0x3f36778b	0.7127616
44	0x3eacbe71	0.33739045
45	0xbda59c8c	-0.080864996
46	0xbf218651	-0.63095576
47	0xbd88c09e	-0.06677364
48	0xbe991b51	-0.29903653
49	0xbeb7c0f3	-0.35889396
50	0xbe91b865	-0.28460994
51	0x3d76f52b	0.060292404
52	0x3eb369f0	0.3504176
53	0xbe85ff00	-0.26171112
54	0xbee6ca00	-0.4507599
55	0xbf146fe0	-0.5798321
56	0x3f389532	0.72102654
57	0xbf0da2d9	-0.5532661
58	0xbe69d258	-0.22834146
59	0x3e1cb4b4	0.15303308
60	0xbf1deb19	-0.61686856
61	0xbf1af4a2	-0.6052953
62	0xbf5b0a29	-0.8556238
63	0x3ecba84d	0.3977684

net.2.weight f4 [64, 64]
0	0x3cfcb2b2	0.030846927
1	0xbe4561db	-0.1927561
2	0x3af8c5da	0.0018979863
3	0xbd936dd6	-0.07198684
4	0x3d8d41fa	0.0689735
5	0x3d9d1191	0.07669366
6	0x3d5e4fda	0.05427537
7	0xbe27df40	-0.16393757
8	0x3dedfdb6	0.11620657
9	0x3dd03586	0.10166459
10	0x3da97bc5	0.0827556
11	0xbd3d2b69	-0.046183977
12	0x3d1d014f	0.038331326
13	0x3d1b6da6	0.037946366
14	0x3c04bce5	0.008101677
15	0xbdab5178	-0.08365148
16	0xbcd4b107	-0.02596332
17	0x3d99559f	0.07487034
18	0xbcb5a0da	-0.022171427
19	0x3d975d44	0.07390836
20	0xbd0d2b93	-0.034465384
21	0xbbd1a2c0	-0.006397575
22	0x3db54157	0.08850353
23	0xbd92c9ef	-0.07167422
24	0x3d5fd759	0.05464873
25	0x3d2b5a0e	0.04183393
26	0xbde2314e	-0.110445604
27	0x3daa28a9	0.083085366
28	0xbdd9cd1d	-0.106348254
29	0x3c30f90e	0.010801567
30	0xbdf3852f	-0.11890637
31	0xbdcc53aa	-0.09976895
32	0x3e0415e4	0.12898976
33	0x3bfccf53	0.0077151447
34	0xbd7eff05	-0.062254924
35	0x3c93f9d3	0.018063461
36	0xbd85bddb	-0.06530353
37	0xbe0380e7	-0.12842141
38	0xbcc57997	-0.02410583
39	0xbb8580c8	-0.00407419
40	0x3d2bfb79	0.04198787
41	0x3d7c6de4	0.061628237
42	0xbd163732	-0.036673732
43	0x3d1d5c1b	0.038417917
44	0xbe0ac9d8	-0.1355356
45	0xbcc1b08e	-0.023643758
46	0x3d985c08	0.074394286
47	0xbd18fc7d	-0.037350167
48	0x3d800fd9	0.06253023
49	0xbd63ac4f	-0.05558425
50	0xbdf21a69	-0.118214436
51	0x3d2b688e	0.041847758
52	0xbd82a00b	-0.06378182
53	0x3dc96a16	0.098346874
54	0xbe2ba8b2	-0.16763571
55	0x3dae0c62	0.084984556
56	0x3da4c9fd	0.08046339
57	0x3e80fcd0	0.2519288
58	0xbd833f57	-0.064085655
59	0x3da0c73b	0.078505
60	0xbd165255	-0.03669961
61	0xbdd7396a	-0.10508998
62	0xbd421d19	-0.04739103
63	0x3ce03379	0.027368294
64	0xbe806677	-0.25078174
65	0xbf98c9ce	-1.1936586
66	0xbd3b4684	-0.045721546
67	0xbe571842	-0.21005347
68	0x3f90ac43	1.130257
69	0x3e56649e	0.2093682
70	0xbebe53d4	-0.3717333
71	0xbee40fe6	-0.4454338
72	0x3bec66bb	0.007214395
73	0xbc075a9b	-0.008261348
74	0x3c6a9223	0.014317068
75	0xbe1af818	-0.15133703
76	0x3e1f8d2c	0.15581197
77	0xbd9a467e	-0.075329766
78	0x3ffabee6	1.9589508
79	0xbe2f2501	-0.1710396
80	0xbe831497	-0.25601646
81	0x3f2e4a6f	0.68082327
82	0x3ec3df52	0.38256317
83	0xbeb3bc3a	-0.35104543
84	0xbbd77bed	-0.0065760524
85	0x3f550325	0.83207923
86	0x3fd272fc	1.644134
87	0x3c092abb	0.008372004
88	0xbdf36279	-0.118840165
89	0x3f817aaf	1.0115565
90	0xbcf4b624	-0.029872008
91	0x3ebecf96	0.3726775
92	0xbd81f459	-0.06345434
93	0x3d8c24bb	0.06842943
94	0xbffc6699	-1.971881
95	0x3ea7b6fa	0.32756788
96	0x3e69c747	0.22829925
97	0xbd6d7bf3	-0.057979535
98	0xbe81efdc	-0.2537831
99	0x3ed2c153	0.4116312
100	0x3da12253	0.07867875
101	0xbe6deb9b	-0.23234408
102	0x3f618d01	0.8810578
103	0x3d72df8d	0.059295226
104	0xbd1015be	-0.035176985
105	0x3e069650	0.13143277
106	0xbd9bbace	-0.076039895
107	0xbe90e097	-0.28296348
108	0x3d5c3c37	0.053768363
109	0xbda26e1c	-0.07931158
110	0x3f3b8eaf	0.7326459
111	0x3fa0b53a	1.2555306
112	0xbf1fbf20	-0.6240101
113	0xbfb56c6a	-1.417371
114	0x3f0e2166	0.5551971
115	0xbfca58e7	-1.5808381
116	0x3c83f613	0.016108548
117	0x3d07ee73	0.033186387
118	0x3f209b74	0.627372
119	0xbf8fe565	-1.1241881
120	0x3ea5962e	0.3234114
121	0xbdf353e0	-0.11881232
122	0x3fd5e52c	1.6710563
123	0xc003674c	-2.0531797
124	0x3e845ed3	0.25853595
125	0x3e3170a3	0.17328124
126	0x3e33a1c7	0.17542182
127	0xbf88eda1	-1.0697519
128	0xbd573c9b	-0.052548032
129	0xbcb84625	-0.022494385
130	0xbd8a1dee	-0.0674399
131	0x3e1f5dad	0.15563078
132	0xbdd184ea	-0.102304295
133	0xbd9f7d42	-0.07787563
134	0x3d4c62e9	0.049899016
135	0x3d6f10c2	0.05836559
136	0xbe2fc5bb	-0.17165272
137	0x3dd946b6	0.1060919
138	0xbc2b0642	-0.010438504
139	0xbd3ffc4a	-0.04687146
140	0x3dc4fc4c	0.09618434
141	0x3d60a03a	0.054840304
142	0xbdfc61c8	-0.12323338
143	0x3dc75d0b	0.097345434
144	0x3d492e8f	0.049116667
145	0x3ceafc85	0.028684864
146	0x3da18639	0.07886929
147	0x3deb3ddb	0.11486407
148	0x3c8046e4	0.015658803
149	0x3c2d2578	0.010568015
150	0x3dce2124	0.10064915
151	0x3db1895f	0.086687796
152	0xbe2f2b61	-0.17106391
153	0xbda4da85	-0.08049492
154	0xbd9a025f	-0.075199835
155	0x3ca75229	0.02042492
156	0xbced00fd	-0.028931135
157	0x3d12dcb5	0.035855014
158	0x3c97a405	0.018510828
159	0x3ddd8ede	0.108182654
160	0xbd34706a	-0.04405252
161	0xbdb1feac	-0.08691153
162	0xbde3c67a	-0.11121841
163	0x3c932b60	0.017965019
164	0x3ac4fe96	0.0015029486
165	0x3b36da7d	0.0027901225
166	0x3d64c89c	0.05585538
167	0x3c994041	0.018707396
168	0x3d9197b6	0.07109015
169	0xbdbcdb33	-0.092214964
170	0x3d764c31	0.060131256
171	0xbda71fc2	-0.08160354
172	0xbd40258d	-0.04691081
173	0xbd35fcca	-0.04443053
174	0xbdacbbd6	-0.08434264
175	0xbd7a3a3b	-0.06109069
176	0x3dad0f4c	0.08450183
177	0x3dbaaffa	0.09115596
178	0xbda88c9e	-0.082299456
179	0x3df1e22e	0.118107185
180	0x3c9ca8bb	0.019123426
181	0xbd2257fe	-0.039634697
182	0xbda7c6aa	-0.08192189
183	0x3c2d8d4c	0.01059277
184	0xbe07771b	-0.13229029
185	0x3e178529	0.1479689
186	0xbd26f030	-0.040756404
187	0xbd55885d	-0.052132
188	0x3d5dc0f5	0.054139096
189	0xbbb4305a	-0.005498928
190	0x3ba2a3a1	0.0049633537
191	0xbe03a2ce	-0.12855074
192	0xbdbc4f92	-0.09194864
193	0xba08d693	-0.00052199623
194	0x3e13e1cf	0.14441608
195	0xbce29b00	-0.0276618
196	0xbd7b6692	-0.061377116
197	0x3db741d3	0.08948102
198	0xbdc7944a	-0.09745081
199	0xbe0ef0c0	-0.13959026
200	0x3d571ac9	0.05251578
201	0x3daa04aa	0.08301671
202	0xbc24e7ed	-0.010065061
203	0x3db689e4	0.08913019
204	0x3da3e1e4	0.080020696
205	0x3c85142d	0.016244972
206	0xbd79bedb	-0.06097303
207	0x3caf724c	0.021416806
208	0xbda52f15	-0.08065621
209	0x3d5e6616	0.054296575
210	0xbd781124	-0.06056322
211	0x3d04b519	0.03239927
212	0xbe34272f	-0.17593072
213	0x3d10c840	0.035347223
214	0x3db2652f	0.087107055
215	0xbd44e911	-0.048073832
216	0xbde8849c	-0.11353418
217	0xbd3601e7	-0.044435408
218	0x3aa6487c	0.0012686397
219	0xbda36772	-0.07978715
220	0xbe36ce3a	-0.17852107
221	0xbb5d4979	-0.0033765717
222	0xbd6466a8	-0.055761963
223	0xbd946710	-0.0724622
224	0x3c874922	0.016514365
225	0x3dad6f65	0.084685124
226	0xbce301a4	-0.027710743
227	0xbb952eb2	-0.0045526857
228	0xbe34579c	-0.17611545
229	0xbe20f8b9	-0.1571988
230	0xbdf718c9	-0.12065274
231	0xbddea0ba	-0.108705
232	0x3cd47ac8	0.025937453
233	0xbd8f95e5	-0.07011012
234	0x3dbca6ae	0.09211479
235	0x3d28514d	0.04109316
236	0xbca89c7e	-0.020582434
237	0xbe0c4049	-0.13696398
238	0xbd8362f5	-0.06415359
239	0x3dc586df	0.09644865
240	0x3c18c2db	0.009323801
241	0xbe01ad70	-0.12663817
242	0xbc2596e3	-0.010106775
243	0xbdf5e4fe	-0.120065674
244	0xbba440a9	-0.005012591
245	0x3d245e2e	0.04012888
246	0xbda3377c	-0.07969567
247	0xbd40f7ce	-0.047111325
248	0x3d379b91	0.044826094
249	0xbe0a8079	-0.13525571
250	0xbd5a2830	-0.053260982
251	0x3d3c5451	0.045978848
252	0x3cdc02b0	0.02685675
253	0x3d008719	0.03137884
254	0xbcd4d7c4	-0.025981791
255	0xbd8eaba7	-0.06966334

net.2.bias f4 [64]
0	0xbda3aa27	-0.07991438
1	0xbf04d09b	-0.51880807
2	0xbd3fe5dd	-0.046850074
3	0xbdb2a1f4	-0.08722296
4	0xbe662489	-0.22474875
5	0xbf1add86	-0.6049427
6	0xbddd07a7	-0.10792475
7	0xbf068edb	-0.5256173
8	0x3ef48f31	0.47765496
9	0x3e082f7d	0.13299365
10	0xbd88a360	-0.06671786
11	0xbf66cda3	-0.90157527
12	0xbf20bcc5	-0.6278804
13	0xbf491a4b	-0.78555745
14	0xbde15ab8	-0.11003631
15	0xbf4a90a1	-0.79126936
16	0xbe355e59	-0.17711772
17	0xbca28806	-0.019840252
18	0x3efcd329	0.49379852
19	0xbe20e1b2	-0.15711096
20	0xbe0fa4f5	-0.1402777
21	0xbf1bf12e	-0.60914886
22	0x3e5d0454	0.21583682
23	0xbe228b1c	-0.15873379
24	0xbd1f5317	-0.0388976
25	0xbdbf3cb3	-0.09337749
26	0xbc2b304c	-0.010448527
27	0xbcbd74a4	-0.023126908
28	0xbea3227b	-0.31862244
29	0x3d7da4de	0.061924808
30	0xbec6ce4b	-0.38829264
31	0xbe4162f5	-0.18885405
32	0x3c094905	0.008379226
33	0x3e4c83ee	0.19972202
34	0xbf150f87	-0.5822682
35	0xbda84692	-0.08216585
36	0xbd4f7063	-0.05064429
37	0x3e52d709	0.20589842
38	0xbd18e4f3	-0.037327718
39	0xbf392c82	-0.7233354
40	0xbc4caa1e	-0.012491731
41	0x3c9efe6c	0.019408427
42	0xbdb88f24	-0.09011677
43	0xbd963f6a	-0.07336314
44	0x3ca1f099	0.019768046
45	0xbe73333a	-0.2375001
46	0xbd95861e	-0.073009714
47	0x3db7aa3c	0.089680165
48	0x3dc7f40a	0.09763344
49	0xbdc0b527	-0.09409552
50	0x3d735638	0.059408396
51	0xbd3109e8	-0.043222338
52	0x3d025b55	0.031825382
53	0xbdd1cf05	-0.10244564
54	0xbf03bfab	-0.5146434
55	0x3da990a1	0.08279539
56	0x3dc59613	0.09647765
57	0x3d9e1b8e	0.077200994
58	0xbf039412	-0.5139781
59	0xbeb92028	-0.36157346
60	0xbdcd131d	-0.10013411
61	0xbf2c4c33	-0.6730377
62	0xbeab7401	-0.3348694
63	0xbe30d991	-0.17270495

net.4.weight f4 [64, 64]
0	0xbd91db0d	-0.07121859
1	0x3e5bbeb2	0.21459463
2	0x3bd87291	0.0066054543
3	0xbde6528a	-0.11246212
4	0x3d374977	0.044747796
5	0xbf0f7370	-0.5603552
6	0xbcaff3eb	-0.021478614
7	0xbfba7d70	-1.456953
8	0xbe8916ac	-0.2677511
9	0xbc816d9c	-0.015799336
10	0x392ccc50	0.0001647931
11	0x3f3f0703	0.74620074
12	0xbcb5ef8a	-0.022208948
13	0x3e64cebb	0.22344486
14	0x3add0b1e	0.0016864275
15	0x3f0e3b20	0.5555897
16	0x3c66b8d5	0.014082153
17	0xbdac0c05	-0.0840073
18	0xbf7d7024	-0.9899924
19	0xbd9df39a	-0.07712479
20	0xbd9baa99	-0.07600898
21	0x3e90a932	0.28254086
22	0xbcd2a29d	-0.025712306
23	0xbd9da18f	-0.076968305
24	0xbd8e2418	-0.06940478
25	0xbd35c63a	-0.044378497
26	0xbd728546	-0.05920913
27	0xbcebf871	-0.02880499
28	0xbe9b680e	-0.30352825
29	0xbd284335	-0.04107972
30	0x3f02d10a	0.5110022
31	0x3ebc4f5b	0.36779293
32	0xbc4981bc	-0.0122989975
33	0xbf01b0e5	-0.50660545
34	0x3d904390	0.070441365
35	0x3c615c0b	0.013754855
36	0xbd51058d	-0.051030684
37	0x3be55482	0.0069985995
38	0x3c5df1be	0.013546405
39	0x3f00705b	0.5017144
40	0xbf881e5c	-1.0634265
41	0x3bd3ca22	0.006463305
42	0xbd121682	-0.035665996
43	0xbd4a6a85	-0.04941799
44	0xbd4407ca	-0.04785899
45	0x3c9c62b6	0.019090038
46	0xbd2b5e25	-0.04183783
47	0xbd7d41e5	-0.06183042
48	0xbd4e62ef	-0.05038732
49	0xbd479cbd	-0.04873346
50	0xc04be032	-3.1855588
51	0x3bf63ed9	0.0075148162
52	0xbd6c9826	-0.057762288
53	0xbef522b0	-0.47878027
54	0x3eac9c74	0.33713114
55	0xbbe98efc	-0.007127641
56	0x3c9ee748	0.019397393
57	0xbcab9768	-0.02094622
58	0x3ef0716d	0.46961537
59	0xbec6a7cf	-0.38799903
60	0xbdc09639	-0.09403653
61	0x3f6bdc1b	0.9213273
62	0x3e2f8509	0.17140593
63	0xbe06ae60	-0.13152456
64	0x3e100e40	0.14067936
65	0x3d7ddfe0	0.061981082
66	0xbd1cac03	-0.03824998
67	0x3da7b554	0.081888825
68	0x3cc459e4	0.023968644
69	0xbded17ae	-0.11576782
70	0x3d835e0d	0.06414423
71	0xbd048243	-0.03235079
72	0x3c14da94	0.009085316
73	0xbd242873	-0.040077638
74	0x3d3f8114	0.046753958
75	0xbc98871c	-0.018619113
76	0xbc893024	-0.016746588
77	0xbd250ef1	-0.040297452
78	0x3dcec728	0.1009658
79	0xbddc2a0d	-0.10750208
80	0x3dc29930	0.095018744
81	0x3d8d867e	0.06910418
82	0xbcd2a494	-0.025713243
83	0x3dd8d6e3	0.105878614
84	0xbbfd40e1	-0.0077286814
85	0x3c7fff0f	0.015624776
86	0xbda251f9	-0.07925791
87	0x3d71839a	0.058963396
88	0x3dc92258	0.09821004
89	0x3c4d4b81	0.012530209
90	0xbdc2a1c8	-0.095035136
91	0xbbdea0c8	-0.006794069
92	0xbd4d2704	-0.050086036
93	0xbd80c7af	-0.062880866
94	0xbd4e81b6	-0.05041667
95	0xbd3210b1	-0.04347295
96	0xbda019ab	-0.07817396
97	0x3d2adf15	0.041716654
98	0xbe465bde	-0.19370982
99	0xbdaa86fd	-0.08326528
100	0x3e046d3c	0.12932295
101	0x3c26e29e	0.010185866
102	0xbe3201a5	-0.1738344
103	0x3e12a189	0.14319433
104	0x3cddbc0f	0.027067212
105	0xbdaef536	-0.08542864
106	0x3d8af519	0.0678503
107	0xbc438d10	-0.011935487
108	0x3cb4ccad	0.022070253
109	0xbd0ebab7	-0.034846034
110	0x3e07e56f	0.13271116
111	0x3cef1de4	0.029189058
112	0xbe465cd0	-0.19371343
113	0x3e1ec75c	0.15505737
114	0xbd95c13b	-0.073122464
115	0xbc9c9bcc	-0.019117258
116	0x3da1499b	0.07875367
117	0xbc83c441	-0.016084792
118	0x3cfd4a44	0.030919202
119	0xbdcdc42c	-0.100471824
120	0xbd191546	-0.037373804
121	0xbc907e42	-0.01763833
122	0x3d6797b4	0.05654116
123	0x3c5660d6	0.013084611
124	0xbd1346c2	-0.03595615
125	0x3dd22b24	0.10262135
126	0xbd733dbd	-0.05938505
127	0xbc66422f	-0.014053865
128	0xbd26c18f	-0.040711936
129	0xbb4c3016	-0.003115659
130	0xbdcf73cc	-0.101295084
131	0x3d502c50	0.05082351
132	0x3d04b5a9	0.032399807
133	0xbe4600a3	-0.1933618
134	0x3d8b1057	0.06790226
135	0x3df83e0b	0.12121209
136	0x3d37fe90	0.044920504
137	0xbe18e971	-0.14932801
138	0xbd32a4bc	-0.043614134
139	0xbdc85196	-0.09781186
140	0xbda46550	-0.08027136
141	0xbe617383	-0.2201672
142	0x3dceb767	0.10093575
143	0x3d7c1e24	0.06155218
144	0x3e1b936c	0.15192956
145	0xbdcea175	-0.10089389
146	0xbd599a79	-0.053125832
147	0xbc98f272	-0.018670294
148	0xbc6bc5ec	-0.01439045
149	0xbd35cd31	-0.04438514
150	0x3c6a9198	0.014316939
151	0xbe27236c	-0.16322106
152	0x3dd27015	0.10275284
153	0x3d95e523	0.07319095
154	0xbe6edad4	-0.23325664
155	0xbd8a7eec	-0.0676249
156	0x3d6de71b	0.058081727
157	0xbc065ebc	-0.008201297
158	0xbc10780a	-0.008817682
159	0x3dddb42f	0.10825383
160	0xbd506353	-0.050875973
161	0x3d41f5bd	0.047353495
162	0x3b68a24b	0.0035497125
163	0xbe1b5058	-0.15167367
164	0xbd1cedf3	-0.038312864
165	0xbd58a52a	-0.052891888
166	0xbd57bc1f	-0.05266964
167	0x3e29298e	0.16519758
168	0xbcd38bbb	-0.025823465
169	0xbe504ab3	-0.20340995
170	0xbb06258c	-0.0020469157
171	0xbda35d1d	-0.07976744
172	0xbdf6e34e	-0.12055074
173	0xbbcd4551	-0.0062643667
174	0xbdd7e754	-0.10542169
175	0x3d12bf98	0.03582725
176	0xbdc41dc9	-0.095759936
177	0x3d9e60f2	0.077333346
178	0xbd862036	-0.065491125
179	0xbd218d36	-0.03944131
180	0xbd99b8f0	-0.07505977
181	0x3d99cc1c	0.07509634
182	0x3e072df9	0.13201131
183	0xbd3f00d2	-0.04663164
184	0x3d1da5d7	0.038488235
185	0xbdf98122	-0.12182833
186	0x3d8f7380	0.07004452
187	0xbda35e5c	-0.07976982
188	0xbd4dd523	-0.05025209
189	0xbd099889	-0.033592734
190	0x3c1ad118	0.009449266
191	0x3c332559	0.010934197
192	0xbdb32628	-0.08747512
193	0xbe3967d1	-0.18106009
194	0xbe050eaa	-0.12993875
195	0x3d0c4215	0.03424271
196	0xbd86a7f8	-0.06575006
197	0xbe128af4	-0.14310819
198	0x3e037f9d	0.1284165
199	0xbd56887c	-0.052376255
200	0x3b9840a3	0.004646377
201	0xbde0cb2a	-0.109762505
202	0x3d41951a	0.047261335
203	0x3d2c65aa	0.042089142
204	0xbd93b067	-0.072113805
205	0x39ca2c10	0.00038561272
206	0x3e37267e	0.17885777
207	0x3e619cfd	0.22032543
208	0x3d95fc52	0.07323517
209	0xbd6f55a5	-0.058431286
210	0xbb9fb894	-0.0048742983
211	0x3df3d24d	0.11905346
212	0x3d0f67b2	0.035011
213	0xbe4fce12	-0.20293453
214	0x3ccfa0c4	0.025345214
215	0xbd4114e6	-0.04713907
216	0x3d9472c2	0.07248451
217	0x3e51c8aa	0.20486704
218	0x3d41273a	0.04715655
219	0xbc7c5b24	-0.015402589
220	0xbd0fe22b	-0.0351278
221	0x3b6e5740	0.0036367923
222	0xbe6a48c6	-0.22879323
223	0x3e97da22	0.2965861
224	0xbe0665dd	-0.13124795
225	0xbde0daab	-0.109792076
226	0xbdd48b13	-0.10378089
227	0xbdf1b951	-0.118029244
228	0xbd76ebda	-0.06028352
229	0xbd91bcac	-0.071160644
230	0x3db779d8	0.08958787
231	0x3bffd2ac	0.0078070965
232	0xbe2dee5e	-0.16985461
233	0x3d5c0c25	0.05372252
234	0xbda1f8a8	-0.079087555
235	0xbda5ec46	-0.08101706
236	0xbd8a2c8d	-0.06746779
237	0xbe6bf2fc	-0.2304191
238	0xbd75b0d6	-0.059983097
239	0x3d84fd7f	0.06493663
240	0xba6d3e20	-0.000905009
241	0xbe47e4d5	-0.19520886
242	0x3d39c97e	0.045358174
243	0x3ca7552d	0.020426357
244	0xbd17ef2b	-0.037093323
245	0xbe03e109	-0.12878813
246	0x3e1abed1	0.15111853
247	0x3cf8a7ec	0.030353509
248	0xbc86b03e	-0.01644146
249	0x3d8e77de	0.069564566
250	0x3e90b84b	0.28265604
251	0xbdbe6814	-0.09297195
252	0xbd0bf33e	-0.03416752
253	0xbd89e304	-0.06732753
254	0xbe4c9e1d	-0.1998219
255	0x3bd864e4	0.006603824

net.4.bias f4 [64]
0	0xbf2721d1	-0.65285975
1	0xbccefb7c	-0.025266401
2	0xbe65581e	-0.22396895
3	0xbe7b66b7	-0.24550901
4	0xbebe829a	-0.37209016
5	0xbdff9828	-0.124801934
6	0xbf610068	-0.87891245
7	0xbea1304a	-0.31482154
8	0xbe1b7b6f	-0.15183805
9	0xbf51c51d	-0.81941396
10	0x3c770582	0.015076997
11	0xbe319143	-0.17340569
12	0x3d7bed20	0.061505437
13	0xbe09b249	-0.13446917
14	0xbdd6e2be	-0.104924664
15	0xbc9151fd	-0.01773929
16	0xbdf381b0	-0.1188997
17	0xbe1b8567	-0.15187608
18	0xbe7b7187	-0.24555026
19	0xbd122995	-0.035684187
20	0x3c9f0060	0.019409359
21	0xbecb8fe5	-0.3975822
22	0xbe876124	-0.264413
23	0xbe15f1b3	-0.14642982
24	0xbd7cbce2	-0.06170357
25	0xbe0dde5f	-0.13854359
26	0xbe28bae2	-0.1647754
27	0xbec52a5f	-0.3850889
28	0xbef6656f	-0.48124263
29	0xbf011c65	-0.5043395
30	0xbea3c6e0	-0.31987667
31	0xbdf2166f	-0.11820685
32	0x3d53bcc1	0.05169368
33	0xbd8da973	-0.069170855
34	0xbe928877	-0.2861974
35	0xbb5cb3b8	-0.0033676457
36	0xbee05239	-0.4381273
37	0xbf1b3325	-0.60624915
38	0xbe881c48	-0.26584077
39	0xbe6d37cc	-0.23165816
40	0xbecf61ff	-0.40504453
41	0xbdbe810f	-0.0930196
42	0xbf59d556	-0.8509115
43	0xbe195b89	-0.14976324
44	0xbda624d6	-0.08112495
45	0xbf126d6f	-0.5719823
46	0xbda8260f	-0.08210384
47	0xbe83d3ca	-0.2574752
48	0xbde17e73	-0.110104464
49	0xbee5d704	-0.44890606
50	0xbe230529	-0.15919937
51	0xbe1af39d	-0.15131994
52	0xbe4eff27	-0.2021452
53	0xbdbfab1b	-0.09358808
54	0xbf02dc14	-0.5111706
55	0xbd3fcd4c	-0.046826646
56	0xbdab9e03	-0.08379748
57	0xbf50c70a	-0.8155371
58	0xbf10ceee	-0.5656575
59	0xbe0fb3ec	-0.14033478
60	0xbeaa9bc6	-0.3332197
61	0xbe0adcba	-0.13560763
62	0xbd9b853e	-0.07593773
63	0xbe333da5	-0.17503984

net.6.weight f4 [2, 64]
0	0xbe7a9adf	-0.24473141
1	0xbbfc54c1	-0.007700533
2	0x3be37883	0.0069418564
3	0x3b0fa848	0.0021920372
4	0x3dfb45ad	0.12269149
5	0x3cbcda3b	0.02305328
6	0xbe6ed584	-0.23323637
7	0xbb178a09	-0.0023123047
8	0xbbc12542	-0.005894334
9	0xbe182569	-0.14858021
10	0xbbada5b2	-0.0052992934
11	0x3b978463	0.004623936
12	0x3cfe47d2	0.031040106
13	0xbc22da1a	-0.009939695
14	0xbc8f4881	-0.017490627
15	0xbbade952	-0.005307355
16	0xbb7ac978	-0.0038267057
17	0xbb0a5cbc	-0.0021112403
18	0x3c2e5930	0.010641381
19	0xbc50fdf3	-0.012755859
20	0xbbebc643	-0.0071952655
21	0x3db76912	0.089555874
22	0x3c60c7cb	0.013719509
23	0x3a877bbf	0.0010336562
24	0x3d2ac637	0.04169294
25	0xbbd3cc6d	-0.0064635784
26	0x3bae0524	0.0053106714
27	0xbb066466	-0.002050662
28	0xbd71310a	-0.058884658
29	0x3dd4dd00	0.10393715
30	0x3d88c31f	0.066778414
31	0x3a12439b	0.0005579532
32	0xbbeb9a48	-0.0071900226
33	0xba4fbe74	-0.0007924803
34	0xbd052ef5	-0.032515485
35	0xbb236323	-0.0024930916
36	0x3b972948	0.0046130754
37	0x3ce35b53	0.027753508
38	0x3e0941ca	0.13404003
39	0xbb4dc3bb	-0.0031397182
40	0xbdc55b7d	-0.09636591
41	0x3b4120c9	0.0029469004
42	0xbea0008f	-0.31250426
43	0xbbfda50e	-0.0077406233
44	0x3b045bf5	0.0020196412
45	0x3dfbd00c	0.12295541
46	0xbc75110e	-0.014957679
47	0xbb6d1ff7	-0.0036182383
48	0xbb43fbd9	-0.0029904752
49	0xbd802688	-0.06257349
50	0xbabb42da	-0.0014286891
51	0xbc3a9549	-0.011388131
52	0xbc7cb047	-0.015422887
53	0xbc351bb7	-0.011053971
54	0xbe460127	-0.19336377
55	0xbb749bc9	-0.00373243
56	0xbc729721	-0.01480654
57	0x3e8976ff	0.268486
58	0xbde0c9b7	-0.10975974
59	0xbc9a8e77	-0.01886676
60	0xbc2df602	-0.010617735
61	0x3b9392f6	0.004503603
62	0xbc12e77f	-0.008966326
63	0x3c2cb575	0.01054131
64	0x3cb6414d	0.022247935
65	0xbb0489db	-0.002022377
66	0x3c2963bf	0.010338723
67	0x3c6e95f0	0.014562115
68	0x3d60d249	0.054888044
69	0x3ce0f030	0.02745828
70	0xbdf3f9c0	-0.119128704
71	0x3d0a1102	0.033707626
72	0x3b3bc70e	0.0028652581
73	0xbe47a82a	-0.19497743
74	0x3bb38f1e	0.0054797074
75	0x3bfcc543	0.007713945
76	0x3e15c1ef	0.14624761
77	0x3c1cdcaf	0.009574099
78	0x3cb39c21	0.021925034
79	0xbbd437b8	-0.0064763688
80	0xbacac409	-0.00154698
81	0x3a885b55	0.0010403196
82	0x3b7173fa	0.003684281
83	0x3c0e3a3f	0.008680879
84	0x3aa65e76	0.0012692946
85	0x3d6fdce8	0.058560282
86	0xbc0a38dc	-0.008436408
87	0x3ba10d3a	0.004914907
88	0x3c2bcf6a	0.010486463
89	0xbaae8626	-0.0013315126
90	0xbbd031a1	-0.0063535725
91	0x3cb3d35a	0.021951366
92	0xbe10254f	-0.14076732
93	0xbe246539	-0.16054238
94	0x3e1220ff	0.142704
95	0x3cc946e1	0.02456993
96	0xbae70094	-0.0017624074
97	0x3be4df22	0.0069846073
98	0x3e7bb47c	0.24580568
99	0xbc3014ec	-0.010747176
100	0xbda112e3	-0.078649305
101	0xbd282ed4	-0.041060284
102	0xbdb956a8	-0.090497315
103	0x3c60e46d	0.013726336
104	0x3d8fe81b	0.070266925
105	0xbbad0fd2	-0.005281427
106	0xbe31c4ec	-0.17360276
107	0x3b4f1b08	0.0031601805
108	0x3b6a3028	0.003573427
109	0xbd583a05	-0.052789707
110	0x3af864da	0.0018950955
111	0x3bdccb73	0.00673812
112	0x3c07ea32	0.008295583
113	0x3d729282	0.059221752
114	0xbb215437	-0.0024616846
115	0x3c840e6b	0.016120156
116	0x3b82366f	0.003973774
117	0x3bd84e58	0.006601136
118	0x3d5bfbcb	0.053706925
119	0x3c0a5f38	0.0084455535
120	0x3c22bb48	0.009932347
121	0xbced5455	-0.028970877
122	0xbca55541	-0.020182254
123	0x3c3b2549	0.011422464
124	0x3b2e846b	0.002662922
125	0xbb070fdd	-0.002060882
126	0xbace7b8b	-0.0015753371
127	0xbb5fe354	-0.0034162598

net.6.bias f4 [2]
0	0xbe0555b4	-0.13020974
1	0x3d128013	0.035766672
